model/1.pt (torch, 694923 bytes, 30 tensors)

1.df.df.fc1.weight_block_1.weights1 f4 [2, 76, 76]
00000000: c28c 323d f161 893b 0858 59bb faca 2ebb
00000010: e00d 1abd d724 b63c 1602 2d3b 6e42 4a3d
00000020: c587 053d f0a1 503a a339 5e3b c52b 433b
00000030: df4c a3bc 5554 623c 881c 5f3c 9331 103d
00000040: 41fe 463d e478 5fbc 57f4 283d ad17 92bb
00000050: 79dc 64bc b64e 0fbd 1300 95bc a528 cc3c
00000060: abc2 023c 26f3 883c c9a1 613d 0691 b93c
00000070: c742 b23c 7fd1 afbd b97c 683c fade 4a3d
00000080: d6b5 0c3d 5d00 9c3b 904e c63c ee59 553c
00000090: 3253 b0bc fc59 223d ab46 e33b 7c83 91bd
000000a0: 0436 ccbb 63d9 45bc 9fb1 cfbc 3bbf 9e3c
000000b0: 7a28 32bd 641c bb3c e93b b5bb ebcc 05bd
000000c0: dee6 c33c bdd9 c7bd 508e 86bc 8453 05bc
000000d0: caaa 03bc 66d8 c93c 6c3d 72bd b3e6 1bbc
000000e0: 7212 4b3c 58f2 0bbd 5722 8abb 4103 f53c
000000f0: 10c4 103d 487e dfbb 4977 253d 6f31 ffbb
00000100: ab58 813c bb3e d23b f2e2 e33c 7f90 37bd
00000110: dd12 de3c 2cea c93c d2f7 eb3b 2c44 933c
00000120: 2534 893c c571 183d 6888 ffbb 79ca 85bb
00000130: c465 18bb 0950 c23b c484 0a3c bdc3 cc3c
00000140: a067 413c fdc8 d53b 3857 853c 4197 ebbc
00000150: 1a8a bf3b 2951 373c 771d 653c d8bb 503b
00000160: e288 10bb 1f2a c43b e9f2 1a3b 7c0c 5bbb
00000170: d0ef a3bc 4cae c43c d607 483a 8090 aa3c
00000180: 1123 843b 6214 973c c7f9 3e3c 21c6 fc3b
00000190: 685c 733c f5fb 093b 1050 38bb 2edc 753b
000001a0: 8abe 803c ffb1 ec3a 0e6b 9c3c 2f82 0abb
000001b0: 234b 663c 3e62 193c 0cae bbbb 103a 7f3c
000001c0: 14c8 fc3c c2b8 8b3b 330e 8c3c ab4c 123d
000001d0: 3386 c63c 7c6c 513c 88aa be3c fbf8 a0bb
000001e0: fe77 4b3d d6b0 0abb d7d6 1f3c 9106 d8ba
000001f0: e99e 0e3c dbb3 2b3d 5353 023d a63c bf3c
00000200: 7cfa cf3c 39e0 543b 8498 9d3c b4c0 cf3c
00000210: 7a6d 7a3a 4306 6a3d d0c7 d73c 401f 37bc
00000220: 4fbd 98bb 0d8c 293d 91f9 663b 6185 133d
00000230: 2479 473c c75c b63c cedd 8cbb 966b 493c
00000240: 32eb a43b de0a 39bc 1043 d1ba 7aa4 42bc
00000250: c575 02bb 7f56 853a dad1 b83c 531b be3c
00000260: 68fb 8f3c b435 133d ee08 a43c cace 10bc
00000270: e82f c53c cc6e 893b 35f0 1fbd 1583 b5bd
00000280: 20ed 8a3b d5f7 d43b 2a68 5c3c 3e39 b4bd
00000290: 4064 ffbc 9e80 323d f020 003d 1c34 83bd
000002a0: ce3e d9bb 180b 273d 1cf2 9a3d fcc5 d53c
000002b0: f6b9 403d 101e b8bc 7dcf 95bc e5a2 253d
000002c0: 60e6 adbd 0ced 2c3d b0e6 923c bc2b 663c
000002d0: 79e5 babc 6c82 3f3d e825 81bd e822 913d
000002e0: f90e 97bc 8922 b2bc 4e45 903d 1e03 8fba
000002f0: b1d2 72bd b196 15bd cbbe 223d bb6c e2b8
00000300: 29d1 5d3c 3358 59bd eed0 e73a 48e5 063d
00000310: 34f3 c4bc 56ac 763d 1ee7 f4bc 496d 64bc
00000320: b0ef a7bc eac5 3b3d dd88 bd3a ab11 103d
00000330: 275f 8abc 8e4e 033c 17a8 8a3b 6636 42bc
00000340: a165 babc ccd5 9fbd 7110 aebc da3f 653d
00000350: f8c3 383d ff6e 283d 6b8e 123d 59ea 55bd
00000360: 1656 2939 9f54 4b3d 0088 583d 43e5 1c3d
00000370: 55df cdbc 8c67 33bc dc1f 4f3d e1d3 273d
00000380: 4e1f 003d 4a1b 8abc 30f3 bcbc a31e 8cbd
00000390: 2cd0 b4bd 8400 2dbb 1784 bb3c be1a a6bc
000003a0: b7d6 9e3d 8c5a 8fbd 1adb 2ebd ae53 81bd
000003b0: 92fd a4bd 2bf5 f23c 8dcf e93c bb9d 0bbd
000003c0: 3186 363d 4cde 9a3c f337 13ba db27 febd
000003d0: 5230 b23c 33bd 7e3d 9a2b 44bd 31a3 1d3c
000003e0: 532e 133d 09f6 1c3d 4bd6 8c3c 1bcd f93b
000003f0: b414 edbd 92aa dd3b 97f8 ddbd 94d5 133c
0.04359127 0.0041925837 -0.0033164043 -0.0026671276 -0.03761089 0.022234363 0.0026398948 0.04937976
0.032600183 0.0007958701 0.0033908866 0.0029780727 -0.019934116 0.013814052 0.013617642 0.035203528
0.04858232 -0.013639662 0.041248646 -0.004458389 -0.01396858 -0.034987174 -0.018188512 0.024921725
0.007980983 0.016717505 0.05508593 0.02265216 0.021760358 -0.0858488 0.014189892 0.049529053
0.0343531 0.0047607855 0.024207383 0.013021929 -0.021524046 0.039636597 0.0069359145 -0.07105157
-0.006232025 -0.012075755 -0.025353251 0.019378295 -0.043495633 0.022840686 -0.0055308235 -0.032666128
0.023913797 -0.09758327 -0.016425282 -0.008137587 -0.008036325 0.02463932 -0.059140608 -0.009515452
0.012394534 -0.034166664 -0.0042155194 0.029908778 0.03534323 -0.006820474 0.040396962 -0.0077878754
0.01578935 0.0064161695 0.027818177 -0.044815537 0.027108604 0.024647795 0.0072011733 0.017976843
0.016748497 0.037217874 -0.0077982433 -0.0040829745 -0.0023254016 0.005929951 0.008454505 0.024995679
0.011804491 0.006524204 0.01627694 -0.028758647 0.0058453204 0.011188784 0.013984076 0.0031850245
-0.0022054245 0.0059864665 0.002364332 -0.003342419 -0.020011812 0.024008892 0.0007630562 0.020820856
0.0040325006 0.018442336 0.011656231 0.0077140485 0.014853574 0.002105472 -0.0028123893 0.003751527
0.015715856 0.0018058418 0.019094016 -0.0021134724 0.014056 0.009361802 -0.005727535 0.015577808
0.030857123 0.004263968 0.017096614 0.035717648 0.024233913 0.012782212 0.023274675 -0.0049124933
0.04967498 -0.0021162531 0.009755812 -0.0016481449 0.008704879 0.04191957 0.031817745 0.02334435
0.025387995 0.003248228 0.019237764 0.025360443 0.00095530564 0.057134878 0.026340395 -0.011176884
-0.004661239 0.04139333 0.0035243968 0.036015872 0.012174878 0.022261037 -0.004298902 0.012293717
0.0050329203 -0.011294095 -0.0015965421 -0.011880035 -0.0019906622 0.0010172873 0.022561003 0.023206389
0.017575935 0.035939887 0.02002379 -0.008838365 0.024070695 0.004194116 -0.03904744 -0.088628925
0.0042396933 0.0064992704 0.013452569 -0.087999806 -0.031175733 0.04357969 0.03128141 -0.064064234
-0.0066298014 0.040782064 0.0756571 0.026095383 0.047052346 -0.022475272 -0.018287415 0.04043855
-0.08491206 0.042218253 0.017932266 0.014048513 -0.0228145 0.04675524 -0.06306058 0.07086736
-0.018439757 -0.021744983 0.07044469 -0.0010910963 -0.059282962 -0.036520664 0.039732736 -0.000107967724
0.013538637 -0.05306263 0.0017686167 0.032933503 -0.02404175 0.060222946 -0.029895362 -0.013942071
-0.020500034 0.045843042 0.0014460344 0.0351731 -0.016891075 0.008014334 0.0042314637 -0.01185379
-0.022753539 -0.078044504 -0.021248074 0.055969097 0.045108765 0.04112148 0.03578035 -0.052225444
0.00016149165 0.049641248 0.052864075 0.03830458 -0.025130907 -0.0109499805 0.050567493 0.040973548
0.031279854 -0.016858716 -0.02306518 -0.06841781 -0.08828768 -0.0026398012 0.022890134 -0.020276424
0.07755797 -0.06999692 -0.04268942 -0.06314789 -0.08056177 0.02965792 0.02854135 -0.03408597
0.04456157 0.018904828 -0.0005615942 -0.124099456 0.021751557 0.062192153 -0.047893144 0.009621427
0.03593285 0.038320575 0.017192027 0.0076233274 -0.115762144 0.0067647183 -0.108384304 0.009023089

1.df.df.fc1.weight_block_1.bias1 f4 [2, 76]
00000000: 7949 9e3d 77ad 803d 742e 8e3d d098 ba3c
00000010: 9ba7 0e3d 1e6d ca3c e7df db3c 8f16 663d
00000020: 3663 a337 2f31 4c3c 9ffd 8c3d b7f5 cf3c
00000030: f8dc 723d 760d 22bc 71a7 0f3c e3b5 423a
00000040: b1fd f0bd 5cb2 0a3d 78f0 023d 5721 513d
00000050: f0c5 e13b 36f3 cf3d fb0e 443d c662 fc3c
00000060: b866 a53d c89f 0cbd a11a 263d 965b cebb
00000070: 81e3 1f3b 6c75 77bd 6885 ee3c 662a f33d
00000080: 24f3 8c3d c25f 113d 0b3a 2f3d eae3 c23c
00000090: 868b 883d 6ab6 063c cf49 febc 5380 37ba
000000a0: 5881 983d b445 73bb e2d3 033c 8f5e b73a
000000b0: 241c 033d 90c1 5a3b 012b b43c 4d9d b83c
000000c0: 8623 943c 9198 09be aad3 e33d 2caa ed3c
000000d0: 4fe2 623c 11a2 5d3d e64f 593c 3435 0c3b
000000e0: 890a f239 31d9 d03c dffb 783c 0aa8 a03c
000000f0: 27f0 19bd 9057 053e bf64 993d dd20 303b
00000100: 84aa d93c 3ce0 ba3d d7de 90ba d763 b9bd
00000110: 0efc 643d 16c0 8b3c 249c 0abc 0cde 6d3c
00000120: 2a53 3d3c c614 da3c eb2a 223c 58cc 2a3d
00000130: 98df 4c3d 0ccc f0ba 0911 a9bc 39db d13d
00000140: 8e02 9c3d 351e 883c d415 a43c 4b55 52bd
00000150: 7f17 27bd e188 993c 7030 a9bc ed33 703d
00000160: bdc4 07bb 346d fa3c 4db9 3b3b 0cce 5b3b
00000170: a63c 92bd a15a e43c 3967 1f3c d593 7939
00000180: 4a35 2f3d a717 913b 55ed fd3c 2996 233d
00000190: 9fb5 1b3d 5d49 3dbd 02b5 273d 0c68 06bc
000001a0: c759 08bc f9fc 923d 78e1 2d3d 6e56 353d
000001b0: a4e0 eabc 96ee 3b3c 0300 16bd be52 853c
000001c0: 8b16 093d 35ca af3c 2e56 9cbc 9aa8 7e3d
000001d0: 65be 4a3d d700 203d 678f 1d3d 9e1a 4b3d
000001e0: 4dfc 013d ec43 8c3b b8b4 363d 0197 8b3b
000001f0: 305b 873c 0e76 c0bc 88ab 293d 6900 a23d
00000200: 1916 d73a 82dd a8bc 4b25 c73d 7768 113d
00000210: e283 703d 9ffd 4c3d c31f 253d a440 1d3c
00000220: bc66 453d 4401 9e3d 1b96 503d b5a3 c43d
00000230: db46 653d 3dea 213d 91ef fc3c 3ccc 243d
00000240: 6f3b adbb 9610 e43c 7c1a 2e3d 0766 bdbc
00000250: c724 f938 d8d9 853c 4c1c ac3c 427d 313d
0.077288575 0.06283086 0.06942454 0.022777945 0.03482781 0.024710234 0.026840163 0.056173857
1.9477313e-05 0.012462898 0.06884312 0.02538572 0.059292763 -0.009890905 0.0087679485 0.0007427616
-0.11767138 0.033861503 0.03196761 0.051057186 0.006890051 0.10153811 0.04786585 0.030808818
0.08076233 -0.034332067 0.04055274 -0.006297539 0.0024397078 -0.060414717 0.029116347 0.11873321
0.06882313 0.035491712 0.042779963 0.023790319 0.06667237 0.008222202 -0.031041054 -0.0007000018
0.07446545 -0.0037120404 0.008046122 0.0013989973 0.03200926 0.0033379532 0.021993162 0.022535944
0.018083345 -0.13437106 0.11124356 0.029011808 0.0138479015 0.054109637 0.013263678 0.0021394016
0.00046165686 0.02549419 0.0151967695 0.019611377 -0.037582543 0.13021684 0.07489919 0.0026875057
0.026570566 0.091248006 -0.001105274 -0.09052246 0.05590444 0.017059367 -0.008460078 0.014518272
0.011555472 0.026621234 0.009897928 0.041698784 0.050017923 -0.0018371358 -0.020638006 0.102468915
0.07617675 0.016615966 0.02002994 -0.051350873 -0.040793892 0.018742027 -0.02065298 0.05864327
-0.002071663 0.03056965 0.0028644383 0.0033539562 -0.07140474 0.027875246 0.0097292 0.00023801562
0.04277543 0.0044278684 0.030996958 0.039938126 0.038015004 -0.046212543 0.040944107 -0.008203518
-0.008322186 0.07177157 0.042451352 0.04427188 -0.02867157 0.011470458 -0.036621105 0.016274806
0.033468764 0.021458725 -0.019084062 0.06217251 0.04949798 0.0390633 0.038466837 0.04958593
0.031734753 0.004280558 0.04460594 0.0042599444 0.016522974 -0.023493793 0.04142335 0.079102345
0.0016409784 -0.020613436 0.0972391 0.035500016 0.058719523 0.05004656 0.040313493 0.009597931
0.04819368 0.07715085 0.0509244 0.09601537 0.055975776 0.039530028 0.030875953 0.040233836
-0.005286626 0.02783994 0.042505726 -0.02311994 0.000118800956 0.016339228 0.021009587 0.043332346

1.df.df.fc1.weight_block_2.weights1 f4 [2, 76, 76]
00000000: ea30 1a3d 86f3 fc3b 194a 3e3d 7717 8d3c
00000010: cc27 d83c 55fe 553d 9155 69bc b590 eb3c
00000020: 2259 c9bc a10d 97bc cdec b3b9 6fb1 6d3a
00000030: 853e 873b 035b 503c b8ba 9d3b f12e e63c
00000040: 475a 81bc 8210 823c 809e e23b 6caa 6d3c
00000050: 8a00 5f3d d6dd e53b cf60 443c 96ff 103d
00000060: 2d15 ab3b 36a1 f23b af27 b8bc 5cad cf3c
00000070: fe48 b9bc b80d 82bc 8a89 7db9 8d3b 443d
00000080: acb0 e0ba c0c8 9fbb f364 a7bc 9c34 f7bb
00000090: 9413 66bd 9fa8 083d 8b70 f73c b60b a2bc
000000a0: 6556 203d ca9f 093b 00f1 0bbc eed2 1abd
000000b0: 04e2 443d 307c 443d 22c6 2f3c 8b91 7dbc
000000c0: d246 433d e4d9 e0bc b447 b53c 66d6 283d
000000d0: 1f00 e6bc b3e5 fdbc 994a 22bc 9aea 4dbd
000000e0: ce62 54bc 2a0e c9b8 38cc ec3b 4f5e c83c
000000f0: 2846 43bc c1a5 22bc dda0 863d c297 94bc
00000100: 1793 27bc 0858 6d3d ac8d d43c 611b 683d
00000110: 5564 1f3d 4a61 f2bc 2938 353c 5804 acbc
00000120: 0b82 babb bacc f639 a48e 2f3d 996f a83c
00000130: cce6 113c aeef 4b3b 9635 443c 7a25 d23b
00000140: 11c9 813b f2be 65bc b0c8 0f3c 3e0b 1abb
00000150: 579d 0d3c b6b4 953c 5d8a 153d c20f 813c
00000160: 5b32 253c 22dc 3b3c a22e 183d 6b59 3c3c
00000170: 9c1b 163d c3e9 7e3c a5fa 1cbb 4775 24ba
00000180: 961b e1bb 2d0f c2bb 10a8 f6ba a055 053c
00000190: 4ce1 3f3c 7d8b 473c 1cff 183d 25e6 593b
000001a0: 691e 3e3c 87e4 243d e55f 54bc d4b8 1ebc
000001b0: 21b0 0a3b 4b3e 0c3d 9adb eb3c 47ec dc3c
000001c0: 551b 283b 3e5c 373b 6772 af3a cb1d db3c
000001d0: 5e1d 19b9 1e03 ac3b fd00 9e3c 68f6 393d
000001e0: 8a6b f1bb ab1b 0c3b 0a96 533c fc03 863c
000001f0: c37e 67bb ce04 5d3d 98c4 9f3b bfbf 043c
00000200: 9a40 0d3d fc7f 033d 9b1b a03c d859 6e3d
00000210: d938 393d 765c 8b3c dc36 cdba 4dd9 89bb
00000220: 45e1 cc3b b18b f03c 8042 44bc fb9a 1c3d
00000230: 3ef5 f03c 8d10 913b d98f 2cbc bb88 7cbc
00000240: e738 813c 0501 143d 8d4b 603c 7f72 96bb
00000250: 11bb a23c 27d2 933b e1c4 b13b 7885 133c
00000260: 770d e63d cae5 90bc 87e9 123d e98b 8ebd
00000270: 4b44 b23c 3725 053b 4757 0b3d c989 333c
00000280: 834b 0cbd c103 283d cce0 f3bd 5002 373c
00000290: 3e9f 793d c05e 5fbc 832e 4fbb 666c c53d
000002a0: daae 293b 1615 0cbd eb97 723d b170 223d
000002b0: 4d7b e2bc 831f 573d 495a 173b 13fc 26bc
000002c0: 08c2 e2bb d14a 97bc b3d6 77ba 9aa9 343c
000002d0: 19a0 5e3c 376d 12bd 8c15 883d d111 933d
000002e0: 35bb b6bc 102a cd3b 9ced 51bd 8034 6dbb
000002f0: 24c1 2dbc aa19 6b3d 65f8 423d 9c49 7bbd
00000300: 5bb9 3d3b 440f 34bd 03c4 8d3c d608 813b
00000310: 84c2 53bc 44c5 50bc 097a 363d 275b 23bd
00000320: 8f2d 883d 2c5e c13a bd8f 6bbc c8a2 0b3d
00000330: cfee b5bc 484d 953c 5682 543c 45ac ccbc
00000340: dc1a 9a3c e885 063c 37a6 963c ddab 71bc
00000350: 78e2 1e3c 9f18 c23c b4bc 733c 2b78 973a
00000360: e3a7 bd3c ec32 35bd 2311 223d c239 1b3d
00000370: 3f8b dc3d d847 f43c b117 c03c 2ea9 123d
00000380: 1e63 16bb 2252 c23c c690 df3c 9e70 9c3c
00000390: fc26 15bc 5b0a 4b3c 15b2 f6bd 39f5 a5bd
000003a0: cdf2 2bbc 9dec 58bd 4f74 e83d 72a2 89bc
000003b0: 12cf 583c 7bb0 b03d 9f90 e4bd 29b6 2e3d
000003c0: 113f f03b 5c87 48bd 8a54 4bbd bc55 0cbc
000003d0: 5c1f a43c 2894 37bd 7cde 4b3d 8fc1 863c
000003e0: 1439 c1bd f761 7a3d 768e 353c 7804 91bd
000003f0: 8b4d cbbc 6dc9 3dbd 6031 723c db5e 7cbc
0.037644304 0.00771946 0.046457384 0.017223103 0.026386164 0.052244503 -0.014241592 0.028755525
-0.024578635 -0.018439116 -0.0003431797 0.0009067272 0.004127326 0.012717011 0.0048135184 0.028098555
-0.015790118 0.015877012 0.0069158673 0.014505964 0.054443873 0.0070149703 0.011985972 0.035399996
0.00522103 0.0074044717 -0.02247986 0.025351219 -0.022617813 -0.015875682 -0.00024179197 0.047908355
-0.0017142496 -0.004876226 -0.020433879 -0.0075441133 -0.056171015 0.033363935 0.030205032 -0.019780975
0.039144892 0.0020999783 -0.008541346 -0.037798814 0.048067108 0.047969997 0.010728391 -0.015476595
0.04767496 -0.027447648 0.022128917 0.04122009 -0.02807623 -0.030993318 -0.009905481 -0.05027256
-0.01296301 -9.587065e-05 0.007226493 0.024459032 -0.011918582 -0.009927214 0.06573651 -0.01813877
-0.01022794 0.05794528 0.02594646 0.056666736 0.038914043 -0.029587407 0.011060753 -0.020998165
-0.005691772 0.0004707331 0.042860642 0.020561026 0.008905124 0.0031118202 0.0119756665 0.006413159
0.0039607366 -0.014022576 0.008775875 -0.0023505236 0.00864347 0.018274646 0.036508907 0.015754584
0.010082806 0.011466058 0.037153848 0.011495928 0.036647424 0.015558663 -0.0023953107 -0.0006273579
-0.0068697436 -0.0059222193 -0.0018818397 0.00813809 0.01171143 0.012179253 0.037352666 0.003324875
0.01160393 0.040257003 -0.012962316 -0.009687621 0.002116211 0.034239095 0.028791238 0.026968135
0.0025651057 0.0027978565 0.0013385535 0.026747605 -0.00014602157 0.005249395 0.01928758 0.045401007
-0.007367556 0.0021378796 0.01291419 0.016359322 -0.0035323359 0.05395966 0.0048757307 0.008102356
0.034485437 0.032104477 0.019544413 0.05819115 0.04522023 0.017011862 -0.0015656608 -0.0042068125
0.00625244 0.029363485 -0.011978745 0.03823374 0.029413816 0.004427022 -0.010532343 -0.015413458
0.015774203 0.036133785 0.013689888 -0.0045912857 0.01986459 0.004511136 0.005425081 0.009003989
0.11233037 -0.017687697 0.03586724 -0.069602795 0.02176108 0.0020316371 0.03401878 0.0109581435
-0.0342517 0.041019205 -0.11908111 0.011169985 0.06094288 -0.01363343 -0.0031613417 0.09639816
0.0025891573 -0.034199797 0.05922691 0.039658252 -0.027646685 0.052520286 0.0023094586 -0.010191935
-0.006920103 -0.018468292 -0.0009454295 0.011026764 0.013587975 -0.035748687 0.06644735 0.071811326
-0.022306064 0.0062611178 -0.051251993 -0.0036194623 -0.01060513 0.057397522 0.04760017 -0.061349496
0.0028949592 -0.04395987 0.01730538 0.003937821 -0.012924794 -0.012742344 0.044549976 -0.03988185
0.066493146 0.0014752797 -0.014377532 0.034090787 -0.0222086 0.018225327 0.012970528 -0.024984488
0.018811636 0.008210637 0.018389804 -0.014750448 0.009697549 0.02369338 0.014876533 0.0011556199
0.023151344 -0.044238016 0.039567124 0.03789688 0.107687466 0.029819414 0.023448797 0.035805874
-0.0022947262 0.023720805 0.027290713 0.019096669 -0.009103533 0.012392606 -0.12045685 -0.08103413
-0.0104949 -0.052960027 0.11350309 -0.016801093 0.013232963 0.08627411 -0.11160397 0.04265419
0.007331737 -0.048957214 -0.04964117 -0.008565363 0.020034485 -0.044819027 0.049772725 0.016449718
-0.09434715 0.061128583 0.011081329 -0.070809305 -0.024817249 -0.046334673 0.01478228 -0.015403475

1.df.df.fc1.weight_block_2.bias1 f4 [2, 76]
00000000: 6869 0d3e d4f2 c23c e13e 473d fc83 693d
00000010: 8aea 5e3d a4bc 363d 43e7 353d 257d 4a3c
00000020: 49cd a23c fd17 783d 94b8 4e3d 3c6a 42bd
00000030: 80de 15bc 3dff 483d 0893 1c3e 6b5d b73c
00000040: 1463 893d 693f 963c c84a c03d dd8b fd3c
00000050: bc0c 3c3d b877 fd3c bea1 983c 5639 ae3d
00000060: 4039 893d 0bc2 ad3d 5a9d f33b 6f57 233c
00000070: 9f17 883b e886 a83c 327d 443b c0a7 f83d
00000080: d2e0 ca3c f330 5b3d d926 cc3c d9b5 773d
00000090: d0fa a03c 1f15 353d 8e45 a93d e971 d03c
000000a0: 6251 b23c 4da9 203d a57d 923c 4786 953d
000000b0: 200c 3fbc f04f 803d f564 273d 5ec6 103c
000000c0: 490d bcbd 3991 e63d 0160 dcbc b880 3cbc
000000d0: 4fc0 83bc 6e77 0b3d 4df9 693d 39a5 183c
000000e0: 9162 ef3d 2296 d8ba a4c3 2cbc 8c72 4b3b
000000f0: 1d3f 0b3d c619 853c 9252 0b3e fba3 c63d
00000100: ff68 71bc 768d 813c 0af1 bc3b 4e68 f7bd
00000110: 90aa d03d 1ef0 543d 0818 d2bc 0933 7f3d
00000120: 688b e33c 557d 8c3c b683 d53d 3de2 eabb
00000130: 4b3d 133d 0911 473d 069e 7f3d 2456 563d
00000140: ca1e ab38 8aea ff3c 1d38 30bd aa93 8e3c
00000150: e215 73bc e455 1fbc 21d2 fd3c c542 89bc
00000160: be4d dd3c a891 ad3c dcfd 803d cd8c f03c
00000170: 7786 873d 5b7e 443d bb77 0f3d af2d c43b
00000180: 9ea4 20bc 0e6d 443d be0a 313d d3d2 633d
00000190: d4e4 39bb f7ed ec3c cac2 e43c f838 1f3b
000001a0: 59bc 923b ddc2 cd3c 7df1 133d a195 fc3c
000001b0: 79d4 9b3c 12d2 d6bc ce90 2a3d 541e 843c
000001c0: b387 2c3d ba38 97bb 0c4f f63c fd84 dd3c
000001d0: 0f3a 3a3b a513 023c af7d f63d db09 833c
000001e0: e441 7cbc 0db5 c6bd 48cc 0cbd 2b4f 4f3d
000001f0: 99ed 31bc c100 6f3c e545 35bd 4ac8 0b3d
00000200: 417e 523d 13f9 e33a a903 9e3c d6c0 90b9
00000210: a67b 1bbc 8355 bebb 8c7a 68bc 1f92 80bc
00000220: be27 e4b9 1dbe 6f3d 4e6e 13bd 4560 1b3d
00000230: 283c 0cbd 5520 ea3c a930 3abb 44d6 bcbc
00000240: 5ed6 99bc dc29 5e3d 3f2d b03a 2551 98bc
00000250: 21b5 553d 165a 373d 86dc 893b 2c20 123d
0.1380974 0.02379743 0.04864395 0.057010636 0.054422893 0.044613495 0.04441 0.012358938
0.019873278 0.060569752 0.050468996 -0.047464594 -0.009147286 0.04907154 0.15290463 0.022383412
0.06708351 0.018340783 0.093892634 0.030950481 0.045910582 0.030940875 0.018631812 0.0850703
0.06700373 0.084842764 0.0074345293 0.009969576 0.0041532065 0.02057214 0.0029981849 0.12141371
0.024765406 0.05351348 0.024920868 0.060476158 0.019650847 0.044209596 0.0826522 0.025444942
0.021767322 0.039223958 0.017882178 0.07301002 -0.011660606 0.06265247 0.040867765 0.008836357
-0.091822214 0.11258168 -0.026901247 -0.011505298 -0.01608291 0.034049444 0.057122517 0.009316736
0.11688722 -0.0016524235 -0.010544691 0.0031043617 0.033995736 0.016247641 0.13605717 0.096992455
-0.014734506 0.015814524 0.005766039 -0.120804414 0.10188782 0.051986806 -0.025646225 0.06230453
0.027776435 0.017149607 0.104255125 -0.007168083 0.035947125 0.04860023 0.062406562 0.052328244
8.15965e-05 0.031239767 -0.043022264 0.017404396 -0.01483676 -0.009725068 0.030983986 -0.016755471
0.02701461 0.021187618 0.0629842 0.029364014 0.06617444 0.047972064 0.035026293 0.005986891
-0.009804873 0.047955565 0.043223135 0.05562098 -0.0028365152 0.028922064 0.027924914 0.002429543
0.004478019 0.025117332 0.036118973 0.030833067 0.019022213 -0.026223216 0.041642003 0.016127743
0.0421216 -0.0046149166 0.03006699 0.027040953 0.0028415953 0.007939254 0.12035691 0.01599591
-0.015396569 -0.097025014 -0.034374505 0.05061261 -0.01085987 0.014587582 -0.04425611 0.034126557
0.051389936 0.0017392955 0.019288855 -0.00027609494 -0.009489929 -0.0058085336 -0.014189374 -0.015694676
-0.0004351716 0.058530916 -0.035993867 0.037933607 -0.034237057 0.02857987 -0.0028410351 -0.023051389
-0.018778976 0.05423914 0.0013441219 -0.01859338 0.05217469 0.044763647 0.0042071966 0.035675213

1.df.df.fc1.concat_real_layer_1.weight f4 [76, 152]
00000000: ce11 b4ba eb2e 823b 2090 933d 7441 083d
00000010: ebd1 19bd 2635 cc3b 237e 8fbd 1d9f dd3c
00000020: f431 fab9 eecf 52ba 1dd9 373c 973c cebc
00000030: a372 e63d d814 453d 7bda f2ba 873e 0c3c
00000040: 083e 563c 6e5f 29bd 592c 623d 429a 1b3c
00000050: 2bc7 46bb a866 303c c49b 593d 57ce 263d
00000060: f3ed c1bd 1028 993d ccc1 e13c 102e b43c
00000070: 6650 013d d5dc 413d eaf9 6cbd adb0 4f3c
00000080: aa13 abbc 2cda 023c f4bf 8b3d 7c4b babc
00000090: 1525 babd d528 08bd c2a7 6e3d 18ce a03d
000000a0: ea38 ddbb a599 473d e9a5 0b3c fe35 513d
000000b0: f8e9 10bd db06 d1bc 29a7 43bc a085 c53d
000000c0: 8049 97bd c2ae ac3d 720b 00bd 34dc c7bd
000000d0: b632 3d3d 4b9b 65bb 77ea c73c a65f cabd
000000e0: 5f8c a43c b294 8bbd 9e90 c03d f1ba 8e3b
000000f0: 9e36 9cbb d926 9abd fc26 c6bc 6851 9d3c
00000100: 6e5a 00bd 2e64 19bd f989 d53d 35ad 253d
00000110: 2672 8d3a 9079 353d 7a7b 5fbc ece5 77bc
00000120: e60b 2b3c 1251 213c 0aa1 34bd fbec 03bd
00000130: bc4c a23d 806a 8b3d a909 c33d 3ea6 a6bc
00000140: 2a91 bc3d 7d53 91bc 27aa 9e3b 798e 8fba
00000150: 7715 943d 667c 783c 4fc0 90bd 3e73 843a
00000160: 0664 53bc 7e62 1abd 6c30 21bd b7e8 d53d
00000170: 6135 f6ba 6bc7 d0bb b3b0 863d 2046 04bb
00000180: 1452 4b3d bd32 5c3c 8fa8 80bc a218 3e3d
00000190: d651 dfbc 2d1f f0bb 8a65 24bd ef52 d73d
000001a0: 7466 783d 5ebc 1d3d f48b 513d 1d95 ee3d
000001b0: 4f25 003d bed4 a1bc 3436 b5bd 5a0b b8bd
000001c0: 2714 a43c aee9 7e3d 36fd f4bc bfe4 8cbd
000001d0: 1dbd 893d 85f5 36bc 343e 55bc 1604 de3a
000001e0: 0b16 0b3e 19bc 4bbd 60b3 5b3d 0e5e 38bd
000001f0: 89b1 903c a25b c7bd ed39 d23a e18e 003c
00000200: 2fc3 aabd 4a57 44bd 144a 693c 7c29 073d
00000210: c556 c6bc ca52 72bd b3de 823d 9728 03bd
00000220: ae6b d8bc 78af 8c3c f0d5 d53d b340 81bd
00000230: c835 c43b 6c36 bc3c cabb 873d 2720 ed3d
00000240: 604e 8d3c dde4 92bd cf64 3d3d 82f1 31bd
00000250: 1fcd 403d 5ac4 21bc eb98 133e fe77 a4bc
00000260: 6dae 773c 07f6 8b3d afb7 f93a b3f1 2ebd
00000270: 9c02 aa3d 9f1f 85bd 3acd debd c43c 0cbd
00000280: 9211 74bd 05d6 72bb afdd 883d 3a39 aebd
00000290: 1fb6 f8bd 92fa 97bd 85e6 db3d 6fa2 2b3c
000002a0: a004 cf3b 5638 973d 5565 59bd bd03 b63d
000002b0: a439 25bd 8eb2 3bbc e5ed a23d 286b 2bbd
000002c0: 4259 2dbd 0b5d 9bbd 33e4 64bd a531 a0bb
000002d0: ad2a de3c 5466 25bc edb9 bf3c 504d adbd
000002e0: 9c1a 703d f6c5 dfbd 4454 1d3d 71a3 393d
000002f0: de30 3c3d 963b 9fbd 9217 b73d 37a2 bfbd
00000300: 780e 5dbc 768c d1bb 4710 47bd 5203 a13d
00000310: a33b aabd c282 3bbd bd7e 3abd 8c42 92bd
00000320: 903c 3e3d f08a 9c3d 1dc3 183d 1903 993d
00000330: c1c5 913d 0d5b 14bc 7e77 bcbb 2842 9fba
00000340: 739c 5fbd 17bd cd3c 0652 efbd 83cb c23c
00000350: 919f 993c a63b 193e c43d f2bd a844 4cbd
00000360: 850e c13c 638a d8bd 8f16 6a3a c77b 92bd
00000370: e1f3 0ebe 6198 80bc 42dc 15bd 96c1 31bb
00000380: bc0a 7a3d 887e 9cbd b06d db3b 6758 d1bd
00000390: 5d2c aabd 6dd4 febd e256 c9bd 9a3e 25be
000003a0: 5a6d eebd b1f3 8d3c 8076 413d 9575 d1bd
000003b0: 8c85 59bd 31f5 833d 66db 9ebc 0bfb 99bd
000003c0: 01bb ee3c 795f 18be 1cae e63d d948 debb
000003d0: ef3c 94bc 0039 9e3d 9616 64bd 1ff2 19bd
000003e0: 6169 e3bd cd7e d13d 4596 3dbd 75bd 35bd
000003f0: 7ac5 0dbe a381 93bd 8d8c 1c3d 494d 03be
-0.0013738216 0.003972878 0.07205224 0.033265546 -0.03755371 0.0062319217 -0.070064805 0.02705341
-0.00047720934 -0.0008041848 0.011221197 -0.025175376 0.11252334 0.04811558 -0.0018528247 0.00855983
0.013076313 -0.041350774 0.055218074 0.009497227 -0.0030331116 0.010766663 0.053127065 0.040724125
-0.09469213 0.074783444 0.02755823 0.02199462 0.031570815 0.047329742 -0.057855524 0.0126764
-0.0208834 0.007986587 0.068237215 -0.022741072 -0.09089104 -0.033242065 0.058265455 0.07851809
-0.0067511695 0.04873051 0.008523443 0.05107688 -0.03537938 -0.025515964 -0.01194171 0.096446276
-0.07387066 0.0843177 -0.031260915 -0.09758797 0.04619094 -0.0035035189 0.024403794 -0.09881525
0.020086465 -0.06815471 0.094025835 0.0043557812 -0.004767253 -0.07526941 -0.024188511 0.019203857
-0.03133624 -0.037449054 0.10426707 0.040448386 0.0010791465 0.044305384 -0.013640279 -0.015130501
0.0104398485 0.009845989 -0.04409889 -0.032208424 0.07924792 0.06807423 0.09523327 -0.020342942
0.09207375 -0.017740006 0.004842061 -0.0010952494 0.072306566 0.015166378 -0.0706793 0.0010105146
-0.012902265 -0.037691586 -0.03935282 0.104447775 -0.0018784219 -0.0063714287 0.065766715 -0.00201834
0.049638823 0.013439831 -0.015705375 0.04641021 -0.027260702 -0.007327935 -0.040135898 0.10513865
0.060644582 0.03850972 0.05115886 0.11649535 0.03128558 -0.019754764 -0.08848229 -0.0898654
0.02002914 0.062234573 -0.029905897 -0.06879567 0.067255236 -0.011166935 -0.013015319 0.0016938474
0.13582627 -0.04973993 0.053637862 -0.045011573 0.01766278 -0.097342744 0.0016038992 0.007846565
-0.083380096 -0.047934808 0.014238853 0.032998547 -0.024211297 -0.059160985 0.06390133 -0.03202113
-0.026418533 0.017173514 0.10441196 -0.063111685 0.0059878565 0.02297517 0.06627615 0.11578398
0.017249286 -0.071725585 0.046238717 -0.04344321 0.04707062 -0.009873474 0.14413802 -0.020076748
0.01511727 0.06834035 0.0019051934 -0.04271097 0.08301279 -0.06500172 -0.108789876 -0.034237638
-0.05958707 -0.0037053835 0.06682908 -0.08507009 -0.12144112 -0.07420839 0.107373275 0.010475739
0.00631769 0.07383792 -0.053075153 0.08887432 -0.040338174 -0.011456145 0.07955531 -0.04185024
-0.04232145 -0.07586106 -0.05588169 -0.0048887306 0.027119959 -0.010095198 0.023404086 -0.08462012
0.058619127 -0.1092643 0.03841044 0.045321885 0.04594504 -0.07775037 0.089400426 -0.09357112
-0.013492219 -0.006394918 -0.048599508 0.078619614 -0.08312156 -0.045778997 -0.045531023 -0.07141599
0.046444476 0.07643688 0.03729545 0.07471294 0.07117797 -0.009054911 -0.0057515493 -0.0012150453
-0.05459256 0.02511458 -0.116855666 0.023778683 0.018752845 0.1496416 -0.11828187 -0.049870163
0.023566494 -0.1057327 0.0008929753 -0.07152515 -0.1396022 -0.01569766 -0.036587007 -0.0027123443
0.061045393 -0.076413214 0.0066964254 -0.102219395 -0.08309243 -0.12442861 -0.09831025 -0.16137162
-0.11641951 0.017328115 0.04723215 -0.10227505 -0.053105876 0.06443251 -0.019391727 -0.07518586
0.029141905 -0.1488017 0.112636775 -0.0067835865 -0.018095462 0.07725716 -0.055685602 -0.03758442
-0.11104084 0.102292635 -0.046285886 -0.044370133 -0.13844863 -0.072024606 0.038219977 -0.1282245

1.df.df.fc1.concat_real_layer_1.bias f4 [76]
00000000: 3dec 39bd 86bd 46bd 1bbc 113c 4768 20bc
00000010: ae48 813c 120d 64bd 6258 d03c 094e 41bd
00000020: f8f1 8a3d 7dde 47bd e7ba ab3c 3afd 8bbd
00000030: 3834 163c 6a39 93bd d850 2cbc 52dd 0bbd
00000040: b92f fcbc 8243 04bd 8434 89bd 5ca0 b1bd
00000050: 1033 7b3d b80d dabd 0ae0 2dbb b534 9f3c
00000060: 2217 7dbd 3087 a63d 9e53 783d c9f5 8c3d
00000070: d318 2abd 2a8c 813c a3ab 77bd d619 b03c
00000080: 74e6 05be d6d2 433d b18c 203d 9c29 75bd
00000090: a598 afbc 664f 5a3c de7c e8bd 06e5 87bb
000000a0: fd1b 94bc 419d 9e3d 1bd6 3d3c 8e1e 7abd
000000b0: 728d 7dbd 1b1a 82bd d98d c4bd 0e65 c5bd
000000c0: 61a7 f2bd 5ba0 fd3c f1fd 833d 0729 df3c
000000d0: 2b70 9ebd e1f3 573d 700a 913d 2d4b e43c
000000e0: e7ed d43c 2f23 e13a 6665 92bd 2c1d d83c
000000f0: 377f 9fbd ca37 52bd 2522 40bc ddb1 2dbe
00000100: 4a60 9abd 48c5 b13d 5256 923d b783 91bc
00000110: aa2b 593d 6235 86bd bba8 3dbb 8dfa 613d
00000120: e2ff 9dbd 95f5 41bb 3231 bbbd f634 2dbe
-0.04539131 -0.048520587 0.0088949455 -0.009790487 0.015781727 -0.055676527 0.02543277 -0.04719356
0.06784433 -0.048796166 0.020963145 -0.068354085 0.009167723 -0.07188685 -0.0105173215 -0.034146614
-0.030784475 -0.032290943 -0.0669947 -0.08673164 0.061327994 -0.10647148 -0.0026531243 0.019434312
-0.06178964 0.08131254 0.06062662 0.06882817 -0.04152758 0.015813906 -0.06046642 0.021496695
-0.13076192 0.04780849 0.039196674 -0.059854135 -0.021435091 0.013324594 -0.113519415 -0.004147175
-0.018079752 0.077448376 0.011586691 -0.061064295 -0.06190247 -0.063526355 -0.09597368 -0.09638415
-0.11848331 0.030960253 0.0644492 0.027241243 -0.07736238 0.052722815 0.07082069 0.027867878
0.025992347 0.0017176623 -0.071482465 0.026381098 -0.07787936 -0.051322736 -0.011726891 -0.1696238
-0.07537897 0.086802065 0.071453705 -0.017763002 0.053020157 -0.06553151 -0.0028939683 0.055170584
-0.077148214 -0.0029595841 -0.09140243 -0.16914734

1.df.df.fc1.concat_imag_layer_1.weight f4 [76, 152]
00000000: 0d1c a63d e717 8cbd 46f0 2d3d bd05 a6bd
00000010: 7e9a febc 9b50 913c 3d1b 23bd 97be e1bd
00000020: f62a 4a3d 6cb7 9e3b 9da6 86bd d9fd 0bbc
00000030: 094c 52bc e852 8d3a 1531 09be 3b56 bebd
00000040: 6aa1 653d 84ad 9cbc 30af d2bc e57f acbd
00000050: 5365 9f3d c0e5 82bd 4d40 b1bd a90b cc3d
00000060: 49fd 53bd 63e7 adbd c69b d03d f2e7 f0bc
00000070: 19d3 6c3d ff7b 6a3c a95d 083d abfb 283d
00000080: f02b 40bd e8e1 8f3d 941d b23c eebb 9cbd
00000090: f46f bfbb f338 f23d a4c0 20be 663b 8abd
000000a0: 74d3 25bb d391 52bc 230f a9bc deb5 a33d
000000b0: 2bc7 95bd e669 2abd 6e43 a93b 5782 babd
000000c0: b860 413d 830a 23bc 39dc a3bc 13d7 a7bd
000000d0: 19df a3bd f163 17be 1004 febd 7923 fcbd
000000e0: d1cb 15bd 59da afbd f563 6ebd 086a dd3d
000000f0: 4922 1d3d 80b5 3abd e56b c03d 7966 8dbd
00000100: 08d2 4cbd 7941 04be b6da b6bc 38d3 36bd
00000110: acfd 34bd fb1b 95bd 76c2 f3bd db9c 7abd
00000120: 8c42 90bd 020d 5a3d bf61 c73d 0db1 123d
00000130: 51dd 53bc c2e6 c03d 1653 e43d 77c2 e23c
00000140: 4c42 d53c 2fa8 cd3c 5b85 5cbd cf1e 823c
00000150: 8863 09bd 17e4 4cbd ee46 0d3d 3154 e03c
00000160: 3ebe cd3d 8443 71bc 072c 973c 4dce 8c3c
00000170: ec8c 03be dbe0 89bc 80aa 9f3d 0d7e 1abd
00000180: 030e 8a3d 7e1f dfbd 1379 733d 9b05 b93d
00000190: 5bfe 703d 3773 7e3d 373b 0b3d 3158 e73d
000001a0: b54d 63bd f21c f03c b7a7 74bc 80d9 603d
000001b0: 7783 503d 6369 69bd 0e41 00bd a250 243d
000001c0: d752 b6bc 5c8d e63b c15b ca3d 549f d3bd
000001d0: cc2e 543d f131 0fbc 67d1 7cbd 0e28 433c
000001e0: a362 d53d 937d 27bd 98f2 06be 1302 1a3d
000001f0: 7c7d 53bd 61cb fabd 5417 ef3c 2a39 a53d
00000200: 8313 683c 455c c3bd 0340 c5bc 6593 e8bd
00000210: 6c6a febd 8856 63bd 143f f8bc 2b46 ae3d
00000220: e7bf a7bc 4567 06be 279a e7bc 2a40 1ebd
00000230: 64e4 b7bc 9b78 d33d 0c39 d7bd c673 343b
00000240: 329c 30bd 7dc6 103a 3a9e 91bc 9687 353d
00000250: e1a4 79bd a496 3bbd 124b 323d 07b3 18bd
00000260: 5eb6 9cbd 814f 82bd bb46 4ebd 69d9 f13c
00000270: c332 aa3d 9bc3 2cbd 469d f3bd dcb9 803c
00000280: 3225 d93d 9520 59bd fe66 c33d 1a8e 83bd
00000290: c416 91bd 4250 7dba b758 3e3e 2ef5 c4bc
000002a0: 4465 a63c c38a a33c c227 e9bd 585a 1fbd
000002b0: 283f 883c 7bf7 9b3c a2e3 513b e60a e4bd
000002c0: 3c01 09bd 7f69 8f3d a616 623d 3d66 ef3d
000002d0: 8f22 24bd 54fc 67bc 07b9 2abd 6c02 2b3d
000002e0: 272b 203d d519 e9bd 262f d93d aaf5 11bb
000002f0: 6110 833d 5069 abbd e818 933d 50c5 783d
00000300: 6e42 20bc 440d 153d f930 dabd f70c 79bc
00000310: 401e bebc bebd bdbc f006 6dbd e41f 133d
00000320: c6f9 9bbc b8f8 053d adda 0dbd 36ee ca3d
00000330: 6b2f 1d3d 0f58 113e 1b51 14bc ba78 c0bc
00000340: 9230 43bd a143 b1bd 2939 90bd 785b bfbc
00000350: 8e5e 6d3c bdea 1a3d 8b56 183c 3350 70bc
00000360: 6830 ff3a 6388 473d d5f9 eabb 28ad bd3c
00000370: 0710 a1bc 3045 00bd efed c33d 6ba9 003a
00000380: 777a 9b3b 4fa9 0dbd 3e86 f0bc b57a 6ebd
00000390: bde0 0e3c 205c 6fbd cebf 60bc fae0 60bc
000003a0: e8c9 053d 663d e73c 5574 18bd 66e2 b6bd
000003b0: 6645 9fbc 6171 ad3d fa20 adbd 8d5d 013e
000003c0: c413 ccbd dc08 b1bc 3863 77bb 96ff 133d
000003d0: 1f7a ac3c 61b7 383d 99b7 20bd 0447 623d
000003e0: 772f 37bd 1fbb 213e 1947 81bc 089f 01bd
000003f0: 8b2e 8fbd c242 48bb e4ab 3d3c cbc5 01be
0.08110819 -0.068404965 0.04246547 -0.08106563 -0.031079527 0.017738631 -0.0398209 -0.1102268
0.049357377 0.004843643 -0.06574748 -0.008544409 -0.012835511 0.0010782154 -0.1339763 -0.09293791
0.05606214 -0.019125707 -0.025718302 -0.084228314 0.07782998 -0.063914776 -0.086548425 0.099631615
-0.051755223 -0.08491399 0.101859614 -0.029407475 0.057818506 0.01431179 0.033292446 0.041255634
-0.046916902 0.0702551 0.02174262 -0.07653032 -0.0058422033 0.118272685 -0.15698487 -0.067496106
-0.0025303038 -0.01285215 -0.0206371 0.07993673 -0.07313379 -0.0416049 0.005165509 -0.091068916
0.04721138 -0.009951237 -0.020002471 -0.08195319 -0.08001537 -0.14784218 -0.124031186 -0.12311453
-0.036571328 -0.085865684 -0.058200795 0.108112395 0.038362775 -0.04558325 0.09395579 -0.06904311
-0.05000499 -0.12915601 -0.022321086 -0.044635028 -0.044187233 -0.072807275 -0.11902325 -0.061184745
-0.07043943 0.05323506 0.097354405 0.03581338 -0.012931184 0.094190136 0.1114866 0.027680619
0.02603259 0.02510461 -0.053838115 0.015883831 -0.033542186 -0.05002221 0.034491472 0.027383896
0.100460514 -0.01472557 0.018453611 0.017188216 -0.12846726 -0.016830852 0.07796192 -0.037717868
0.06740954 -0.108946785 0.059441637 0.09034272 0.058836322 0.062121596 0.03399202 0.11296118
-0.05549403 0.029310677 -0.014932564 0.054894924 0.050906625 -0.05698527 -0.03131204 0.04011596
-0.022256298 0.0070358943 0.09880782 -0.10333124 0.05180244 -0.008739934 -0.06172314 0.011911405
0.10419204 -0.04089124 -0.1317848 0.037599634 -0.051633343 -0.12245823 0.029185928 0.08067544
0.014164808 -0.095390834 -0.024078375 -0.11356238 -0.12422642 -0.055502445 -0.030303515 0.08509477
-0.020477248 -0.13125332 -0.028271748 -0.03863541 -0.022447772 0.10325738 -0.10508928 0.0027534827
-0.04311771 0.0005522741 -0.017775644 0.044318758 -0.060948256 -0.04579796 0.043528624 -0.03728011
-0.07651971 -0.063628204 -0.050360423 0.029522615 0.08310463 -0.04217873 -0.11895232 0.015713625
0.106027976 -0.05300959 0.095411286 -0.06423588 -0.0708442 -0.00096631434 0.1858853 -0.024042692
0.02031196 0.019963628 -0.11384536 -0.038904518 0.016631678 0.019038906 0.003202655 -0.11134891
-0.033448443 0.07002544 0.05519738 0.11689422 -0.04007202 -0.014159281 -0.041680362 0.041750357
0.039103653 -0.1138188 0.10604696 -0.0022271671 0.063996084 -0.08369696 0.07182485 0.060735047
-0.009781463 0.036389604 -0.10653872 -0.015200845 -0.023207784 -0.023161765 -0.057867944 0.035919085
-0.01904 0.0327079 -0.034632374 0.099087164 0.0383753 0.14193748 -0.00905254 -0.023495067
-0.047653742 -0.08655477 -0.070421524 -0.023359045 0.014487876 0.03782152 0.009297977 -0.0146675585
0.0019469382 0.048714053 -0.0071708956 0.023153856 -0.019660963 -0.031315982 0.095668666 0.0004908058
0.0047448236 -0.034585293 -0.029360887 -0.05822249 0.008720574 -0.058437467 -0.013717605 -0.013725514
0.032663256 0.02822752 -0.037220318 -0.08929901 -0.019442271 0.08468891 -0.084535554 0.12633343
-0.099647075 -0.02161067 -0.0037748348 0.036132418 0.021054326 0.04509676 -0.039237592 0.055243507
-0.044723 0.15794037 -0.015780972 -0.031645805 -0.06991299 -0.003055737 0.011576626 -0.12673108

1.df.df.fc1.concat_imag_layer_1.bias f4 [76]
00000000: 60e2 813d e34c 883d 0c09 473d d5c9 2bbd
00000010: fdf2 a3bc 62e5 723c 572b 623d 5422 03ba
00000020: 8e9a 883c 2634 093d 4b79 80bd 676a a6bb
00000030: 6da6 aabd d5ae ca3c a61c c3bd 0fc2 b2bd
00000040: 6410 de3c 04d9 b83c 369a b63d 3825 f8bc
00000050: bf47 83bb 0c64 83bd b8a9 fbbb 79b0 233d
00000060: cff0 acbd 00f1 bf3c 75bd ad3b c736 6cbd
00000070: 7748 d63d eca9 483d c568 44bd d111 783d
00000080: 855f 81bd 169e 3fbd a0c9 8b3d c271 923d
00000090: 6e2a 953d 98cb 72bb a084 c83d ec2a a4bd
000000a0: cd3a 4e3d a1a1 0f3d 9e14 21bc 0917 bc3d
000000b0: 3c97 b23c 3867 0c3b 69f2 57bd 0014 5f3b
000000c0: dcb7 593d 5343 38bd 5fff 88bd 9788 703d
000000d0: b19c 4e3d a21b 30bd 0173 fb3d 4104 3bbc
000000e0: ad42 0b3d c09a d1bd a204 e6bc 56ba 5c3d
000000f0: a66f e0bc f3da f03c 3df3 843d 8e1c 4f3c
00000100: 8482 68bc 89ae d53c 0dbe 6c3d 0938 4bbd
00000110: e20c a23d 68a3 c8bb f309 ad3d 3609 2e3d
00000120: d521 823d 46ab c43c 1ad5 2d3d 2331 1ebc
0.06342006 0.0665529 0.048592612 -0.04194053 -0.020013327 0.014825197 0.055217113 -0.00050023687
0.01667526 0.033497 -0.06273135 -0.005078602 -0.083325244 0.02474157 -0.09526949 -0.0872842
0.027107425 0.022564419 0.08916132 -0.030291185 -0.0040063555 -0.06415567 -0.007680144 0.03996322
-0.08444368 0.023430347 0.005302126 -0.057669427 0.1046304 0.048990175 -0.04795148 0.060563866
-0.06317047 -0.046781622 0.06825566 0.07150604 0.072834834 -0.003704762 0.09790921 -0.08015999
0.050349046 0.03506625 -0.009831576 0.09184081 0.02180063 0.0021423828 -0.052721415 0.003403902
0.053153858 -0.04498608 -0.06689333 0.058724012 0.0504424 -0.042995103 0.12277795 -0.011414588
0.033999134 -0.10234594 -0.028078381 0.05388864 -0.027396988 0.029401278 0.064917065 0.012641085
-0.014191274 0.026084201 0.057798434 -0.049613986 0.079126135 -0.006122995 0.08449163 0.042489253
0.06354109 0.02400745 0.042439558 -0.00965527

1.df.df.fc2.weight_block_1.weights1 f4 [2, 76, 76]
00000000: f882 29bc a2ed 12bc 8808 563c d92c b23c
00000010: c634 443d e136 e5bc e4ed 063d 75f6 8fbb
00000020: 42fa c43c 5fbe 15ba 482b 4d3b 7e3f b93c
00000030: 4312 4abc 44cd 233d cfc8 113d d503 493c
00000040: 9582 793c a8d4 823d b333 493d 73fb 9b38
00000050: e4d4 c0bc fb09 debc 3bae d73c deaf d43c
00000060: c452 5e3c 4694 87ba 332c 36bd 770c 1a3d
00000070: 984f 3ebc 25fd 12bd 6f55 ad3c 8458 ad3a
00000080: 5a83 eabc 4e96 023d d8cf 10bd 6a40 3c3c
00000090: 2377 e3bc f4cd 3b3b 631d 353d 73b2 c9bc
000000a0: 91e9 083c 90ad d73c 5df0 24bb b388 77bc
000000b0: abf0 bc3c 049b 4d3c 180e 273d 651f 67bb
000000c0: 0bd6 84bc 2544 353c 0f2f c63b 5453 d33c
000000d0: f245 183d a94a a13c be2b 2bbc ba80 3f3d
000000e0: 6661 46bc e232 0fbc 39aa 263d c4d8 23bd
000000f0: 7fcc ad3c f979 463d c8b5 a83c 634d e7bb
00000100: df38 8a3c 0bf2 06bc ea87 3a3b 87d0 b93c
00000110: 4fdb bc39 3e49 ab3c ce95 753d fc36 863c
00000120: 4c74 0f3c 0409 0c3d d4c6 55ba c925 82ba
00000130: 62e6 d93c b713 233d 18bb bcbc a1e4 383d
00000140: 5947 0b3c 4238 a5bc bfdf 69bc 9061 92bc
00000150: 1906 6a3c 0c13 61bb de3b 2d39 c326 a03b
00000160: e034 98bd aec3 36bd 332a 82bc 9ea2 8a3d
00000170: 7483 15bb 7612 873d 5ee8 113b 37c8 5cbd
00000180: 8894 abbc 7f77 1ebd d143 9f3c 7a23 313d
00000190: 4d38 80bd ef9c 3c3d b105 0abc 0140 99bc
000001a0: 4bb9 ed3b a32d d73c bce5 c83c 59fa 17bd
000001b0: 1e03 46bc 249c 36bd 1b0e 42bc dda6 363c
000001c0: de3a f93b d0cb 8f3b 8d88 9f3c adbb 3c3b
000001d0: f233 c43c 0beb 8abc 9ae9 3cbd e56b bebc
000001e0: 6cfe e9ba ad9f d1bc 90b5 1abd 44ac 69bd
000001f0: 6450 b93c a31b 56bd 12b0 b3bc aeb6 a13c
00000200: 9484 0e3d cdf3 0dbc 074d 8fbc 1fbc eabc
00000210: 4b06 af3c 569f 4fbd 8919 27bc ea1b 4cbd
00000220: dcf2 fd3a 059c 7c3c a6e6 8fbb 3cbf 73bd
00000230: f36f 063b 203b 84bc e5df 56bb db7a c6bb
00000240: cadf 61bb aad4 173c 2800 253d 47c4 3cbd
00000250: f3cd f8bb 81ee 41bd c6a1 70bb 8107 3f3c
00000260: a54f 8c3c e75c 913d 6f87 d13c 4b1f 123d
00000270: 17f7 993c 3e6a 1bbd b793 723c b511 283d
00000280: 239c a23b 9729 283c 0bb9 20bc 9a33 aa3b
00000290: abf8 9c37 c453 0dbd 5dd5 2b3c 90d6 ffbb
000002a0: 90af d03c 137d 18bd 9b11 293d fd44 ce3c
000002b0: 30d0 c8bc 111f 49bd 2aa7 4f3d 3ea8 1d3d
000002c0: bc6c 2bbc 4f97 eebb d31a 06bd 3fe9 bd3c
000002d0: 5384 2dbd 5dc4 aabc 8693 033d 83e5 223b
000002e0: 5bf8 f93b 0da4 0e3b 7141 40bd 9f5e 293d
000002f0: 0b16 2c3d 3107 9b3c 3113 083d fc1d 043c
00000300: ad59 843d 1d22 013d 4ff1 0bbd cf94 e8b9
00000310: c180 14bb c322 2e3c ff1b 043d d933 3f3d
00000320: 46d6 deb8 a424 4e3b de96 993c 73ae 8b3d
00000330: 51b0 bd3c 9f5e f73b 368a e83b adfa d63c
00000340: 9012 6c3d 890f d2bc fafa 3e3c bfab 97bc
00000350: 6062 08bc c291 e23c e1fd 7c3c 6e90 43bc
00000360: 31e6 313c f4fa 9b3c 667c 91bc 371f 143d
00000370: 28a2 273d ec19 b73b 34de 873d 40ca 533c
00000380: ae80 46bb 4967 04bc 6437 4fbc a07f ad3c
00000390: c964 063d 339b 1a3c e976 403c be30 e8bb
000003a0: 9cae 23bc a48b af3b 1f0c 10bd 16de cbbb
000003b0: d1cc b43c 6331 4cbb 0e3b 033d 8732 8a3c
000003c0: b50f 80bd 1570 1dbc fa7b e3bc d47f d1bc
000003d0: f0ea 393d 1ed3 e4bd a282 fd3b ef0f 0c3d
000003e0: f729 ef3c 1371 e53c d15f 9b3c e16b 4ebd
000003f0: 19a4 89bc 9935 8d3c 6787 2b3d 9a72 11bd
-0.010346167 -0.008967789 0.013063557 0.0217499 0.04790189 -0.02798027 0.032941714 -0.0043933936
0.024045113 -0.00057122664 0.0031306315 0.022613283 -0.0123334555 0.03999068 0.035591897 0.01226898
0.015228887 0.06388217 0.04912157 7.437812e-05 -0.023539014 -0.027104368 0.026328197 0.025962766
0.013569538 -0.0010343872 -0.044475745 0.037609544 -0.011615656 -0.03588595 0.021158902 0.0013225232
-0.028627086 0.031881623 -0.035354465 0.011489967 -0.02776677 0.0028656693 0.04421748 -0.024621224
0.008356468 0.026327878 -0.0025167682 -0.015108275 0.023063978 0.012549166 0.040784925 -0.0035266515
-0.016215345 0.01106361 0.0060480903 0.02579657 0.03717608 0.019688921 -0.010447441 0.046753623
-0.012108183 -0.008740159 0.04068968 -0.040001646 0.021215675 0.048456166 0.020594493 -0.0070587858
0.016872821 -0.0082364185 0.0028462359 0.022682441 0.00036021552 0.020908948 0.059957318 0.01638364
0.008755755 0.034188285 -0.0008154933 -0.0009929474 0.026599113 0.039813723 -0.023038432 0.045139913
0.008500897 -0.020168427 -0.014274537 -0.017868787 0.01428368 -0.0034343628 0.00016520868 0.0048874333
-0.0743196 -0.04462021 -0.015889263 0.06769298 -0.0022813948 0.06595318 0.0022263746 -0.053901877
-0.020944849 -0.03868818 0.019441517 0.043246724 -0.062607385 0.0460481 -0.0084242085 -0.018707277
0.0072547547 0.026266878 0.024523608 -0.037103985 -0.012085704 -0.0445825 -0.011844183 0.011148182
0.0076058945 0.00438831 0.019474292 0.0028798387 0.02395055 -0.01695778 -0.046121217 -0.023244807
-0.0017852313 -0.025588835 -0.037770808 -0.05704905 0.022621341 -0.05227245 -0.021934543 0.019740429
0.034794405 -0.008664084 -0.017492784 -0.028654156 0.021365305 -0.050689064 -0.010198959 -0.04983131
0.0019374746 0.015418057 -0.004391509 -0.059508547 0.0020513504 -0.016141474 -0.003278726 -0.006057126
-0.0034465664 0.009267012 0.040283352 -0.046085622 -0.0075929104 -0.047346596 -0.0036717518 0.011659504
0.017127821 0.07097798 0.025577275 0.035674375 0.01879458 -0.037943117 0.014805726 0.04103251
0.0049624606 0.010263822 -0.009809743 0.0051941397 1.8712444e-05 -0.034503713 0.0104878815 -0.0078075603
0.02547434 -0.037228655 0.041276556 0.02517938 -0.024513334 -0.049101893 0.05069653 0.038490526
-0.010462936 -0.007281221 -0.032740425 0.02318251 -0.042362522 -0.020845586 0.03212311 0.0024856038
0.007628483 0.0021765262 -0.04693741 0.041350003 0.04201321 0.018924328 0.033221427 0.008063789
0.06462417 0.031526674 -0.034165677 -0.0004436136 -0.002265975 0.010628405 0.03225326 0.046680305
-0.000106256965 0.0031454945 0.018748697 0.06820383 0.023155363 0.0075491215 0.007096554 0.026242578
0.05763489 -0.025642173 0.011656517 -0.018514512 -0.008324236 0.027657393 0.015441389 -0.01193629
0.010858105 0.019040562 -0.017759513 0.03616258 0.04092613 0.005587807 0.06634179 0.012926638
-0.0030289101 -0.008081266 -0.0126474835 0.02117902 0.03281096 0.009436416 0.0117471 -0.0070858886
-0.009990361 0.0053572226 -0.03516781 -0.006221543 0.02207032 -0.0031157366 0.03203874 0.016869796
-0.06252996 -0.009609242 -0.027769078 -0.025573649 0.04539007 -0.1117308 0.00773652 0.034194883
0.029194815 0.02800802 0.018966587 -0.05039585 -0.01680188 0.017237471 0.041877177 -0.035509683

1.df.df.fc2.weight_block_1.bias1 f4 [2, 76]
00000000: e46e 093d f7f9 503d d35d 40bc 5d76 473d
00000010: 8a2a 073e c170 b5bb cc35 ecbc 5b59 343c
00000020: c006 833c fb2c 46bd 024f f33c 2a2c 5bbd
00000030: 49bf 0a3d 8279 85bc 55d5 5bbd 1554 10bd
00000040: 11f1 963c 56df 3dbc ebf7 e8bd a170 873c
00000050: 3642 613b 2205 823c 8e4d 99bd 96d3 c6bc
00000060: 3820 c3bc b3f5 883d c82e 6e3a 4d7c ffbc
00000070: 7863 f23d c4a8 cdbc 85da 433d 848d 01bd
00000080: ccae a73c f5a5 edbd f15f b43b 2a3b e9bc
00000090: b53e 263c c2fb ea3d 6cc8 993c 36ee 9b3b
000000a0: 6069 943d 6482 90bc 3968 ff3c 6f78 a03d
000000b0: 2964 1d3a d68c f63c 7d89 04bd 3d1a 84bc
000000c0: 0a61 753d 9750 c23c def4 5d3c c82b 8abd
000000d0: a9a9 9b3c 5aad 38bb bb66 f53c 423d 53bd
000000e0: 8519 8a3d e6ad 393d c4e2 773c 374d 25bc
000000f0: 89d3 c73c 6a16 82bd 9d4c 6a3d 4d3f ac3c
00000100: 2ad8 a53c 5439 89bb ce2d 043d 1968 8fbc
00000110: 5440 363c ccb3 4e3d c6ca b7bc 47f5 3fbd
00000120: 683e 55bd e246 30bd f405 283d bdb8 50bc
00000130: a4fb 8cbb 87d0 563c 9301 a1bb dcfe cabb
00000140: 2cf3 433d 001f 393c da7f 493c fbdd ca3b
00000150: 0508 ff3c f977 7dbc e578 02bc 0b8b 183d
00000160: c386 b33a b64e 1c3d 814f 36bc 79b7 373d
00000170: a859 99bc 0bb5 cd3c fb17 c3bb fb58 aabc
00000180: 475e 743c 3ed9 48bc 93a2 8f3c 240c 11bd
00000190: 0def 19bc 7934 ad3b 8351 853c 2120 b2bd
000001a0: d2c9 ccbc d5e5 5e3c f9da c9bc 6f9e c7bb
000001b0: f231 f23c 30ac f63c 32f9 663c 41c4 d63b
000001c0: 0a2e d23b 9f45 e73c 65a8 e73b 5c4b 23bc
000001d0: 4b71 a43c 9d90 bfbc fd37 413b b813 283d
000001e0: 0172 27bb 8b26 8dba 4801 0fbd 8233 88bb
000001f0: 96a8 b2bc 0631 95bc e1bb a43b adea 42bb
00000200: 75a4 03bd d366 2bbd afb2 0dbc dcb5 163d
00000210: f527 413c fb9d 023b 646b 0fbc 889d 5938
00000220: 0f8b 2ebd 25e7 c8bc 65fd bf3b bc86 003b
00000230: 1d56 3bbb d5f6 a0bc 859e 26bc 5e25 03bd
00000240: 87e0 453c e49b 70bc 2408 11bc 2f75 f7bb
00000250: 1580 a1ba 7541 0dbd a7ba 64bc d6ff 89bc
0.03355302 0.051019635 -0.011741119 0.048696864 0.13199821 -0.005537123 -0.028834246 0.011007632
0.01599443 -0.04838274 0.02970076 -0.053508915 0.03387383 -0.016293291 -0.053670246 -0.035236437
0.018425496 -0.011588892 -0.113754116 0.016533198 0.003437174 0.015871588 -0.074854955 -0.024270814
-0.023819074 0.066874884 0.00090859504 -0.0311872 0.118353784 -0.025104888 0.04781582 -0.0316291
0.020469092 -0.116039194 0.005504601 -0.028470594 0.010146786 0.114738 0.018772326 0.0047586216
0.07246661 -0.0176403 0.031177627 0.07835471 0.0006004 0.030096453 -0.03235768 -0.016125793
0.059906997 0.023720069 0.01354715 -0.06746632 0.019001799 -0.0028179497 0.029956212 -0.051572092
0.06743149 0.045331858 0.015129749 -0.01008921 0.02439286 -0.063519314 0.05720197 0.021026278
0.020244677 -0.0041877422 0.032270245 -0.017505692 0.011123735 0.050464436 -0.022435557 -0.046864774
-0.05206147 -0.04303635 0.041021302 -0.012739358 -0.004302459 0.01311124 -0.0049135177 -0.0061949324
0.04783933 0.011298895 0.012298549 0.006191013 0.031131754 -0.015470498 -0.007963394 0.037241977
0.0013696778 0.038161002 -0.011127354 0.044852708 -0.01871951 0.025110742 -0.0059537864 -0.020794382
0.014915056 -0.012258826 0.017533576 -0.03541197 -0.009395373 0.0052857962 0.01627422 -0.08697534
-0.02499858 0.013604601 -0.024640547 -0.006091885 0.029564831 0.030111402 0.014097499 0.006554157
0.0064141797 0.02823144 0.0070696347 -0.009966698 0.020073554 -0.023384387 0.0029482835 0.04103443
-0.002555013 -0.0010768933 -0.03491333 -0.004156531 -0.021808904 -0.018211853 0.0050272797 -0.0029741928
-0.03213926 -0.041846108 -0.0086485585 0.03679453 0.011789312 0.001993059 -0.008753631 5.1883544e-05
-0.042613085 -0.02452428 0.0058590644 0.0019611558 -0.0028585263 -0.019648949 -0.01016963 -0.032018058
0.012077457 -0.014685605 -0.0088520385 -0.007551811 -0.0012321497 -0.034486253 -0.013960517 -0.016845625
