model/10.pt (torch, 694923 bytes, 30 tensors)

1.df.df.fc1.weight_block_1.weights1 f4 [2, 76, 76]
0.092532195 -0.0029452257 0.0046117282 -0.0056178793 -0.058804333 0.034172427 0.005094022 0.095967665
0.061066125 0.009303387 0.007670403 -0.068295054 -0.027508102 0.012538013 0.01724574 0.05581296
0.06536156 -0.013717242 0.033347018 -0.004342386 0.0130486805 -0.057152133 -0.022846805 0.04808707
0.06306035 0.010665056 0.059820015 0.05075459 0.034386143 -0.18488479 0.012287342 0.079603955
0.094782755 -0.007972106 0.023297194 0.018713236 -0.05525115 0.08067806 0.020692721 -0.10277097
-0.018241769 -0.035295162 0.001962721 0.0974113 -0.09732494 0.0016545217 0.021824073 -0.086901866
0.048208766 -0.12876922 -0.046745192 -0.02094575 -0.020624995 0.005776496 -0.15656354 -0.024418937
0.04068715 -0.084846735 -0.017918587 0.032751966 0.042675078 -0.02329724 0.068226606 -0.040194638
0.0017139517 -0.004243871 0.03780706 -0.117543 0.041226447 0.034432244 -0.025709318 0.015162986
0.014485701 0.031014519 -0.007815918 -0.06071895 -0.025881601 0.08808515 0.024496337 0.03547548
-0.015096675 -0.014483151 0.011184822 -0.0632571 -0.017204382 0.0056510963 0.011117586 0.05998015
0.0073985946 -0.00052594335 0.024360048 0.0016987368 0.0033696534 0.02875836 0.017362982 0.012420715
0.005123463 0.090472355 0.031212555 0.01169695 -0.00303007 0.043653928 0.024944862 -0.0014355233
0.025564445 0.009708 -0.0071220184 0.008597307 -0.0017666945 -0.012556131 0.0005262422 0.013586089
0.05745924 0.010369864 -0.0037410653 0.068085566 0.023118839 0.01589459 -0.00074106286 -0.057849847
0.06429838 0.019822674 -0.020484159 -0.005961733 0.0015274093 0.12371388 0.08383955 0.028517677
0.035864115 0.025096716 0.10265552 0.050769974 -0.01267971 0.0790017 0.047371965 -0.016233832
-0.0044963467 0.059411116 -0.007189527 0.05887996 0.024904732 0.05672504 0.007928183 0.018852409
-0.033542704 -0.017397545 0.03676657 0.0018576401 0.0010993795 0.011865934 0.02287149 0.041602097
0.037142172 0.17781782 0.10868496 0.011004609 0.022066906 -0.0076167737 -0.043249577 -0.20598935
0.0089629255 0.0076667946 -0.008047574 -0.13433634 -0.037180923 0.0073338742 0.034809195 -0.1177073
0.06857663 0.039855346 0.10431897 0.044207264 0.08140534 0.052112337 0.030556455 0.060021132
-0.14539208 0.14999028 0.028723499 -0.027483692 0.017447209 0.045050103 -0.06913544 0.075543284
-0.0799158 -0.063834086 0.121331215 -0.015358624 -0.072178744 -0.05856435 0.006571802 0.07773088
0.019371092 -0.05674752 0.0021979776 -0.0054285577 -0.051747248 0.049379956 -0.053037386 -0.07222362
0.0103932405 0.1482045 0.032222275 0.03342235 -0.019328827 -0.027254963 -0.005881688 -0.00035795415
-0.018158833 -0.12059508 -0.013591145 0.049997654 0.06950366 0.051384054 0.042210527 -0.0542567
0.0044625914 0.09372123 0.073181845 0.08478242 -0.086586244 -0.015142163 0.1477822 0.028445512
0.024381347 -0.01624086 0.017338008 -0.12225753 -0.098704115 -0.09146631 0.03908703 -0.02587116
0.17518696 -0.091092214 -0.0369662 -0.08995886 -0.063593045 0.030708244 0.01460834 -0.09286156
0.023911968 0.015640978 -0.07048576 -0.21211414 -0.023208091 0.042103007 -0.04041352 0.051849186
0.006208511 -0.0009149199 0.0012544224 -0.016294092 -0.21074812 -0.010841166 -0.14901564 -0.030824302
00000000: 8581 bd3d b004 41bb fb1d 973b 3016 b8bb
00000010: d0dc 70bd 63f8 0b3d c1eb a63b b28a c43d
00000020: 7920 7a3d 3c6d 183c 0158 fb3b 47de 8bbd
00000030: ac58 e1bc 3d6c 4d3c f046 8d3c 219c 643d
00000040: 48dc 853d 48be 60bc e296 083d 934a 8ebb
00000050: 22ca 553c 5b18 6abd 3929 bbbc f3f6 443d
00000060: c925 813d 7dbc 2e3c d505 753d 0ce4 4f3d
00000070: 7cd8 0c3d 7052 3dbe d950 493c 6607 a33d
00000080: 761d c23d 709d 02bc c2d9 be3c 804c 993c
00000090: 084f 62bd 8a3a a53d c883 a93c 9679 d2bd
000000a0: c36f 95bc a991 10bd ffa0 003b 937f c73d
000000b0: 4c52 c7bd 89dc d83a 66c8 b23c 9bf9 b1bd
000000c0: 8e76 453d 14dc 03be e377 3fbd 6c96 abbc
000000d0: c0f5 a8bc c348 bd3b 3152 20be 390a c8bc
000000e0: 92a7 263d 20c4 adbd 00ca 92bc ed26 063d
000000f0: 10cc 2e3d dad9 bebc 64ba 8b3d 22a3 24bd
00000100: ada6 e03a 2c10 8bbb 93db 1a3d 62ba f0bd
00000110: 10dd 283d d308 0d3d 599c d2bc 2c6e 783c
00000120: 6f55 6d3c 2912 fe3c 560e 00bc 6fb4 78bd
00000130: a705 d4bc fd65 b43d 8bac c83c bd4e 113d
00000140: 0b58 77bc bd4a 6dbc 8b40 373c f08c 81bd
00000150: 34f0 8cbc d52c b93b 8926 363c bfad 753d
00000160: e96f f23b 76df 09ba b98e c73c 26a8 de3a
00000170: 67d5 5c3b a796 eb3c d03c 8e3c 4180 4b3c
00000180: b9e2 a73b 9249 b93d 79b1 ff3c 90a4 3f3c
00000190: 2494 46bb 76ce 323d 2b59 cc3c 2b28 bcba
000001a0: 876c d13c 4e0e 1f3c d25f e9bb b8db 0c3c
000001b0: 6e90 e7ba 3bb8 4dbc 84f3 093a 3098 5e3c
000001c0: 615a 6b3d 5de6 293c a92c 75bb 7270 8b3d
000001d0: b863 bd3c 5f35 823c e343 42ba f6f3 6cbd
000001e0: deae 833d 2963 a23c 65ce a7bc a45a c3bb
000001f0: 5a33 c83a b45d fd3d 12b4 ab3d e79d e93c
00000200: 40e6 123d a197 cd3c 0f3d d23d 2df4 4f3d
00000210: 8fbe 4fbc a5cb a13d 1b09 423d d0fc 84bc
00000220: 1756 93bb 1259 733d 2096 ebbb 1d2c 713d
00000230: 0205 cc3c 8458 683d 36e5 013c 5e70 9a3c
00000240: 1364 09bd 4c85 8ebc 8b98 163d 0f7c f33a
00000250: 0e19 903a 5669 423c fe5c bb3c f666 2a3d
00000260: 6422 183d e015 363e 3896 de3d ad4c 343c
00000270: a8c5 b43c 2196 f9bb 7826 31bd dfee 52be
00000280: 3cd9 123c bc39 fb3b f9d9 03bc 778f 09be
00000290: 064b 18bd ff50 f03b 1694 0e3d 8610 f1bd
000002a0: e771 8c3d 5c3f 233d 2fa5 d53d ad12 353d
000002b0: d8b7 a63d bf73 553d 8851 fa3c b8d8 753d
000002c0: a9e1 14be 0d97 193e 8b4d eb3c 7b25 e1bc
000002d0: 73ed 8e3c 7586 383d e296 8dbd 70b6 9a3d
000002e0: e5aa a3bd 72bb 82bd 807c f83d bda2 7bbc
000002f0: 73d2 93bd 2ce1 6fbd 4558 d73b 5e31 9f3d
00000300: 20b0 9e3c 1670 68bd f20b 103b 0be2 b1bb
00000310: ecf4 53bd a342 4a3d bb3d 59bd fae9 93bd
00000320: 6948 2a3c ecc2 173e 81fb 033d e0e5 083d
00000330: 7d57 9ebc cd45 dfbc 2dbb c0bb cbab bbb9
00000340: d5c1 94bc 8efa f6bd 65ad 5ebc 57ca 4c3d
00000350: ef57 8e3d 1678 523d f2e4 2c3d 463c 5ebd
00000360: ee3a 923b ebf0 bf3d 5de0 953d 68a2 ad3d
00000370: 2154 b1bd d616 78bc 3854 173e 9006 e93c
00000380: 64bb c73c 8d0b 85bc 7008 8e3c 2862 fabd
00000390: 6225 cabd b052 bbbd b919 203d c1ef d3bc
000003a0: 3664 333e 8e8e babd df69 17bd 5a3c b8bd
000003b0: 123d 82bd db8f fb3c d257 6f3c 342e bebd
000003c0: 08e3 c33c 8221 803c d75a 90bd 7334 59be
000003d0: e51e bebc 3474 2c3d a688 25bd d05f 543d
000003e0: c470 cb3b 3cd7 6fba 6e6b a43a 307b 85bc
000003f0: 5bce 57be 259f 31bc 8e97 18be 3f83 fcbc

1.df.df.fc1.weight_block_1.bias1 f4 [2, 76]
0.086525045 -0.014630778 0.096833006 0.027524346 0.02783577 0.058882616 0.02909354 0.13997965
-0.03788307 0.05759179 0.05571184 -0.11730194 0.038959324 -0.13097426 -0.090562716 0.0036494702
-0.3839936 0.05493776 0.04352603 0.075027116 0.03722927 0.12820733 0.095853105 0.0032743618
0.111948855 -0.2217464 0.029616948 -0.09866349 0.019459903 -0.19876103 -0.0045129275 0.14526346
0.051617324 0.07444263 0.011416973 0.05699784 0.066856295 -0.13708892 -0.12579525 -0.21613888
0.07453539 0.00576076 0.045625605 0.021704718 0.08173196 -0.01923391 -0.017939826 0.08183571
-0.012885867 -0.3794172 0.11387166 0.028329609 -0.051746603 0.03934115 -0.044437557 -0.014643023
0.0074907257 0.07040122 -0.00519831 0.054135133 -0.27962604 0.16284738 0.047327984 0.01911476
-0.014926393 0.09018081 -0.006470481 -0.31616998 0.091631755 -0.020795053 -0.0045940583 -0.01323067
-0.21510774 0.013377941 -0.026957197 0.076893084 0.052148174 -0.086630106 -0.12463796 0.028436791
0.025124775 -0.043322146 -0.08656703 -0.11046454 -0.12741563 -0.06631402 -0.12356017 0.10623392
-0.106758915 -0.017268347 -0.107683375 -0.107163295 -0.33806902 -0.06798548 -0.049603045 -0.04413542
-0.024916988 -0.17892687 -0.023795506 0.020138742 -0.013332148 -0.20815165 0.02197156 -0.007184219
-0.16106232 0.08306592 -0.0012203238 0.07064956 -0.14395715 -0.08054386 -0.07370315 -0.003162408
-0.02680253 0.053366046 -0.10925785 0.04569509 -0.03544024 -0.0070716348 -0.0016104033 0.022168169
0.07235869 -0.015983101 0.014257413 -0.01833737 -0.07125519 -0.09269899 0.006684977 -0.02654989
-0.009327938 -0.061132338 0.063076995 0.004662739 -0.0432749 0.041645564 -0.005331822 -0.09005889
0.037538994 0.053191878 0.048596304 0.061526917 -0.016403655 -0.007867157 0.010572163 -0.0054947985
-0.09045544 0.030341849 0.02660339 -0.13836639 -0.14666596 -0.06560592 -0.08472526 0.035425257
00000000: 0b34 b13d eeb5 6fbc 6250 c63d bd7a e13c
00000010: d707 e43c e62e 713d 9355 ee3c d356 0f3e
00000020: 472b 1bbd 5ee5 6b3d 1932 643d 003c f0bd
00000030: d093 1f3d 1e1e 06be f278 b9bd f32b 6f3b
00000040: cf9a c4be 6b06 613d 5a48 323d d1a7 993d
00000050: b87d 183d c848 033e a24e c43d ad96 563b
00000060: 7145 e53d 7d11 63be 3e9f f23c 1510 cabd
00000070: 606a 9f3c 0388 4bbe 2ee1 93bb f2bf 143e
00000080: b06c 533d 6175 983d 410e 3b3c 9176 693d
00000090: f4eb 883d 0a61 0cbe 78d0 00be 8353 5dbe
000000a0: 03a6 983d c2c4 bc3b eae1 3a3d 18ce b13c
000000b0: 1663 a73d 6f90 9dbc 8bf6 92bc 7b99 a73d
000000c0: 3e1f 53bc f942 c2be 8b35 e93d 7f13 e83c
000000d0: 3ff4 53bd 3024 213d 2804 36bd 4ae9 6fbc
000000e0: c374 f53b 842e 903d 9656 aabb cdbc 5d3d
000000f0: 252b 8fbe 77c1 263e fdda 413d 8f96 9c3c
00000100: d48d 74bc b7b0 b83d 5406 d4bb 08e1 a1be
00000110: 6ea9 bb3d 635a aabc c189 96bb 74c5 58bc
00000120: 3445 5cbe 272f 5b3c 57d5 dcbc 1f7a 9d3d
00000130: 5399 553d 206b b1bd 3042 ffbd 46f4 e83c
00000140: 79d2 cd3c 9072 31bd 0e4a b1bd 3c3b e2bd
00000150: 3e79 02be a5cf 87bd 1d0d fdbd 2b91 d93d
00000160: 6ba4 dabd 5976 8dbc 1a89 dcbd 6e78 dbbd
00000170: 6217 adbe f93b 8bbd 902c 4bbd 58c7 34bd
00000180: b61e ccbc 9b38 37be cbee c2bc 01fa a43c
00000190: 156f 5abc b525 55be b3fd b33c 9969 ebbb
000001a0: 85ed 24be 771e aa3d 46f3 9fba b7b0 903d
000001b0: 8169 13be 2ef4 a4bd adf1 96bd 6740 4fbb
000001c0: fb90 dbbc 5b96 5a3d 94c2 dfbd c62a 3b3d
000001d0: c929 11bd 2cb9 e7bb 2b14 d3ba 059a b53c
000001e0: cb30 943d feee 82bc ed97 693c 4138 96bc
000001f0: 3eee 91bd f8d8 bdbd a70d db3b 287f d9bc
00000200: 35d4 18bc e765 7abd 832e 813d e4c9 983b
00000210: 0641 31bd 8a94 2a3d 91b6 aebb cc70 b8bd
00000220: 7dc2 193d badf 593d eb0c 473d a603 7c3d
00000230: f560 86bc 40e5 00bc de36 2d3c b60d b4bb
00000240: b440 b9bd 788f f83c 5aef d93c ebaf 0dbe
00000250: 9a2f 16be 665c 86bd 7084 adbd 131a 113d

1.df.df.fc1.weight_block_2.weights1 f4 [2, 76, 76]
0.09315414 0.016959162 0.071416505 0.031196259 0.01967651 0.06385362 -0.023523219 0.045283973
-0.058865033 -0.038766094 -0.041160274 -0.013438301 0.0024291638 -0.001627001 -0.006842564 0.031969897
-0.0285674 -0.013633554 0.0326078 0.02538277 0.07280685 0.038923614 0.029843917 0.038146168
-0.013535989 -0.033819463 -0.010560063 0.019285303 -0.033440273 -0.025355648 0.008630404 0.10479004
0.012741879 -0.002967574 -0.02448576 -0.0018866456 -0.047704637 0.05335909 0.023350174 -0.009794021
0.015114067 0.008743832 -0.030573899 -0.078118466 0.06563786 0.070753485 0.01753272 -0.04657928
0.11557344 -0.07483708 -0.017622277 0.05264282 0.016395641 -0.028493283 0.00830613 -0.088010006
-0.044171117 0.010409307 0.016474487 0.05425391 -0.019169632 0.0054795537 0.11287532 -0.024901325
-0.010804892 0.13545567 0.030208383 0.102554016 0.051917765 -0.040059727 0.012537124 -0.018981216
-0.046570603 0.0011519324 0.06610781 0.012663252 -0.018245326 0.014925863 0.015710706 -0.028216748
0.0456043 -0.06737788 0.021188749 0.00928426 0.015581715 0.010499173 0.046395376 0.044272076
0.03654675 0.030408153 0.0698544 0.015036095 0.04404258 0.02872947 -0.015300795 -0.004834929
-0.048147388 -0.022962581 -0.0067868493 0.018308343 0.025178924 0.09259164 0.022404624 0.005157755
0.016261866 0.06509016 -0.017759042 -0.030018872 -0.017318109 0.038619235 0.026599998 0.022219187
-0.025440807 0.0057911966 0.013384451 0.020025078 0.015967738 -0.01073876 0.043393087 0.052851155
-0.024830412 0.003019164 0.022939732 0.031353947 -0.032748308 0.07751196 -0.0048053456 0.021554567
0.022622613 0.03264848 0.003401256 0.09298677 0.08053554 0.03177903 0.010562386 -0.050013073
-0.005332794 0.003250936 -0.04177148 0.018088032 0.028410753 0.007718683 0.0030494493 -0.04529438
0.024915447 0.03250069 0.024050757 -0.02209001 0.047482222 0.016899426 0.0021573878 0.022334047
0.17696518 0.0063488926 0.040277433 -0.14342073 0.066762865 -0.09744572 0.08752415 0.010303425
-0.0761782 -0.013129828 -0.16400783 0.012550336 0.11345526 0.022035245 0.016561413 0.11191039
-0.013537665 -0.02396637 0.08771789 -0.01834712 -0.09799304 0.10169889 -0.014129114 0.0025013206
0.013485396 0.026177267 -0.00035577777 -0.004541042 0.03789024 -0.0083869975 0.1689541 0.06593107
-0.04202214 0.014818444 -0.06680901 0.009406323 -0.019059692 0.06329243 0.069322184 -0.06327071
-0.00090126146 -0.059671678 0.016948624 -0.012562327 -0.05343533 -0.01757688 0.057358142 -0.08033588
0.048879825 -0.013161642 -0.089906655 0.07604843 0.0013850002 0.022442276 0.056078453 -0.037068613
0.06202165 0.0577296 0.031059097 -0.10128841 0.005018587 -0.0066044796 0.007947376 -0.015123091
0.037618916 -0.012106471 0.0028314793 0.020701189 0.13086295 0.049227476 0.0029929236 0.10857215
-0.020866135 0.02303163 0.046828803 0.0050144307 -0.01919617 -0.014946679 -0.17525643 -0.11298209
-0.06909671 -0.0074883197 0.1592397 -0.06266791 0.017300043 0.11020927 -0.124126144 0.008480089
-0.038488694 -0.044555925 -0.11954647 -0.002597264 0.0094809625 -0.008585582 0.07061031 -0.014699702
-0.0894001 0.08636188 -0.013569466 -0.08597273 -0.0126677295 -0.11909223 0.02035968 -0.009933599
00000000: 99c7 be3d f1ed 8a3c d142 923d 4c8f ff3c
00000010: a230 a13c b0c5 823d c4b3 c0bc b07b 393d
00000020: 761c 71bd 32c9 1ebd ad97 28bd 522c 5cbc
00000030: 9b32 1f3b 1841 d5ba 9637 e0bb def2 023d
00000040: 2e06 eabc 455f 5fbc c28f 053d 87ef cf3c
00000050: c21b 953d 5e6e 1f3d 3b7b f43c 283f 1c3d
00000060: 0ec6 5dbc 4786 0abd 1d04 2dbc 36fc 9d3c
00000070: abf8 08bd a6b6 cfbc 8a66 0d3c 299c d63d
00000080: 50c3 503c a17b 42bb 5c96 c8bc 5249 f7ba
00000090: f065 43bd 108f 5a3d dd48 bf3c 1a77 20bc
000000a0: fea0 773c 4a42 0f3c 1d76 fabc 93fc 9fbd
000000b0: 246d 863d 34e7 903d c7a0 8f3c eac9 3ebd
000000c0: c5b1 ec3d 2f44 99bd 985c 90bc ff9f 573d
000000d0: 2750 863c bf6a e9bc 6f16 083c 973e b4bd
000000e0: c6ec 34bd cc8b 2a3c 81f5 863c 5939 5e3d
000000f0: a209 9dbc d48d b33b 2d2b e73d ddfd cbbc
00000100: 0007 31bc e4b4 0a3e 9277 f73c d707 d23d
00000110: b9a7 543d ab15 24bd 8268 4d3c 7f7e 9bbc
00000120: d1c0 3ebd 70fc 963a 8863 873d 8779 4f3c
00000130: 3977 95bc 9b8b 743c bdb3 803c cf26 e7bc
00000140: 93cb 3a3d 6afd 89bd 0794 ad3c 021d 183c
00000150: 734a 7f3c b904 2c3c 1409 3e3d a356 353d
00000160: 0cb2 153d 851a f93c d30f 8f3d f459 763c
00000170: fe65 343d 115a eb3c 30b0 7abc 536e 9ebb
00000180: 3236 45bd 061c bcbc 3864 debb 61fb 953c
00000190: 0844 ce3c b0a0 bd3d e789 b73c 6302 a93b
000001a0: 9b37 853c fd4d 853d 697b 91bc 23ea f5bc
000001b0: b5de 8dbc 342f 1e3d 3de8 d93c 0305 b63c
000001c0: 3d69 d0bc 14c4 bd3b 754a 5b3c a20b a43c
000001d0: c6ce 823c a0f1 2fbc f3bc 313d 747a 583d
000001e0: 2669 cbbc 2bdd 453b 1bec bb3c ff6c 003d
000001f0: 1723 06bd 97be 9e3d 2976 9dbb 3493 b03c
00000200: 0f53 b93c 6aba 053d 9be7 5e3b d96f be3d
00000210: d1ef a43d ba2a 023d dc0d 2d3c 82da 4cbd
00000220: b8be aebb a80d 553b 9218 2bbd 5a2d 943c
00000230: abbd e83c 02ed fc3b 45d9 473b 9a86 39bd
00000240: 7b1b cc3c 721f 053d 1806 c53c 1cf6 b4bc
00000250: b87c 423d aa70 8a3c f662 0d3b e4f5 b63c
00000260: 5c36 353e 5f0a d03b f3f9 243d e2dc 12be
00000270: f8ba 883d 9f91 c7bd dd3f b33d b2cf 283c
00000280: 5103 9cbd 7d1e 57bc abf1 27be ed9f 4d3c
00000290: 3b5b e83d 4283 b43c cdab 873c 4631 e53d
000002a0: 15cd 5dbc 1f55 c4bc 70a5 b33d b34c 96bc
000002b0: 93b0 c8bd 8247 d03d cd7d 67bc 32ed 233b
000002c0: daf1 5c3c b571 d63c af87 bab9 05cd 94bb
000002d0: cc32 1b3d 9e69 09bc 4e02 2d3e de06 873d
000002e0: 681f 2cbd 0fc9 723c 2ad3 88bd fa1c 1a3c
000002f0: 1223 9cbc 769f 813d caf8 8d3d 1394 81bd
00000300: a242 6cba 4a6a 74bd d7d7 8a3c 38d2 4dbc
00000310: 01df 5abd 64fd 8fbc 5ff0 6a3d 2387 a4bd
00000320: 3636 483d eda3 57bc fb20 b8bd 47bf 9b3d
00000330: e588 b53a ddd8 b73c 85b2 653d 42d5 17bd
00000340: 6a0a 7e3d e075 6c3d a66f fe3c 4c70 cfbd
00000350: f672 a43b 646a d8bb b635 023c d7c6 77bc
00000360: 4b16 1a3d 385a 46bc 5790 393b 8a95 a93c
00000370: f000 063e c0a2 493d ed24 443b 135b de3d
00000380: 75ef aabc d4ac bc3c 8fcf 3f3d 1850 a43b
00000390: 4941 9dbc eae2 74bc 6c76 33be 2763 e7bd
000003a0: 9382 8dbd 9460 f5bb bb0f 233e 0858 80bd
000003b0: d2b8 8d3c 66b5 e13d d935 febd 12f0 0a3c
000003c0: 52a6 1dbd 4680 36bd c8d4 f4bd dc36 2abb
000003d0: 0a56 1b3c 8aaa 0cbc 239c 903d 05d7 70bc
000003e0: 6617 b7bd 7fde b03d 7752 5ebc 7812 b0bd
000003f0: 4f8c 4fbc a1e6 f3bd 58c9 a63c 89c0 22bc

1.df.df.fc1.weight_block_2.bias1 f4 [2, 76]
0.0954717 0.0637629 0.0031482948 0.15621518 0.04223657 0.08733377 0.10107733 -0.030753843
-0.015919907 0.12234187 0.07399226 -0.24240468 -0.09814433 0.017056365 0.1982054 0.028969781
0.058611132 -0.04390408 0.08221861 -0.20218273 0.13111335 0.09606649 0.060529564 0.11417064
0.17120975 0.04478295 -0.024799898 -0.018272838 0.012005033 0.015888846 -0.120512456 0.22149815
-0.06821713 0.04519354 0.07739823 -0.036226895 0.07998237 0.06320785 0.10768169 0.026059087
0.017306073 0.06359275 -0.03915523 0.05811612 -0.11058061 0.096726745 0.06578651 0.003447538
-0.4188766 0.17780031 -0.07237588 -0.16911568 -0.0023486663 -0.0064307833 0.12655719 -0.0055568516
0.15841863 -0.17609479 -0.063040726 -0.13633572 -1.7112034e-05 0.032875773 0.27125964 0.051325314
-0.054989442 -0.0032408158 0.0041977568 -0.25108358 0.1510595 0.084259994 -0.1196848 0.055200014
0.0031029033 -0.104245774 0.0907763 -0.123432584 0.042935397 0.031087026 0.029497001 0.017978713
-0.10402587 0.020334944 -0.22372079 -0.023634842 -0.107038684 -0.06465181 0.043821342 -0.1724466
0.01746536 -0.094559506 0.01604436 0.050290704 0.025004204 0.031014077 0.028135424 -0.082179435
-0.05084077 0.023637176 0.02656849 0.0063249883 -0.045497 0.0009377025 -0.09936993 -0.013517296
-0.16059515 -0.07490067 0.0287179 0.084174484 -0.11564655 -0.090570986 0.05419186 -0.17914122
0.020456383 -0.09263407 0.014553149 -0.01757625 -0.040881295 0.0065856217 0.065953776 -0.098332494
-0.075623736 -0.2079784 -0.13004261 0.05673996 -0.10145226 0.06616537 -0.15874596 0.0014193977
-0.013193706 -0.09480327 0.041036397 -0.062331945 -0.13178693 -0.19067232 -0.10433686 -0.10785259
-0.094432905 0.015236673 -0.120727174 -0.024157284 -0.20391862 0.046602756 -0.027656106 -0.09046411
-0.029557304 0.026069721 -0.16881745 -0.11875252 0.03665028 -0.009245498 -0.065701395 -0.08222675
00000000: ab86 c33d 2096 823d 9f53 4e3b dff6 1f3e
00000010: 4100 2d3d 0cdc b23d a201 cf3d 7cef fbbc
00000020: 776a 82bc 608e fa3d 4189 973d ef38 78be
00000030: e5ff c8bd cab9 8b3c 5bf6 4a3e 0952 ed3c
00000040: 3a12 703d c4d4 33bd 3b62 a83d fd08 4fbe
00000050: 9442 063e 82be c43d d9ed 773d 4cd2 e93d
00000060: 9c51 2f3e 546e 373d 2829 cbbc ebb0 95bc
00000070: c2b0 443c 5329 823c 3ccf f6bd 69d0 623e
00000080: 6cb5 8bbd dd1c 393d f782 9e3d a762 14bd
00000090: cccd a33d 1e73 813d 3888 dc3d de79 d53c
000000a0: 77c5 8d3c ea3c 823d 3c61 20bd 2b0b 6e3d
000000b0: 1678 e2bd ac18 c63d 14bb 863d 17f0 613b
000000c0: fe76 d6be 4911 363e ce39 94bd a92c 2dbe
000000d0: 15ec 19bb 52b9 d2bb 3598 013e 4016 b6bb
000000e0: 7e38 223e 3152 34be 7f1b 81bd 979b 0bbe
000000f0: d08b 8fb7 bfa8 063d 8be2 8a3e 7e3a 523d
00000100: 9c3c 61bd de63 54bb 568d 893b 078e 80be
00000110: 57af 1a3e 8190 ac3d 4e1d f5bd 6919 623d
00000120: 145a 4b3b cf7e d5bd ede8 b93d 39ca fcbd
00000130: 07dd 2f3d 38aa fe3c b2a3 f13c 1848 933c
00000140: 840b d5bd 7895 a63c 1017 65be db9d c1bc
00000150: 1937 dbbd 2b68 84bd 027e 333d d795 30be
00000160: 8413 8f3c 6aa8 c1bd 766f 833c a0fd 4d3d
00000170: 9ed5 cc3c 3c11 fe3c 437c e63c b14d a8bd
00000180: 693e 50bd c0a2 c13c 29a6 d93c d941 cf3b
00000190: 105b 3abd 26d0 753a 7682 cbbd a677 5dbc
000001a0: 0e73 24be 8665 99bd cd41 eb3c ac63 ac3d
000001b0: 19d8 ecbd 487d b9bd 49f8 5d3d cc70 37be
000001c0: 2594 a73c eeb6 bdbd 5570 6e3c 11fc 8fbc
000001d0: 2573 27bd 33cc d73b c612 873d 8c62 c9bd
000001e0: 9ee0 9abd 4af8 54be e429 05be 2968 683d
000001f0: 34c6 cfbd b681 873d 4d8e 22be 150b ba3a
00000200: 6a2a 58bc 3828 c2bd c815 283d c84f 7fbd
00000210: 27f3 06be 9b3f 43be 90ae d5bd d2e1 dcbd
00000220: 0a66 c1bd 3da3 793c cf3f f7bd 7fe5 c5bc
00000230: 0bd0 50be 88e2 3e3d 0f8f e2bc 3f45 b9bd
00000240: 2922 f2bc 2b90 d53c 7bde 2cbe 8534 f3bd
00000250: 9b1e 163d 6e7a 17bc 748e 86bd 8066 a8bd

1.df.df.fc1.concat_real_layer_1.weight f4 [76, 152]
0.046193972 0.00019973975 0.055075288 -0.033375118 -0.040244322 0.028084064 -0.09217924 0.07260764
0.0044437316 -0.009103667 -0.0045500165 -0.02759989 0.15623385 0.006817432 -0.01535049 0.047690213
0.010496575 -0.011371659 0.076141976 -0.049253177 0.019644214 0.029006373 0.030366894 -0.03216121
-0.09893355 0.034592815 0.050149947 0.026049329 0.009415598 0.028541146 -0.10216953 0.047709443
-0.046980444 -0.038762048 0.12899624 -0.08326166 -0.13142811 0.008627337 -0.019422406 0.017937453
-0.072735846 0.0071567125 0.035380594 0.0502653 -0.07958428 -0.061196193 -0.058481943 0.058218766
-0.05679167 0.03555026 -0.044593923 -0.093681425 0.010894734 -0.02834641 0.015473028 -0.13059622
0.008006463 -0.16345215 0.06259027 0.0062479447 -0.017646525 -0.14008746 0.022508798 -0.03324183
-0.034601063 -0.01585164 0.09897756 -0.0039101923 -0.033960618 0.016213557 -0.00466545 -0.009510041
0.005572879 -0.017993582 -0.0051822294 -0.058211736 0.05632772 0.08540061 0.075723656 -0.03289709
0.12574679 -0.046875488 -0.019651221 -0.02261452 0.055373963 -0.011155598 -0.10991785 -0.101968564
-0.101071134 -0.010785971 -0.095469356 0.13638876 -0.1073756 -0.01861788 0.113726996 -0.014782743
0.03178052 -0.018301845 -0.0063160816 0.07362134 0.020585962 0.034320544 -0.0249918 0.076767355
0.092116416 -0.015588766 0.08089345 0.118067175 -0.0022482655 -0.094612405 -0.1677174 -0.036144268
0.034833297 0.06248342 0.06089522 -0.08999774 0.03716164 -0.019083636 -0.031887356 -0.023189992
0.11487588 -0.029758463 0.032670274 -0.105559714 -0.0578549 -0.14537491 -0.019794207 -0.07359077
-0.11593711 -0.038646653 -0.025860216 0.022312641 -0.056250732 -0.040027857 0.06130477 -0.039459348
-0.01313289 -0.026728544 0.09688654 -0.15650593 0.0781414 0.06282611 0.065392256 0.12322739
-0.017964736 -0.09535025 0.04805904 -0.0374244 0.013464466 -0.025702469 0.1458279 -0.052306328
0.028659862 0.052220713 -0.104005635 -0.116609804 0.017515494 -0.13808715 -0.15017022 -0.029670488
-0.070155285 -0.11335767 0.16666758 -0.067537695 -0.21618353 -0.106558695 0.07082158 -0.17902294
0.08137612 0.13979696 -0.04030077 0.08325484 -0.14576419 -0.016197383 0.049537234 0.00049790443
-0.11359977 -0.18839301 0.037624147 -0.016945183 0.03333071 -0.07817903 0.025632631 -0.06779206
0.11109638 -0.15645842 0.09612603 0.026759747 0.04537449 -0.22907196 0.14298292 -0.17571326
-0.024702016 0.05009727 -0.10663108 -0.0070968163 0.013979872 0.01957812 -0.19067836 -0.14894883
-0.033118036 0.0054692496 0.01677718 0.021872729 0.09699404 0.12329585 -0.016744183 0.11832297
-0.16656126 0.063391395 -0.14703977 0.035871696 0.19366354 0.1109197 -0.053884093 -0.08214696
-0.024684142 -0.08131935 -0.015745718 -0.1501792 -0.16038907 -0.05446053 -0.10229501 0.0055384426
0.02591181 -0.13943061 -0.035645477 -0.11287212 -0.05234991 -0.19696587 -0.14038542 -0.21409658
-0.16484734 -0.031647578 -0.003391497 -0.18192288 -0.05173941 0.14272386 -0.024988415 -0.03793667
0.04247476 -0.25196317 0.07240817 0.009151842 -0.050835997 0.021866724 0.015865175 -0.09833796
-0.15149246 0.04598345 -0.20295645 -0.07813476 -0.17952749 -0.06789644 0.043766923 -0.2143425
00000000: e435 3d3d 3b71 5139 a096 613d 59b4 08bd
00000010: 3bd7 24bd 8d10 e63c 78c8 bcbd 50b3 943d
00000020: b99c 913b 8c27 15bc 4e18 95bb 2a19 e2bc
00000030: c4fb 1f3e c464 df3b 9f80 7bbc d056 433d
00000040: d4f9 2b3c 3250 3abc 53f0 9b3d b3bd 49bd
00000050: e7ec a03c c69e ed3c fec3 f83c 79bb 03bd
00000060: ac9d cabd 32b1 0d3d 086a 4d3d 6765 d53c
00000070: e143 1a3c 1fcf e93c 423e d1bd fa6a 433d
00000080: 916e 40bd f4c4 1ebd 9717 043e 1785 aabd
00000090: 1795 06be ad59 0d3c bd1b 9fbc 91f1 923c
000000a0: 88f6 94bd db82 ea3b 3eeb 103d fde2 4d3d
000000b0: 15fd a2bd dca8 7abd c38a 6fbd cd76 6e3d
000000c0: 629e 68bd 269d 113d 1ea8 36bd 0cdc bfbd
000000d0: d47f 323c bb36 e8bc 9582 7d3c 04bb 05be
000000e0: 8a2d 033c 0060 27be 542f 803d 8fbb cc3b
000000f0: 728f 90bc 1673 0fbe 5f64 b83c 9628 08bd
00000100: d8b9 0dbd 4cdb 81bc bfb4 ca3d 1221 80bb
00000110: 4a1a 0bbd 4bd2 843c a2e0 98bb 01d0 1bbc
00000120: b39c b63b 4767 93bc b1cf a9bb 6e6f 6ebd
00000130: e5b7 663d 84e6 ae3d 0115 9b3d 19bf 06bd
00000140: c4c3 003e 8300 40bd 99fb a0bc 1642 b9bc
00000150: cfcf 623d f8c5 36bc 9c1c e1bd e5d4 d0bd
00000160: 62fe cebd a4b7 30bc 7085 c3bd 7fa9 0b3e
00000170: bde7 dbbd 8684 98bc b3e9 e83d 5133 72bc
00000180: 4a2c 023d c0ed 95bc 22f7 cebb c9c6 963d
00000190: e4a3 a83c b393 0c3d 9abb ccbc 3438 9d3d
000001a0: 88a7 bc3d 0668 7fbc 77ab a53d 34cd f13d
000001b0: a357 13bb 26c4 c1bd 1cbe 2bbe 030c 14bd
000001c0: 5cad 0e3d 9dee 7f3d 446d 793d bc50 b8bd
000001d0: ce36 183d 4955 9cbc 519c 02bd f0f8 bdbc
000001e0: 0c44 eb3d 05c8 f3bc 44d1 053d b12f d8bd
000001f0: 42f9 6cbd 29dd 14be 7627 a2bc c2b6 96bd
00000200: 6f70 edbd f44b 1ebd ced8 d3bc 00c9 b63c
00000210: 2b67 66bd 40f4 23bd b61a 7b3d 20a0 21bd
00000220: 552b 57bc d2f5 dabc 736c c63d 1743 20be
00000230: 9908 a03d faaa 803d 60ec 853d a45e fc3d
00000240: c82a 93bc fe46 c3bd 8ed9 443d 544a 19bd
00000250: 109a 5c3c fc8d d2bc e953 153e 293f 56bd
00000260: 16c8 ea3c 63e5 553d e800 d5bd 1fd1 eebd
00000270: a77c 8f3c b866 0dbe 39c6 19be 860f f3bc
00000280: 93ad 8fbd 1128 e8bd e8aa 2a3e 3451 8abd
00000290: 375f 5dbe 723b dabd e80a 913d ca51 37be
000002a0: 86a8 a63d ef26 0f3e 6c12 25bd 8381 aa3d
000002b0: 3543 15be 60b0 84bc 8ee7 4a3d cd85 023a
000002c0: ffa6 e8bd 19ea 40be c71b 1a3d a0d0 8abc
000002d0: c885 083d 541c a0bd 86fb d13c 90d6 8abd
000002e0: 8086 e33d a336 20be b9dd c43d 4237 db3c
000002f0: 9ada 393d d791 6abe 1d6a 123e 2dee 33be
00000300: e25b cabc cc32 4d3d 6561 dabd 698c e8bb
00000310: d50b 653c 4b62 a03c 3041 43be 0b86 18be
00000320: c7a6 07bd 6437 b33b 4c70 893c 702e b33c
00000330: d0a4 c63d 8982 fc3d 192b 89bc 5053 f23d
00000340: 098f 2abe 59d3 813d 9891 16be 33ee 123d
00000350: bc4f 463e de29 e33d 91b5 5cbd aa3c a8bd
00000360: 6636 cabc c28a a6bd 2afd 80bc 94c8 19be
00000370: 083d 24be 0112 5fbd 0c80 d1bd d37b b53b
00000380: 0145 d43c e6c6 0ebe fe00 12bd 8029 e7bd
00000390: dc6c 56bd 6cb1 49be 32c1 0fbe 223c 5bbe
000003a0: becd 28be e4a0 01bd e143 5ebb fe49 3abe
000003b0: b4ec 53bd 3426 123e 81b4 ccbc 7b63 1bbd
000003c0: 04fa 2d3d 5101 81be bc4a 943d 9cf1 153c
000003d0: 6839 50bd d821 b33c aff7 813c 6a65 c9bd
000003e0: d720 1bbe 2459 3c3d d1d3 4fbe 1e05 a0bd
000003f0: 0ed6 37be 4a0d 8bbd f244 333d 9a7c 5bbe

1.df.df.fc1.concat_real_layer_1.bias f4 [76]
-0.064070895 -0.069031425 -0.022629905 -0.047677018 0.002789231 -0.055630516 0.017444111 -0.046642184
0.016359637 -0.049015258 -0.032821942 -0.15526707 -0.010648093 -0.08027272 -0.010564302 -0.075908825
-0.04377294 -0.061550517 -0.049361106 -0.1233541 -0.0154303005 -0.14378345 -0.0026859557 -0.014736861
-0.052707937 0.03493169 0.047101073 0.06882696 -0.06417758 0.00745884 -0.29064792 0.021528568
-0.36669704 0.044433173 -0.14581668 -0.18582153 -0.06152266 0.011504709 -0.18394314 -0.0047542886
-0.07079616 0.07739543 0.016523354 -0.08787042 -0.113583565 -0.05827319 -0.18330857 -0.09636812
-0.24672288 0.013546815 0.02965956 -0.016877612 -0.079833984 0.041476935 -0.016532196 0.027862988
0.024212666 -0.005309488 -0.090442635 0.01367271 -0.06924903 -0.13423067 -0.009542074 -0.26257455
-0.11761491 0.080762416 0.04773169 -0.01757791 0.05902517 -0.064495064 -0.080810055 -0.015749892
-0.14854257 -0.03178529 -0.22580492 -0.2877127
00000000: 9a37 83bd 5960 8dbd 5a62 b9bc fa48 43bd
00000010: 88cb 363b d3dc 63bd f4e6 8e3c e00b 3fbd
00000020: a504 863c 39c4 48bd 4d70 06bd 55fe 1ebe
00000030: 5775 2ebc 0666 a4bd e515 2dbc 1676 9bbd
00000040: 414b 33bd 651c 7cbd df2e 4abd 13a1 fcbd
00000050: 5fcf 7cbc f83b 13be dc06 30bb e072 71bc
00000060: 47e4 57bd 8814 0f3d 0eed 403d 26f5 8c3d
00000070: 896f 83bd 4969 f43b cecf 94be ae5c b03c
00000080: b7bf bbbe 8fff 353d f850 15be 0048 3ebe
00000090: 2fff 7bbd 3f7e 3c3c 975b 3cbe ddc9 9bbb
000000a0: 94fd 90bd 7f81 9e3d fc5b 873c 68f5 b3bd
000000b0: 809e e8bd deaf 6ebd 3eb5 3bbe a65c c5bd
000000c0: eca4 7cbe 76f3 5d3c 9bf8 f23c eb42 8abc
000000d0: 0080 a3bd b8e3 293d 876e 87bc ec40 e43c
000000e0: a459 c63c 37fb adbb fd39 b9bd 8103 603c
000000f0: 6fd2 8dbd c473 09be 5c56 1cbc 2c70 86be
00000100: 16e0 f0bd c466 a53d 4e82 433d 8dff 8fbc
00000110: 60c4 713d fd15 84bd be7f a5bd eb05 81bc
00000120: 8b1b 18be 4b31 02bd 6839 67be 144f 93be

1.df.df.fc1.concat_imag_layer_1.weight f4 [76, 152]
0.15079565 -0.18829434 0.06041222 -0.12860183 -0.099408254 0.009357549 -0.05670272 -0.051507186
0.118098006 0.07824987 0.05165668 -0.07984793 -0.018005675 -0.0020066237 -0.107322976 -0.12993881
-0.034772646 0.010123936 -0.01195055 -0.06873725 0.14253987 -0.042828206 -0.13233376 0.12527493
-0.091351606 -0.0974619 0.11542989 -0.025360448 0.03797865 0.0038843579 -0.08117308 0.029518496
-0.08352429 0.119108506 0.00230278 -0.083403975 -0.069324255 0.1868968 -0.22155519 -0.11191064
-0.06134349 -0.12233771 0.017996235 0.097116016 -0.09523403 -0.059730988 0.07316113 -0.01990167
0.06151267 0.022632815 -0.05500904 -0.071497686 -0.024975931 -0.066183776 -0.17824298 -0.17971615
-0.05983187 -0.14323995 -0.08765876 0.12389529 0.08753356 -0.083182104 0.13116759 -0.101574294
-0.044550236 -0.13403839 -0.044713795 -0.04220724 -0.06250075 -0.08899384 -0.08858136 0.0017961127
-0.09986109 0.042932432 0.095108196 0.11052715 0.017193163 0.12359678 0.2040041 0.021279033
-0.030882975 -0.008877892 0.0033285257 -0.009645349 -0.06446155 0.032877006 -0.075786844 -0.048568316
0.10308297 0.015600674 -0.05162985 0.05033708 -0.17116591 -0.086955264 0.0843166 -0.076141104
0.049979948 -0.10333952 0.06624134 0.099347934 0.08948243 0.14171712 0.022866232 0.14502206
-0.045283 -0.05918475 0.005483285 0.03747352 0.08071885 -0.122156 -0.12064341 0.032643467
0.038651653 -0.015551968 0.08892024 -0.124004416 0.02867846 -0.0019645633 -0.13404952 0.0443513
0.18500538 -0.026652781 -0.15878126 0.003065676 -0.10729064 -0.1584732 0.11345174 0.10179601
-0.046787016 -0.08843869 -0.012983532 -0.08797974 -0.08732407 0.016901642 -0.06614845 0.13363396
0.0068329875 -0.10109971 -0.011101617 -0.099267915 0.006828086 0.16585739 -0.030249432 0.0992487
0.0019128284 0.02867014 0.017622685 0.103055015 -0.12505203 -0.063825734 -0.059272625 -0.07469291
-0.0154751 -0.11868119 -0.06141372 0.062253032 0.120625414 -0.08781481 -0.12679903 0.18661743
0.33160368 -0.16197406 0.23978995 -0.05516881 -0.11736285 -0.12203552 0.25786644 -0.091983564
0.016433077 0.10243514 -0.15110146 -0.05960465 -0.045731254 0.07683126 0.057560794 -0.14773545
-0.11343501 0.11070726 0.015251474 0.3035425 -0.009570838 -0.07528953 0.047651682 0.028281925
0.14908773 -0.12624305 0.19003302 -0.01009854 0.08880222 -0.09343587 0.16184086 -0.005930143
0.03337679 -0.049738854 -0.24118999 -0.06230228 -0.017830053 0.042511128 -0.21556826 -0.0070250942
0.10634575 -0.09003973 -0.103573434 0.15456387 0.097251944 0.3125652 0.05860378 0.030884229
-0.13396628 -0.1382092 -0.10311084 -0.07465114 -0.034708437 -0.09046274 0.07612139 -0.036837004
-0.08640426 0.06163278 -0.040190935 0.007901897 0.029560583 0.09930493 0.16621894 -0.026372334
-0.017377209 -0.07162118 -0.02967289 -0.02224106 0.06754278 -0.16778563 -0.105665416 0.02878806
0.06439151 0.0314286 -0.14420345 -0.20472546 -0.056312583 0.19693011 -0.121133424 0.26103175
-0.094214275 -0.055097274 -0.17487898 0.020185327 0.0009253578 0.11506233 -0.05063 0.06836847
0.009259882 0.25259542 -0.17888266 -0.083193295 0.007917051 0.022900376 0.04716272 -0.21247163
00000000: 2d6a 1a3e 3bd0 40be ce72 773d 33b0 03be
00000010: 8e96 cbbd 6850 193c 1c41 68bd 33f9 52bd
00000020: 5edd f13d 7841 a03d f495 533d 5087 a3bd
00000030: a380 93bc 8f81 03bb 26cc dbbd ae0e 05be
00000040: c36d 0ebd dede 253c 3dcc 43bc 1ec6 8cbd
00000050: f9f5 113e a16c 2fbd 8082 07be 1248 003e
00000060: 8d16 bbbd 1b9a c7bd 8266 ec3d b7c0 cfbc
00000070: 808f 1b3d b690 7e3b 123e a6bd c6d0 f13c
00000080: c80e abbd 29ef f33d 3dea 163b b4cf aabd
00000090: e0f9 8dbd e061 3f3e 5ddf 62be 6831 e5bd
000000a0: 5043 7bbd 318c fabd d76c 933c c3e4 c63d
000000b0: 0f0a c3bd 7ba8 74bd 81d5 953d d408 a3bc
000000c0: b6f4 7b3d 7468 b93c 2951 61bd 616d 92bd
000000d0: 539a ccbc 5c8b 87bd 5485 36be 8307 38be
000000e0: 4312 75bd 7ead 12be 7086 b3bd d0bc fd3d
000000f0: cc44 b33d 615b aabd cc50 063e 2f06 d0bd
00000100: 4f7a 36bd 5c41 09be d025 37bd 80e1 2cbd
00000110: 6500 80bd 6742 b6bd 256a b5bd 8b6b eb3a
00000120: f983 ccbd ebd9 2f3d 16c8 c23d 0f5c e23d
00000130: add8 8c3c 4f20 fd3d 73e6 503e 5e51 ae3c
00000140: 4bfe fcbc 9474 11bc 6523 5a3b 8707 1ebc
00000150: 6b04 84bd 0aaa 063d 2236 9bbd 92ef 46bd
00000160: 2a1d d33d f899 7f3c d279 53bd 412e 4e3d
00000170: 1e46 2fbe 9a15 b2bd 2eae ac3d deef 9bbd
00000180: c6b7 4c3d aca3 d3bd 8aa9 873d ee76 cb3d
00000190: 9042 b73d 4b1e 113e f751 bb3c aa80 143e
000001a0: ab7a 39bd b56b 72bd 21ad b33b d57d 193d
000001b0: ed4f a53d ed2c fabd e413 f7bd 28b5 053d
000001c0: 3251 1e3d aecd 7ebc d11b b63d 07f6 fdbd
000001d0: 17ef ea3c e7bf 00bb 4744 09be b5a9 353d
000001e0: 0d72 3d3e ef56 dabc 8e97 22be 82e9 483b
000001f0: 32bb dbbd cc46 22be 6359 e83d 6d7a d03d
00000200: bea3 3fbd 581f b5bd e1b8 54bc b92e b4bd
00000210: f6d6 b2bd 5075 8a3c d778 87bd 57d7 083e
00000220: 41e7 df3b 5d0d cfbd 8ee3 35bc fa4c cbbd
00000230: 23be df3b 85d6 293e a8cd f7bc e742 cb3d
00000240: dfb7 fa3a a4dd ea3c 735d 903c 820e d33d
00000250: a40d 00be 11b7 82bd dac7 72bd 99f8 98bd
00000260: 468b 7dbc 200f f3bd f48c 7bbd 09fd 7e3d
00000270: 750a f73d 40d8 b3bd 9bd7 01be a418 3f3e
00000280: f5c7 a93e 87dc 25be 7f8b 753e b1f8 61bd
00000290: ef5b f0bd c2ed f9bd 1207 843e e161 bcbd
000002a0: a99e 863c 84c9 d13d 57ba 1abe 0124 74bd
000002b0: b250 3bbd b559 9d3d dec4 6b3d f647 17be
000002c0: 9d50 e8bd 7dba e23d 52e1 793c ec69 9b3e
000002d0: 01cf 1cbc 6631 9abd 692e 433d 7faf e73c
000002e0: 74aa 183e dc45 01be 0498 423e 5974 25bc
000002f0: f0dd b53d 4e5b bfbd 9cb9 253e a551 c2bb
00000300: 1ab6 083d f8ba 4bbd 82fa 76be ad30 7fbd
00000310: 5510 92bc 2620 2e3d edbd 5cbe c332 e6bb
00000320: cdcb d93d c066 b8bd 4f1e d4bd fe45 1e3e
00000330: 072c c73d 8c08 a03e 840a 703d ec00 fd3c
00000340: 752e 09be b686 0dbe c72b d3bd b2e2 98bd
00000350: 6f2a 0ebd 8744 b9bd 88e5 9b3d 66e2 16bd
00000360: b7f4 b0bd a772 7c3d 409f 24bd f576 013c
00000370: 0929 f23c 6260 cb3d 4c35 2a3e cb0a d8bc
00000380: a65a 8ebc 20ae 92bd 9014 f3bc e232 b6bc
00000390: de53 8a3d ffcf 2bbe 1c67 d8bd f0d4 eb3c
000003a0: b2df 833d 47bb 003d 12aa 13be 8da3 51be
000003b0: 06a8 66bd 0ca8 493e cd14 f8bd f4a5 853e
000003c0: 6af3 c0bd aead 61bd 7a13 33be b35b a53c
000003d0: b693 723a cda5 eb3d 6761 4fbd c504 8c3d
000003e0: c3b6 173c 3054 813e 042d 37be 3f61 aabd
000003f0: 85b6 013c 9299 bb3c b22d 413d 2a92 59be

1.df.df.fc1.concat_imag_layer_1.bias f4 [76]
0.06426442 0.06670812 0.027954267 -0.03125125 -0.019540517 0.049299303 0.10496119 -0.011926047
-0.0062585864 0.12781247 -0.08201718 -0.02409405 -0.08785145 0.073214196 -0.15721335 -0.103191145
0.009656445 0.0346197 0.13721132 -0.060495418 0.02690518 -0.06826114 -0.053092472 -0.009274018
-0.1103043 0.014687138 0.060865317 -0.05961829 0.15448542 0.05690434 -0.016887935 0.09370216
-0.029092977 -0.04326441 0.0817817 0.04250747 0.11612601 -0.0046372935 0.112385295 -0.10703561
0.08054948 0.032703612 0.047115434 0.058034275 0.041059464 -0.050195612 -0.01013076 0.0027242515
0.026168302 -0.066916935 -0.08898627 0.07696174 0.1003739 -0.02416429 0.17031072 0.020255413
-0.033709317 -0.12189426 -0.04562527 0.11390968 0.0124960495 0.013136631 0.043224644 0.00085994316
0.02358991 0.03634048 0.054478567 -0.065572135 0.06354989 0.015352252 0.1547747 0.034766324
0.12095079 0.0029189456 0.05619292 0.023606021
00000000: 109d 833d 449e 883d 5900 e53c 5001 00bd
00000010: 6f13 a0bc 11ee 493d e4f5 d63d 7765 43bc
00000020: d414 cdbb 46e1 023e a0f8 a7bd e360 c5bc
00000030: 76eb b3bd 53f1 953d 89fc 20be e155 d3bd
00000040: 1136 1e3c 63cd 0d3d 2081 0c3e 0bca 77bd
00000050: 4168 dc3c 7fcc 8bbd 7e77 59bd 0df2 17bc
00000060: 39e7 e1bd 52a2 703c e94d 793d 4f32 74bd
00000070: 6d31 1e3e 8614 693d 9158 8abc ebe6 bf3d
00000080: 6554 eebc 0636 31bd 2a7d a73d 501c 2e3d
00000090: 79d3 ed3d 70f4 97bb 432a e63d 7c35 dbbd
000000a0: 20f7 a43d 39f4 053d 1dfc 403d 59b5 6d3d
000000b0: f82d 283d ea99 4dbd 7dfb 25bc 5b89 323b
000000c0: e85e d63c bf0b 89bd 6f3e b6bd 1e9e 9d3d
000000d0: d590 cd3d 30f4 c5bc ef65 2e3e aeee a53c
000000e0: c812 0abd b3a3 f9bd 90e1 3abd 7a49 e93d
000000f0: 3bbc 4c3c 063b 573c 530c 313d cf6d 613a
00000100: a03f c13c c1d9 143d eb24 5f3d af4a 86bd
00000110: 7226 823d 0388 7b3c 427d 1e3e 2267 0e3d
00000120: 0cb5 f73d c84b 3f3b 8c2a 663d 6a61 c13c

1.df.df.fc2.weight_block_1.weights1 f4 [2, 76, 76]
-0.08482591 0.032882333 -0.02308396 -0.0123470165 0.07850637 -0.017069956 0.08070023 -0.0009294248
0.04338595 -0.016314747 0.0013693216 0.01572117 -0.045612793 0.036546595 0.037862755 0.0691602
-0.009859358 0.12252866 0.10783015 -0.07402323 -0.017438535 -0.068203084 0.015767938 0.019389438
0.101675056 -0.041380312 -0.07573721 0.12228558 -0.073885165 -0.09582631 -0.040135797 0.054916427
-0.07512543 0.071258664 -0.05609837 0.027078472 -0.06832957 0.025434768 0.083256744 -0.09453442
-0.056140926 0.07791189 0.027840657 -0.06459617 0.06617592 0.046910252 0.105980046 -0.051091477
-0.05780795 0.024749858 -0.024889098 -0.004030434 0.047004934 0.018077431 -0.08154899 0.110602535
-0.054875597 -0.042349413 0.05834402 -0.09514631 0.0039445753 0.08794931 -0.08558202 -0.13818133
0.06896861 0.05234537 0.048814815 0.038408794 0.0048242696 0.054734036 0.11153845 0.07494289
-0.017871737 0.06056087 0.021528445 -0.091673374 0.06636681 0.10035043 -0.08411759 0.14297114
0.05837982 -0.06282558 -0.051386245 -0.18738218 0.004828396 0.20943414 0.057014406 -0.04683618
-0.052508358 -0.062869616 -0.011300695 0.08409467 0.03660219 0.10033666 0.054068364 -0.1035427
-0.0021006851 -0.04537869 0.005589497 0.28361154 -0.1396218 0.18732701 0.018336175 -0.10118995
-0.013885273 0.012551227 0.05690568 0.05768766 0.009908328 -0.058650285 -0.10689695 0.022084584
-0.1183099 0.11200297 0.05809878 -0.057151847 -0.048057307 0.09599851 -0.026706683 -0.07938726
0.04374072 0.068341404 -0.13354436 -0.06541431 0.012539545 -0.07042218 -0.16112962 -0.12032183
0.25056437 0.14949575 0.03095372 -0.09392643 0.0032896467 0.035781123 -0.09339948 -0.17680582
0.020545714 0.024075754 -0.094911456 -0.07067037 0.0637357 -0.16830985 0.028593346 0.110890545
-0.100496896 0.025583133 0.04396367 -0.074573964 0.053271346 0.008605764 0.02418302 0.081116855
0.04973687 -0.056589402 -0.0028872096 0.06852757 0.13644135 -0.03304048 0.24709462 0.09124269
0.12872921 -0.008446116 -0.16951618 0.047431216 0.03172647 -0.07569619 0.11663117 0.018623503
0.1553862 0.081970915 0.037335306 0.19830103 -0.088855766 -0.104519986 0.015586904 -0.080497205
0.06907791 -0.023361668 -0.12578918 -0.0317537 -0.012816377 -0.049642697 0.27203143 -0.06095128
-0.03745957 -0.040491596 -0.16936836 0.07300094 0.123894446 0.002581408 0.02850197 0.024629243
0.05193215 -0.034984842 -0.07567065 -0.06780659 -0.07700238 -0.1541547 0.010041264 0.14034872
0.29940876 -0.03031426 -0.047315117 0.16113837 0.067006186 -0.020673182 0.059394415 0.17602272
0.1711771 0.08456592 0.0408182 -0.044891108 0.045083743 0.05547977 0.0921001 -0.066993125
0.052503932 0.10477293 0.11276588 -0.011476139 0.14959545 0.0413507 0.19663909 0.047057815
0.07560104 0.014835499 0.077543005 -0.12937093 0.118526846 -0.051352803 0.08288567 -0.03118425
0.010859513 0.05645849 -0.0448708 -0.038331088 0.07783418 0.06361433 0.07850665 -0.026280127
-0.108910166 0.0390073 -0.03432258 -0.044449605 0.08589253 -0.14475691 -0.028666986 0.061607197
0.07879534 0.09021897 0.004691557 -0.10284396 -0.024174158 -0.013182037 0.19355097 -0.16045187
00000000: 35b9 adbd a0af 063d 931a bdbc 244b 4abc
00000010: f3c7 a03d 4bd6 8bbc 2a46 a53d a4a4 73ba
00000020: 77b5 313d 81a6 85bc cf7a b33a afc9 803c
00000030: 7bd4 3abd e2b1 153d fa15 1b3d dda3 8d3d
00000040: 2589 21bc 4ef0 fa3d 0ed6 dc3d 7e99 97bd
00000050: 42db 8ebc 0fae 8bbd c32b 813c 99d6 9e3c
00000060: 033b d03d 677e 29bd 1c1c 9bbd dd70 fa3d
00000070: 1b51 97bd 9640 c4bd 6f65 24bd 0cf0 603d
00000080: 5ddb 99bd 10f0 913d 68c7 65bd acd3 dd3c
00000090: 60f0 8bbd 935c d03c 8382 aa3d 439b c1bd
000000a0: 07f4 65bd 4590 9f3d 1712 e43c ff4a 84bd
000000b0: 3e87 873d f724 403d 110c d93d 4c45 51bd
000000c0: 07c8 6cbd 37c0 ca3c 39e4 cbbc bb11 84bb
000000d0: 3f88 403d 1f17 943c 2803 a7bd 9583 e23d
000000e0: 3cc5 60bd 9476 2dbd 24fa 6e3d 12dc c2bd
000000f0: 7f41 813b c51e b43d a045 afbd 687f 0dbe
00000100: 6a3f 8d3d 1968 563d 0bf2 473d 8a52 1d3d
00000110: e814 9e3b cc30 603d 456e e43d a87b 993d
00000120: c067 92bc ad0e 783d 6c5c b03c 40bf bbbd
00000130: 52eb 873d 8784 cd3d d845 acbd 0767 123e
00000140: ae1f 6f3d b3aa 80bd 627a 52bd 1de1 3fbe
00000150: 8537 9e3b e775 563e f087 693d 4bd7 3fbd
00000160: 0113 57bd c9c1 80bd 8d26 39bc d439 ac3d
00000170: 2eec 153d 4f7d cd3d ca76 5d3d 320e d4bd
00000180: a6ab 09bb 01df 39bd 1928 b73b 8835 913e
00000190: 04f9 0ebe a7d2 3f3e bf35 963c ad3c cfbd
000001a0: 0e7f 63bc a9a3 4d3c ee15 693d e549 6c3d
000001b0: 8a56 223c 483b 70bd caec dabd bbea b43c
000001c0: 764c f2bd d061 e53d fdf8 6d3d 0e18 6abd
000001d0: bdd7 44bd de9a c43d f9c7 dabc ca95 a2bd
000001e0: 7829 333d 94f6 8b3d dabf 08be f0f7 85bd
000001f0: aa72 4d3c 8139 90bd 2aff 24be 4b6b f6bd
00000200: f949 803e 6a15 193e a892 fd3c 805c c0bd
00000210: 1d97 573b 3a8f 123d 3a48 bfbd 960c 35be
00000220: 7c4f a83c 843a c53c f060 c2bd a0bb 90bd
00000230: dd87 823d 6b59 2cbe 983c ea3c 951a e33d
00000240: 51d1 cdbd b893 d13c 4013 343d 3cba 98bd
00000250: 0e33 5a3d 31ff 0c3c 781b c63c 9820 a63d
00000260: e3b8 4b3d 4aca 67bd 5737 3dbb 2f58 8c3d
00000270: 48b7 0b3e 7455 07bd 5f06 7d3e 73dd ba3d
00000280: 97d1 033e 9461 0abc a695 2dbe 3c47 423d
00000290: 9df3 013d 9b06 9bbd 53dc ee3d 5190 983c
000002a0: 8f1d 1f3e 5ee0 a73d e8ec 183d 6d0f 4b3e
000002b0: 03fa b5bd 930e d6bd 3760 7f3c b8db a4bd
000002c0: b878 8d3d f860 bfbc e1ce 00be 2b10 02bd
000002d0: c8fb 51bc 2456 4bbd b447 8b3e 0da8 79bd
000002e0: 356f 19bd 84da 25bd e66e 2dbe 8481 953d
000002f0: 5fbc fd3d d72c 293b f77c e93c 44c3 c93c
00000300: ceb6 543d 444c 0fbd 37f9 9abd 2ede 8abd
00000310: 6cb3 9dbd bbda 1dbe 1d84 243c 93b7 0f3e
00000320: 1b4c 993e 9c55 f8bc 7fcd 41bd 7501 253e
00000330: 8a3a 893d ce5a a9bc 8f47 733d 4d3f 343e
00000340: 0d49 2f3e e630 ad3d fc30 273d bddf 37bd
00000350: bba9 383d c13e 633d fa9e bc3d b133 89bd
00000360: 5d0e 573d 3193 d63d ccf1 e63d 6a06 3cbc
00000370: 8d2f 193e 5a5f 293d c25b 493e b2bf 403d
00000380: b8d4 9a3d 9810 733c dece 9e3d d079 04be
00000390: 34be f23d 5157 52bd f6bf a93d 1d76 ffbc
000003a0: 19ec 313c 0541 673d 72ca 37bd 0f01 1dbd
000003b0: 8767 9f3d 3b48 823d 18c8 a03d 6c49 d7bc
000003c0: 4b0c dfbd 1ec6 1f3d d595 0cbd ca10 36bd
000003d0: 6ce8 af3d 283b 14be 07d7 eabc d457 7c3d
000003e0: 745f a13d b9c4 b83d a2bb 993b db9f d2bd
000003f0: e208 c6bc 78f9 57bc 3a32 463e 7f4d 24be

1.df.df.fc2.weight_block_1.bias1 f4 [2, 76]
0.019157527 0.04473608 -0.029727312 0.049620125 0.16387984 -0.039425403 -0.3108322 -0.028749539
0.053487543 -0.1728648 -0.02993392 -0.20977405 0.06832225 -0.09297913 -0.22909929 -0.09674401
-0.085628055 -0.043611724 -0.35791212 0.07679755 -0.20138974 -0.035148825 -0.21758169 -0.05703633
-0.16806434 0.109653465 -0.03949939 -0.08145256 0.22478263 -0.068719804 -0.037927587 -0.020619772
-0.006578435 -0.26333064 -0.11960187 -0.13183822 0.011729026 0.26104516 0.047145724 -0.044475876
0.06811819 -0.057741053 -0.009618509 0.122718975 -0.06776525 -0.006604895 -0.019486764 -0.006605264
0.18707019 -0.031773694 -0.03692622 -0.2083451 -0.03525107 -0.027041942 0.026454834 -0.27671584
0.17197232 0.048560716 -0.029846627 -0.04027168 0.007661122 -0.3137522 0.090763986 0.024962144
-0.019123629 0.0016913062 0.094718195 -0.087547556 0.036675982 -0.00659084 -0.14654014 -0.2427646
-0.24271 -0.22629568 0.05169712 -0.048370387 -0.033334196 -0.029497929 -0.054675125 -0.07995564
0.07853798 -0.02172341 -0.020876473 -0.008253234 0.025274608 -0.082593374 -0.0964043 0.008781203
0.035815936 0.009217057 -0.18029709 0.038915247 -0.044789717 -0.06447598 -0.08699204 -0.0943443
-0.0036033548 -0.13372464 -0.013557132 -0.10990567 -0.032327175 -0.029343061 -0.067788474 -0.22526927
-0.07034935 -0.09216473 -0.032519683 -0.025202299 0.03023672 0.048398387 -0.032949217 -0.059075315
0.023192227 0.04440757 -0.0312609 -0.0057428484 -0.0102022085 -0.04976631 -0.0499818 0.044359308
-0.08511088 -0.062320072 -0.0692472 -0.042804345 -0.0797187 -0.06931722 -0.073779665 -0.16063215
-0.12535547 -0.12931612 -0.110545486 0.04536975 -0.07051498 -0.03244215 -0.110657915 -0.04950235
-0.045769565 -0.15077895 -0.1025866 -0.054813985 -0.022669777 -0.024519907 -0.22379525 -0.103200786
-0.067364566 -0.07831316 -0.086706534 -0.052950237 -0.09112816 -0.0827366 -0.05465191 -0.10132661
00000000: 3ff0 9c3c 2e3d 373d b186 f3bc 793e 4b3d
00000010: 1ed0 273e 887c 21bd 6625 9fbe 2784 ebbc
00000020: c115 5b3d 7803 31be fb37 f5bc 02cf 56be
00000030: 89ec 8b3d d86b bebd 0199 6abe b921 c6bd
00000040: c35d afbd 35a2 32bd 4240 b7be 0948 9d3d
00000050: 1d39 4ebe 37f8 0fbd bccd 5ebe ed9e 69bd
00000060: 0f19 2cbe ff91 e03d 1dca 21bd 9ad0 a6bd
00000070: 6b2d 663e f8bc 8cbd f559 1bbd ccea a8bc
00000080: ea8f d7bb 46d3 86be d3f1 f4bd 9900 07be
00000090: 1a2b 403c b6a7 853e e01b 413d 562c 36bd
000000a0: 8d81 8b3d e281 6cbd f396 1dbc 1654 fb3d
000000b0: 82c8 8abd e06d d8bb b5a2 9fbc f870 d8bb
000000c0: 548f 3f3e 2225 02bd f33f 17bd 6b58 55be
000000d0: 6d63 10bd 1087 ddbc cfb7 d83c b3ad 8dbe
000000e0: 8319 303e 9ae7 463d ea80 f4bc ebf3 24bd
000000f0: 260a fb3b 21a4 a0be 78e2 b93d 697d cc3c
00000100: 28a9 9cbc d2ae dd3a 9dfb c13d 224c b3bd
00000110: 8e39 163d f9f7 d7bb 9e0e 16be 4997 78be
00000120: f888 78be 0eba 67be 5cc0 533d 0720 46bd
00000130: 7089 08bd a4a5 f1bc 06f3 5fbd c8bf a3bd
00000140: 85d8 a03d 4bf5 b1bc 2305 abbc 9338 07bc
00000150: b20c cf3c b726 a9bd 9e6f c5bd 09df 0f3c
00000160: bbb3 123d 2403 173c cd9f 38be 9865 1f3d
00000170: 6c75 37bd fc0b 84bd e228 b2bd 9637 c1bd
00000180: 4326 6cbb 1def 08be bc1e 5ebc 3916 e1bd
00000190: 8069 04bd dc60 f0bc afd4 8abd fdac 66be
000001a0: 5213 90bd ddc0 bcbd 5c33 05bd 0d75 cebc
000001b0: ffb2 f73c 633d 463d c2f5 06bd f5f8 71bd
000001c0: a0fd bd3c b6e4 353d 6e0b 00bd 812e bcbb
000001d0: 2a27 27bc c2d7 4bbd b7b9 4cbd 1bb2 353d
000001e0: 9d4e aebd 5543 7fbd 7ad1 8dbd 9c53 2fbd
000001f0: 8f43 a3bd 30f6 8dbd cb19 97bd c17c 24be
00000200: 2f5d 00be 726b 04be ac65 e2bd a2d5 393d
00000210: 286a 90bd 0fe2 04bd 9ea0 e2bd fac2 4abd
00000220: de78 3bbd cc65 1abe ec18 d2bd a184 60bd
00000230: f8b5 b9bc f9dd c8bc 952a 65be ef5a d3bd
00000240: 6ff6 89bd a662 a0bd 3293 b1bd 59e2 58bd
00000250: 67a1 babd ce71 a9bd aeda 5fbd 5384 cfbd
