model/2.pt (torch, 694923 bytes, 30 tensors)

1.df.df.fc1.weight_block_1.weights1 f4 [2, 76, 76]
000000 8a eb 69 3d 6b fe a6 3b cb f9 8b 3b 81 cc fd ba
       0.057109393 0.005096247 0.004271721 -0.0019363315
000010 a0 4a 25 bd 86 5b d8 3c 8b 1d 1f 3c e5 91 90 3d
       -0.04035437 0.02641083 0.009711633 0.07059077
000020 4f 31 34 3d b3 40 ae 3b 65 b1 5f 3c 96 bb 1d bd
       0.043992337 0.0053177713 0.013653134 -0.038508974
000030 bc f6 74 bc 77 ae b5 3c 39 07 c3 3c 65 d6 81 3d
       -0.014951404 0.022177918 0.023807155 0.06339721
000040 27 ae 69 3d d4 82 4a bc 7d 80 28 3d 40 eb 16 bb
       0.05705085 -0.012360293 0.04113816 -0.0023028404
000050 ef 1c de bc d6 ff 12 bd c9 bc 0d bd ef 18 29 3d
       -0.027113406 -0.035888515 -0.034603868 0.041283544
000060 9d 92 e2 3c e8 7c 8d 3c 10 1b 6a 3d 5c f7 11 3d
       0.027657801 0.017271474 0.057154715 0.03563629
000070 17 c2 d6 3c 83 74 de bd 33 f4 4e 3c 31 92 60 3d
       0.026215596 -0.108620666 0.012631464 0.05482692
000080 75 73 81 3d 5e 79 15 3c 99 1d 93 3c d3 60 1d 3d
       0.0632085 0.0091231745 0.01795845 0.038422417
000090 1f 8a 15 bd dd 36 8f 3d 64 dc 3f 3c 75 d1 a1 bd
       -0.036508676 0.06992886 0.01171026 -0.07901279
0000a0 21 fd 5f bc 09 88 4c bc 72 d6 5f bc 77 69 4b 3d
       -0.0136711905 -0.012483605 -0.013661968 0.049661126
0000b0 50 5c 67 bd e0 7a 98 3c 30 7c 22 3c eb 9e 18 bd
       -0.05648452 0.018613279 0.009917304 -0.03726093
0000c0 ac 0e 1d 3d 99 db f7 bd 76 e1 0d bd 3c 29 a9 bc
       0.03834407 -0.12102432 -0.034638844 -0.020649545
0000d0 3c ff 20 bc d0 a7 a5 3c d7 33 c8 bd 4a 0d c1 bb
       -0.009826478 0.02022162 -0.09775513 -0.0058914768
0000e0 bd 10 da 3c 0d 9f 3c bd 38 c3 9d ba 26 28 e3 3c
       0.02661931 -0.04605012 -0.0012036329 0.027729105
0000f0 24 91 34 3d 5b 28 1f bc e6 d3 51 3d 83 59 6d bc
       0.04408373 -0.009714211 0.051227473 -0.014486673
000100 3d 47 b4 3c ea 65 13 3c 93 40 0a 3d 6a 7f a9 bd
       0.022006625 0.008996466 0.03375299 -0.082762554
000110 2b 4e 23 3d 61 0f 0e 3d 29 87 23 bc 50 38 f5 3c
       0.03986947 0.034682635 -0.009980955 0.029934078
000120 ab 72 a4 3b 02 a9 06 3d 3e f4 fd bb fb c3 ca bc
       0.0050185523 0.032876022 -0.007750063 -0.024751654
000130 9e a1 cb bc 4f c9 aa 3c 81 8a 53 3c 48 76 d1 3c
       -0.024857339 0.020847945 0.01291144 0.025569096
000140 67 1a 96 ba 09 da 00 3c f2 7e 26 3c 9d a2 19 bd
       -0.001145196 0.007864484 0.010162102 -0.037508596
000150 3c e1 b0 bb 83 f4 1a 3c 5d dc e1 3b ca b1 e9 3c
       -0.005397944 0.00945771 0.0068927244 0.02852716
000160 35 4c 64 ba af 89 93 ba 6d 6c e4 3a 8f 98 66 bb
       -0.00087088655 -0.0011256243 0.0017427333 -0.0035186147
000170 03 94 af bc f1 de c6 3c 17 d3 3a 3b 18 29 8b 3c
       -0.021432882 0.024276229 0.0028507167 0.016987368
000180 e2 e8 73 3c 70 45 d3 3c 1f 39 ac 3c f7 40 63 bb
       0.014887067 0.025789946 0.021023331 -0.0034676173
000190 0d 57 8d 3b 77 38 54 3b dd e4 8d 3b 2d da 5e bb
       0.004313356 0.0032382288 0.004330261 -0.0034004555
0001a0 90 6c 57 3c 37 f0 8e bb d4 06 49 3c 1c b7 07 ba
       0.013148442 -0.004362132 0.012269694 -0.0005177127
0001b0 5d 45 03 3c 48 08 5e bb 56 55 12 3c ec b3 30 bc
       0.008012143 -0.0033879448 0.0089314785 -0.010785084
0001c0 31 c6 16 3d 32 3a 85 ba c8 21 25 3c de d9 0a 3d
       0.036810104 -0.0010164438 0.010078855 0.03389918
0001d0 87 a3 c1 3c 98 08 38 3c af d7 8a 3c d2 83 65 bc
       0.023637546 0.011232518 0.01694855 -0.014008479
0001e0 cc 88 65 3d 2d 5c 07 bc 19 9c 7b ba ea 4d 6b bc
       0.056038663 -0.0082617225 -0.00095981505 -0.014361838
0001f0 92 58 a2 bb 9a bc 72 3d 5b 02 45 3d c7 fc 06 3d
       -0.004954406 0.059261896 0.04809795 0.03295591
000200 8f b9 dc 3c 40 ce 83 3c 1b 1b d3 3c 1b 2b cb 3c
       0.02694395 0.016089559 0.02576976 0.024800828
000210 63 df 0d bc 7d da 72 3d df a3 c3 3c fc 75 68 bc
       -0.008659217 0.059290398 0.02388185 -0.014188286
000220 fb 10 53 bc e0 54 30 3d 51 58 ca 38 cc b4 18 3d
       -0.012882466 0.043049693 9.648561e-05 0.037281796
000230 70 eb 0e 3c 8e 94 cf 3c e2 55 8c bb e2 bb 67 3c
       0.008723125 0.025339391 -0.004282699 0.014143916
000240 eb 25 08 bc c2 27 97 bc ab 61 7f 3c e4 06 52 bc
       -0.008309822 -0.018451575 0.015587251 -0.012819026
000250 3e 61 d0 3b c2 0c cb 3b 61 db a6 3c 5f 0f e8 3c
       0.0063592484 0.006196589 0.02036828 0.028327642
000260 76 6e 6c 3c e9 bb 80 3d 7b 10 43 3d 76 18 97 3b
       0.014430633 0.06285841 0.04762314 0.0046110703
000270 1d 1b 3b 3c d9 70 6e 3b 6e 50 38 bd a3 c0 ef bd
       0.0114200385 0.003638318 -0.04499858 -0.117066644
000280 80 c9 1b 3a 9f b3 14 3b 10 fd 23 3c f0 f1 d5 bd
       0.00059428066 0.002269007 0.010009065 -0.104465365
000290 03 42 bc bc 78 67 35 3d c3 b3 10 3d c1 03 99 bd
       -0.022980696 0.04428813 0.035327684 -0.07471419
0002a0 b7 43 ab bc 25 6b 21 3d ff c7 af 3d 44 b0 13 3d
       -0.020906312 0.03940882 0.08583068 0.036056772
0002b0 d0 51 77 3d 4b 8f f0 bb 70 50 30 bc 03 cd 4a 3d
       0.060380757 -0.0073413006 -0.010761365 0.04951192
0002c0 2d bb fd bd fb 37 6e 3d df 32 4a 3c 3e 85 1e 3c
       -0.123892166 0.058158856 0.01234123 0.009675322
0002d0 eb c1 b5 bc 68 b3 59 3d a0 89 9e bd 4b b5 89 3d
       -0.022187194 0.05314961 -0.07741094 0.06724032
0002e0 09 e5 99 bc 18 9f 05 bd 53 3a b4 3d ee 6d d8 bb
       -0.01878597 -0.032622427 0.08800187 -0.0066049015
0002f0 39 8d 90 bd 27 fe 18 bd 5b d9 c2 3c 6d ab 03 3c
       -0.07058186 -0.037351754 0.023785284 0.008036477
000300 61 38 33 3c 3a 01 87 bd 71 96 67 3c 7a a6 52 3d
       0.010938735 -0.06592031 0.014134989 0.051428296
000310 01 9c ef bc 31 01 2a 3d 9d 41 24 bd 1e bb 2c bd
       -0.029249193 0.041505042 -0.040101636 -0.042170636
000320 8f c5 82 bc af 68 71 3d e9 d1 0d bc fb b0 02 3d
       -0.015963344 0.058937725 -0.0086560035 0.031907063
000330 14 e9 5a bc 08 24 4a 3a a6 7d be bc 3f 18 43 bc
       -0.013361234 0.00077110576 -0.023253273 -0.011907636
000340 51 bf 21 bd 8f 24 bc bd 03 5f 19 bd 8e d1 50 3d
       -0.039489094 -0.091866605 -0.037444126 0.050981097
000350 b3 d9 7e 3d 75 ec 18 3d 8a 05 2b 3d bd 52 8d bd
       0.062219333 0.037334878 0.04175333 -0.06900547
000360 43 6e 82 3a 11 70 72 3d 93 87 82 3d 57 54 34 3d
       0.0009951073 0.059188906 0.06373515 0.044025745
000370 8d f6 12 bd a6 56 43 bc dd 4f 80 3d 6c 17 55 3d
       -0.03587966 -0.011922514 0.06265233 0.05202429
000380 f9 53 e1 3c 52 93 ac bc 55 e1 ea bc 57 27 b7 bd
       0.027505862 -0.021066342 -0.0286719 -0.0894305
000390 32 13 82 bd 2c 29 2f bd da 51 95 3c 21 90 2f bc
       -0.063513175 -0.042763874 0.018227506 -0.010715515
0003a0 5f d6 eb 3d b3 d2 af bd d2 2b 4b bd 4c b9 a2 bd
       0.115154974 -0.085851096 -0.049602337 -0.07945499
0003b0 05 5e 97 bd af a3 a3 3c e0 58 a6 3c 10 b9 6a bd
       -0.0739098 0.019975511 0.02030605 -0.057305396
0003c0 87 63 38 3d 9a 5d a1 3c 50 2e 8e bc 16 d2 39 be
       0.04501679 0.019697953 -0.017356068 -0.18146548
0003d0 a7 df 9a 3b 69 db 73 3d 28 4f 3a bd 3f de a2 3c
       0.0047263685 0.059535418 -0.045485646 0.019881366
0003e0 8f 74 11 3d 7f b0 08 3d bc 03 28 3c 01 c9 2b 3c
       0.03551155 0.033371445 0.010254797 0.010484935
0003f0 bb 44 20 be 59 e5 2d 3c 19 10 03 be 36 cd ff 3b
       -0.15651219 0.010613763 -0.1279911 0.0078064455

1.df.df.fc1.weight_block_1.bias1 f4 [2, 76]
000000 58 37 b3 3d c9 d1 43 3d 52 66 9a 3d b8 3e 4b 3c
       0.0875079 0.04780749 0.07539047 0.01240509
000010 72 af 4e 3d 4e bf 1e 3d 54 4c 29 3d 36 49 a2 3d
       0.050460286 0.03875666 0.041332558 0.0792412
000020 32 10 b8 3b 97 96 c7 3c 77 8c 8f 3d a1 ed 90 bc
       0.005617165 0.024363799 0.070092134 -0.017691435
000030 6d 08 47 3d 59 49 7f bc 9b ef 70 3b 0d 68 7e 3b
       0.04859202 -0.015581452 0.003676391 0.0038819343
000040 66 b5 24 be c9 90 1e 3d 2d af 9c 3c f4 af 38 3d
       -0.16084823 0.038712297 0.0191265 0.045089677
000050 e3 6e 9b ba 6f 34 f3 3d 0f 86 7f 3d 54 4a 7b 3c
       -0.0011858608 0.11875235 0.062383708 0.015337545
000060 b7 98 cf 3d 9f 7c 98 bd a6 3f 2b 3d c0 38 33 bc
       0.1013655 -0.074456446 0.041808747 -0.010938823
000070 05 dc 00 3c f7 8b ed bd 34 75 03 3d 44 b6 19 3e
       0.007864957 -0.11598962 0.032094195 0.15010935
000080 80 42 88 3d 08 ec 3c 3d 85 8c 36 3d 45 7e 6b 3c
       0.06653309 0.046123534 0.044567604 0.014373367
000090 c1 c4 84 3d f7 9f 40 bc a7 1d 88 bd a5 43 31 bd
       0.0648284 -0.011756889 -0.06646281 -0.0432774
0000a0 6d 7a 99 3d 77 1e 8a ba 9e 33 95 3c 9d 69 f4 3b
       0.07494054 -0.0010537644 0.01821309 0.007458879
0000b0 9c be 90 3c c5 21 1c 3c 41 49 9e 3c 6d 2d 70 3b
       0.017669015 0.009529536 0.01932204 0.003664817
0000c0 fe 59 c3 3c df 93 47 be 88 a4 0c 3e 05 de 0d 3d
       0.023846623 -0.19490002 0.13734639 0.034635562
0000d0 86 fe 90 b9 bf 04 83 3d 5c 38 da 3b 35 2d 55 3c
       -0.00027655455 0.063973896 0.0066595506 0.0130112665
0000e0 0b de 15 3c b6 e6 0f 3d 11 d4 ad 3c 82 f3 fd 3b
       0.009147177 0.035132132 0.021219285 0.0077499757
0000f0 95 4d a0 bd aa 97 24 3e 42 69 4f 3d 59 c1 d1 3c
       -0.078272976 0.1607348 0.05063749 0.02560489
000100 03 83 c6 3c 8d e6 d2 3d 67 81 a9 bb 5f d5 f6 bd
       0.024232393 0.1029788 -0.0051728967 -0.12052416
000110 e3 cc 99 3d 3b bc fc 3b 3e 0e a8 bc 65 32 db 3b
       0.07509782 0.0077128685 -0.020514604 0.006689357
000120 f2 23 41 bc 2a 47 dc 3c bc c5 89 3c d5 47 65 3d
       -0.011788355 0.026889402 0.01681792 0.055976707
000130 9c 8a 67 3d 72 27 c1 bc c3 f8 30 bd 18 0d 91 3d
       0.056528673 -0.02357838 -0.043205988 0.070825756
000140 97 40 84 3d 83 9d ba bb 6a 13 5c bb c4 a4 93 bd
       0.06457632 -0.0056950464 -0.0033580908 -0.07209161
000150 e9 0e 87 bd d4 be 45 3b 42 d4 6d bd 0c f1 80 3d
       -0.06594641 0.0030173557 -0.058063753 0.06295976
000160 5b d6 d4 bc bd 24 18 3d 26 cd 21 bb 16 0f 5e bc
       -0.025981119 0.03714441 -0.0024688928 -0.013553401
000170 57 f9 26 be f9 37 b8 3c 37 1b 99 3c 02 5c 84 bc
       -0.16306053 0.022487627 0.018689735 -0.016157154
000180 c1 bd b4 3c ad 14 a1 bc 01 85 ab 3c 06 94 06 3d
       0.022063138 -0.01966318 0.020937445 0.03285601
000190 b4 ce f0 3c 90 8d cb bd db 79 a1 3c 12 9d dc bb
       0.029395439 -0.0993911 0.019711426 -0.0067325914
0001a0 00 11 1b bd ca b3 93 3d f4 1f 97 3c 87 4c 85 3d
       -0.03785801 0.072120264 0.018447854 0.06508737
0001b0 48 f4 5a bd 15 90 00 bc 83 9d 37 bd e6 5a 0c 3c
       -0.05345562 -0.007846852 -0.04482795 0.008566594
0001c0 bd e2 a4 3b 69 6d e9 3c 35 c2 31 bd 3c a3 76 3d
       0.005031912 0.028494554 -0.0433981 0.060214266
0001d0 80 12 30 3d 27 9b 03 3d c9 1d 3a 3d 34 b5 5d 3d
       0.042986393 0.032130387 0.04543856 0.054127887
0001e0 e5 b7 ee 3c a2 ab 02 3c 97 e1 dd 3c 54 9c 87 bc
       0.029140422 0.007975491 0.027085109 -0.016554035
0001f0 bf 49 47 bc 28 d2 e8 bc 63 82 87 3c 52 d7 80 3d
       -0.0121635785 -0.028420523 0.016541665 0.06291069
000200 fd 7a f8 39 b3 25 51 bd 51 81 64 3d 79 3d 1f 3d
       0.0004739388 -0.051061343 0.05578739 0.038876984
000210 b5 de fb 3c b7 26 4a 3d 38 08 11 3d 05 c4 e2 bc
       0.030745843 0.049353328 0.03540823 -0.02768136
000220 84 85 30 3d 9f f5 90 3d 21 53 76 3d b6 ff 9b 3d
       0.04309608 0.070780985 0.06013787 0.07617132
000230 60 71 35 3d 47 14 0a 3d b8 f3 f1 3c 27 f7 1b 3d
       0.044297576 0.033710744 0.02953516 0.0380775
000240 20 a4 94 bc a9 d4 99 3c c3 2d 19 3d 01 98 6c bd
       -0.018144667 0.018778162 0.037397157 -0.05776215
000250 67 ed 43 bd 8c c0 45 bb 8f 26 11 bb 31 eb 02 3d
       -0.047833826 -0.0030174581 -0.0022148227 0.031962577

1.df.df.fc1.weight_block_2.weights1 f4 [2, 76, 76]
000000 79 77 5e 3d 79 52 d5 3c 96 73 30 3d 6b 95 b5 3c
       0.054313157 0.026040303 0.04307898 0.022165975
000010 3e b3 85 3c 96 e1 69 3d ac 34 cf bc b4 50 e7 3c
       0.01632082 0.0570999 -0.02529367 0.028236724
000020 92 ae 0d bd f6 d2 b5 bc 01 bf 7b bc ad a5 06 3a
       -0.03459031 -0.02219532 -0.015365363 0.0005136382
000030 cd 95 d3 bb 16 83 83 3c 0e 49 f9 3b b1 20 79 3c
       -0.0064570666 0.016053718 0.0076075858 0.015205548
000040 ab 66 82 bc e9 5b 48 3c 58 9f 5e 3b 54 c8 ba 3b
       -0.015918097 0.012228944 0.0033969488 0.0057001505
000050 b5 3d 54 3d 06 29 17 3b 41 4c be 3c 50 17 2f 3d
       0.05181666 0.0023065223 0.02322972 0.042746842
000060 b9 1a d3 ba a3 c9 85 bb 36 3d ca bc 47 59 1d 3d
       -0.0016105986 -0.004082875 -0.02468739 0.03841522
000070 85 10 8a bc 9d 63 ba bc 83 2b 7e bb d0 3b 59 3d
       -0.01685358 -0.022752577 -0.003878326 0.053035557
000080 45 31 0b 3c 59 ca 84 bc f3 0a 51 bc 30 73 3d bc
       0.0084956335 -0.016209768 -0.012758958 -0.011563107
000090 0e 93 08 bd c1 af 32 3d 9c 32 ea 3c 1a 82 c6 bb
       -0.033343367 0.043624643 0.028588586 -0.00605799
0000a0 7f 7a 39 3d 71 6a 96 bb b3 f2 59 bc a9 ff 34 bd
       0.045282837 -0.0045903255 -0.013302493 -0.04418913
0000b0 44 31 87 3d 5c 96 34 3d 62 73 b9 3b 3f ee a3 bc
       0.066011935 0.044088706 0.0056595067 -0.020011066
0000c0 34 7e 8f 3d 4a b7 10 bd ce 80 04 3c a6 f0 5c 3d
       0.07006493 -0.035331048 0.00808735 0.053940438
0000d0 22 a4 89 bc 8c e6 f1 bc f4 24 2f bc 3f 65 78 bd
       -0.016801897 -0.029528879 -0.010689963 -0.06064343
0000e0 33 8f b9 bc ca a7 72 3c 1d 49 d8 bb 5e bb 0c 3d
       -0.02265129 0.014810512 -0.0066005127 0.034358375
0000f0 e5 1f 7e bc 47 23 ff bb b3 3e 92 3d e9 c0 a2 bc
       -0.015510534 -0.007786188 0.07140865 -0.019867377
000100 ad 20 eb bb e5 3f a2 3d 11 df ed 3c be f1 a4 3d
       -0.007175526 0.07922343 0.02903703 0.08053921
000110 52 80 11 3d 89 56 a6 bc db fe 9b 3b 4d 0e 9e bc
       0.035522766 -0.020304935 0.0047606057 -0.019293929
000120 65 77 9f bc ec 13 58 bc 4e 32 20 3d b6 10 a9 3c
       -0.019466111 -0.0131883435 0.039110474 0.020637851
000130 6b 87 84 3b 7e 51 a2 bb 37 42 9a 3c 9d 0a e0 b8
       0.0040444634 -0.0049535623 0.018830402 -0.00010683129
000140 b2 b4 a3 3c 29 f4 b7 bc b2 42 9b 3c ae a5 91 3b
       0.019983623 -0.022455292 0.018952701 0.0044447994
000150 b4 d8 80 3c 1c 99 a9 3c ee a0 2d 3d 71 43 a8 3c
       0.015728332 0.020702891 0.042389803 0.020539971
000160 4b 15 dc 3c af 09 91 3c 87 17 2b 3d cb 96 bd 3c
       0.026865622 0.017704813 0.041770484 0.023143193
000170 a5 d7 f8 3c 8a 0e 99 3c dd c6 3b 3b d0 cb 31 bb
       0.030376265 0.01868369 0.0028652467 -0.0027129538
000180 8c c7 c0 bb 41 31 2f 3a 28 85 3e bc 52 47 45 3c
       -0.005883163 0.00066830596 -0.011628427 0.01204093
000190 96 30 a4 3c 51 7c 08 3d c3 44 1a 3d 0b ff 9b bb
       0.020042699 0.033321682 0.037663233 -0.004760628
0001a0 18 ab 25 3c 11 56 55 3d e7 5a 72 bc 94 71 29 bc
       0.010111593 0.052084032 -0.014792181 -0.010342021
0001b0 5a 95 fb bb e5 a4 3d 3d dd ac ad 3c cb d0 f1 3c
       -0.007677716 0.046299834 0.021200592 0.029518506
0001c0 8f 48 97 bc 21 0d 50 ba f9 24 f7 3b ed 99 8a 3c
       -0.018467216 -0.00079365267 0.0075422493 0.0169191
0001d0 b8 bd b1 bb c1 d1 de 3b ee 27 d9 3c aa a3 25 3d
       -0.0054242276 0.006799907 0.026508298 0.040439285
0001e0 17 f9 b9 bc b6 c2 01 3c a0 7c c9 3c 0b b3 9b 3c
       -0.022701783 0.007919958 0.024595559 0.019006273
0001f0 94 a9 5e bc 8b 41 79 3d a8 89 32 3c 60 87 ea ba
       -0.013590235 0.060853522 0.010897078 -0.0017893128
000200 8d d5 f7 3c 1a a0 0c 3d d9 54 82 3c e3 e1 61 3d
       0.030253196 0.034332372 0.0159096 0.055147063
000210 32 84 4b 3d c7 ee 6e 3c 2e e3 5f 3c 48 0f 28 bc
       0.04968662 0.014583296 0.013665004 -0.01025755
000220 b6 4b c4 3b 89 9f b2 3c cb 5b 76 bc 27 12 08 3d
       0.0059904708 0.021804588 -0.015036534 0.033220436
000230 5e 8f 08 3d e4 8d c9 3b 8b 31 1d bc 07 77 e7 bc
       0.03333985 0.006150948 -0.0095943315 -0.028254999
000240 72 c0 cc 3c 82 52 a7 3c f1 f6 ba 3c 0f 20 70 bc
       0.024994109 0.020425085 0.022822829 -0.014656081
000250 e6 48 cc 3c 17 79 96 3c a8 ec 94 3c 5c 86 58 3c
       0.024937104 0.018368287 0.018179253 0.0132156275
000260 ee 40 03 3e 2b c7 15 bb b1 5a fb 3c f7 0b bc bd
       0.12817737 -0.002285431 0.030682893 -0.091819696
000270 36 6d 00 3d 7d d8 53 bc c5 6a 20 3d c4 2e d3 3c
       0.03135415 -0.012930033 0.039164323 0.025779136
000280 75 f4 36 bd 7e b3 07 3d 17 2f 08 be 55 fa 1a 3b
       -0.044666726 0.03313016 -0.13299213 0.0023647745
000290 1d b7 cd 3d fe 90 93 bb aa 68 eb b8 6c 3d cd 3d
       0.10044692 -0.0045033684 -0.000112251684 0.10021481
0002a0 d2 0f 40 3a 48 87 fa bc 56 52 a9 3d 7b 83 84 3b
       0.0007326576 -0.030582085 0.082676575 0.004043994
0002b0 e6 33 1d bd 68 11 a6 3d d5 ab 35 bc f5 5a 27 bc
       -0.038379572 0.08108789 -0.011088331 -0.010214557
0002c0 51 cf a4 bb eb b4 19 bc b5 3b d2 3b 40 10 07 ba
       -0.005029597 -0.009381513 0.006415809 -0.0005152263
0002d0 1d 5b d2 3c 3c 05 23 bd 05 05 ba 3d 20 85 94 3d
       0.025678212 -0.039799914 0.09082989 0.07251954
0002e0 6c 98 08 bd 2f dd 03 3c 3f 80 64 bd 93 21 13 bb
       -0.033348486 0.00804834 -0.055786368 -0.0022450432
0002f0 f1 9d 42 bc b6 39 78 3d 46 44 81 3d 2b 00 8a bd
       -0.0118784765 0.060601912 0.0631185 -0.06738313
000300 07 4b b2 3b fd 24 76 bd 89 cf e3 3c 73 2b 6f bb
       0.005441073 -0.06009387 0.027808921 -0.0036494404
000310 d0 ea d6 bc d3 8f 71 bc 2d c3 35 3d cd 9a 79 bd
       -0.026235014 -0.014743763 0.044375587 -0.060938645
000320 d9 0a cb 3d 8f 78 d3 bb 60 fb fc bc af 7a 12 3d
       0.099141784 -0.0064535807 -0.030881584 0.03576153
000330 0f 44 b4 bc f1 6c 14 3d 9b a7 ae 3c 3d b7 19 bd
       -0.02200511 0.036236707 0.021320155 -0.037528265
000340 59 84 86 3c 68 64 fa 3c e7 d6 86 3c 5d f2 20 bd
       0.01642053 0.030565456 0.016459895 -0.039293636
000350 af 5b 19 3c 50 ce fb 3b 61 ff 74 3b d8 15 6a bb
       0.009360238 0.0076845065 0.0037383663 -0.0035718586
000360 11 f6 04 3d 4a 6e 0a bd 38 b4 ba 3c fd c6 2e 3d
       0.03246123 -0.033796586 0.022791013 0.04267024
000370 72 54 f8 3d c9 ba 08 3d 63 b7 98 3b 69 9c 53 3d
       0.12125482 0.033381257 0.0046605333 0.051662836
000380 52 69 03 bc e8 00 d2 3c cd 02 f2 3c 7e 0a 1e 3c
       -0.008020716 0.025635198 0.029542351 0.009646056
000390 45 8b e3 bc 5f af fc 3b e1 85 0c be 74 35 d3 bd
       -0.02777637 0.0077113356 -0.13722946 -0.1031293
0003a0 07 df fa bc c7 4a 58 bd e2 b0 01 3e 52 3c b6 bc
       -0.030623926 -0.05280569 0.12665132 -0.02224556
0003b0 29 76 8c 3b 20 d8 b1 3d cc 08 eb bd 40 f5 ca 3c
       0.0042865467 0.08683801 -0.11476287 0.024775147
0003c0 10 b3 00 bc e8 72 87 bd 5a 5d 94 bd 45 fc ff bb
       -0.007855192 -0.066137135 -0.07244368 -0.0078120553
0003d0 41 f0 08 3d ef d8 1b bd fd a5 5c 3d 46 be cd 3c
       0.03343225 -0.03804868 0.053869236 0.025115144
0003e0 82 a5 ca bd a8 f1 80 3d a7 0d 3c bb 84 89 d3 bd
       -0.09894849 0.06296092 -0.002869466 -0.103289634
0003f0 a8 a8 13 bd 10 8d a8 bd 2d 1e ce 3c d4 c1 02 bd
       -0.036049515 -0.082300305 0.025160873 -0.03192313

1.df.df.fc1.weight_block_2.bias1 f4 [2, 76]
000000 26 6f 22 3e bd d4 ef 3c 69 1b 56 3d 9f 2e a4 3d
       0.15862712 0.029276246 0.052272234 0.08016705
000010 bd 08 76 3d 6f 46 3b 3d 0e 6e 56 3d 12 40 62 bb
       0.060066927 0.045721468 0.05235105 -0.0034523052
000020 8a a7 f4 bb 7e a3 c1 3d 75 40 b0 3d 2f cf b9 bd
       -0.0074662613 0.09455012 0.08606044 -0.0907272
000030 b7 02 64 bb 1f 50 39 3d 63 77 38 3e 27 4a 6b 3d
       -0.0034791657 0.045242425 0.18014292 0.057443764
000040 36 07 a3 3d 74 46 c8 3b 52 3f dc 3d 5f c6 cd 3c
       0.0796036 0.0061119143 0.10754265 0.025119005
000050 be 3c 70 3d d6 43 5f 3d e7 66 ca 3c 3e 31 c6 3d
       0.05865168 0.054508053 0.02470727 0.09677361
000060 18 aa c7 3d 92 3d 89 3d 58 c8 ca 3b 90 66 76 3c
       0.0974924 0.06701197 0.0061884336 0.015039101
000070 db e0 6b bc af 28 57 3d c8 4e 8d bb 96 ea 2b 3e
       -0.014396871 0.052529033 -0.00431237 0.16788706
000080 06 7f 16 3d 4e 21 7e 3d 1d a9 f4 3c 9c 92 81 3d
       0.036742233 0.06204348 0.029865796 0.06326792
000090 98 eb 3a 3c 18 e7 57 3d 5e bd e4 3d f0 32 49 3d
       0.011408709 0.052710623 0.111689314 0.049120843
0000a0 42 5b cd 3c 0c 0b 63 3d f8 54 68 3c e8 07 cc 3d
       0.02506793 0.055430457 0.014180414 0.099624455
0000b0 6f b0 a2 bc 62 73 86 3d 84 ee 87 3d d7 ee a6 bb
       -0.01985952 0.06564976 0.0663729 -0.00509439
0000c0 69 b2 18 be 06 0a 13 3e 14 f0 83 bd c1 b8 c3 bc
       -0.14911808 0.14359292 -0.06442276 -0.023891808
0000d0 b6 a5 e4 bb fc 2d 09 3d 51 4b a5 3d 7b 59 b0 bb
       -0.006977762 0.03349112 0.08071006 -0.0053817607
0000e0 cc ab 16 3e 48 10 c6 bb 42 d9 4c bc 18 31 21 bd
       0.14713973 -0.0060444213 -0.01250297 -0.03935346
0000f0 95 46 13 3d 45 94 16 3d b5 f2 21 3e 53 27 e8 3d
       0.035955984 0.036762495 0.15815242 0.113356255
000100 b3 2f 14 bd 11 5d 4f 3c fe e5 01 3b d5 c1 ff bd
       -0.036178302 0.012656466 0.0019820924 -0.124881424
000110 8e d9 06 3e 24 7a 93 3d de 11 42 bd 62 a8 81 3d
       0.13168928 0.07201031 -0.04738032 0.063309446
000120 ce 07 98 3c 24 3d f1 3c 1b b5 db 3d ea 0d 8d bb
       0.018558409 0.0294481 0.107279025 -0.004304637
000130 83 9f d3 3c 34 b0 10 3d 2c 90 41 3d 89 c4 14 3d
       0.025832897 0.03532429 0.047256634 0.036320243
000140 82 67 f4 bc c2 9b 53 3c 6c 00 7d bd 1f 7a 95 3c
       -0.029834513 0.0129155535 -0.06176798 0.018246708
000150 f4 cd 90 bc 80 72 b3 bc 31 b9 0a 3c 6c b8 42 bd
       -0.017676331 -0.021905184 0.008467005 -0.04753916
000160 d6 e1 80 3c 26 44 a3 3c 10 c7 38 3d 40 4d 3a 3d
       0.015732687 0.019929957 0.045111716 0.045483828
000170 a5 88 66 3d bb de 69 3d c2 88 2b 3d 17 e2 40 bc
       0.056282658 0.057097178 0.04187847 -0.011772654
000180 80 55 94 bc 4f 13 7d 3d 2b 11 0f 3d 73 10 47 3d
       -0.018107176 0.061785992 0.034928482 0.04859967
000190 8e 4a 9f bc 19 ef 64 3c 20 1f 9a 3b 17 e9 e4 3b
       -0.01944473 0.013973021 0.0047034174 0.0069857943
0001a0 15 ca d4 bc 11 fc ff 3b 0b f4 10 3d 28 51 e5 3c
       -0.025975266 0.007812031 0.035388988 0.0279928
0001b0 34 eb 48 bc 0b 69 4b bd 59 fc 26 3d fa 19 c9 3a
       -0.012263108 -0.049660724 0.040768 0.0015342825
0001c0 6c 53 2c 3d 2a 39 c2 bb 0f 0a fd 3c 56 8d 01 3d
       0.042071745 -0.0059272246 0.030888585 0.03162893
0001d0 8d 50 1f 3c c9 bb 6b 3c fd 71 f4 3d 19 7b 18 bc
       0.009723795 0.014388033 0.11935804 -0.0093066925
0001e0 cb 1b 15 bd 29 f3 11 be 56 90 8c bd 48 ae 4c 3d
       -0.03640346 -0.14252914 -0.068634674 0.049970895
0001f0 68 9f e8 bc 2e 00 eb 3c cf 91 92 bd 8e a8 d1 3c
       -0.028396323 0.02868661 -0.07156717 0.025593068
000200 38 7d 31 3d 24 6e 65 bc a1 39 b8 3c 14 c0 45 bc
       0.04333231 -0.01400331 0.022488417 -0.012069721
000210 13 3c 2b bd c0 dd 01 bd 0a 00 91 bc d2 68 12 bd
       -0.041805338 -0.031705618 -0.017700214 -0.035744496
000220 29 86 33 bc 93 01 62 3d d5 bd 90 bd 38 a5 8f 3c
       -0.010957279 0.055177283 -0.070674576 0.017534837
000230 1e fc 4d bd dd 88 97 3c ba ac 69 bc 66 96 38 bd
       -0.050289266 0.018497879 -0.014262373 -0.045065306
000240 4f ae 27 bd 94 57 f6 3c cf 42 b2 bc 91 fd 7c bc
       -0.040937718 0.030071057 -0.021760372 -0.015441314
000250 cb 49 2b 3d 05 33 ea 3c b9 a5 a9 bc 58 f5 74 3c
       0.04181842 0.028588781 -0.020708906 0.014951073

1.df.df.fc1.concat_real_layer_1.weight f4 [76, 152]
000000 f2 23 12 3c b9 85 97 3c f7 89 93 3d ca 1a 87 3b
       0.008919703 0.018496381 0.07204049 0.0041230666
000010 c1 4e 18 bd d0 ff 39 3c 36 ad 99 bd da c5 23 3d
       -0.03718448 0.011352494 -0.075037405 0.039983608
000020 8a ac a1 3c 2f b7 64 ba 03 95 f6 3c 05 f3 d2 bc
       0.019735593 -0.0008724806 0.030100351 -0.025750646
000030 a0 ef 08 3e 90 75 6e 3d 57 8b c6 3b 93 a2 c7 3c
       0.1337266 0.058217585 0.006059091 0.024369514
000040 05 20 10 3d 26 30 eb bc 41 96 78 3d f5 b5 20 bd
       0.035186786 -0.028709482 0.06069017 -0.039236028
000050 59 2b 06 bb 0b e8 ac 3c 16 e8 55 3d 4b 3c b4 3c
       -0.0020472615 0.02110674 0.052223288 0.022001406
000060 5c 27 dd bd 25 a6 96 3d 80 1d 2b 3d 2e cf 21 3d
       -0.10798523 0.07355908 0.04177618 0.039504223
000070 6e 1e 9e 3c 39 e0 36 3d d8 cd 8d bd cc 06 3e 3d
       0.01930162 0.04464743 -0.06924027 0.0463932
000080 20 e2 9f bc f4 c4 87 bc bd a8 a4 3d ec 5d 4f bd
       -0.019517004 -0.016573407 0.08039997 -0.05062668
000090 a1 d2 d8 bd af 33 3f bc d9 aa 92 3d bb d2 8e 3d
       -0.10587049 -0.011670037 0.07161493 0.069737874
0000a0 7f 2d 0d bd 73 ef 27 3d 8d 0a 43 3b 5d a1 3d 3d
       -0.034467217 0.04099984 0.0029760927 0.046296466
0000b0 d6 5e 82 bd 58 e7 04 bd 14 65 c3 bc da a5 b5 3d
       -0.06365745 -0.03244719 -0.023851909 0.08869524
0000c0 b1 61 86 bd b7 d9 84 3d 71 2a 7d bd db 3b db bd
       -0.06561602 0.06486838 -0.061808053 -0.10704776
0000d0 75 7f 28 3d da 69 46 3c 4a 67 39 3c 19 84 bc bd
       0.041137177 0.012110198 0.01131613 -0.09204883
0000e0 f3 a8 2e 3c f3 ac bf bd 41 b3 c7 3d 9b 54 37 3c
       0.010660398 -0.09359159 0.09750987 0.011189605
0000f0 cf 39 74 3c 98 f7 f3 bd c1 be 3a bc cf 6a b0 bb
       0.014906361 -0.11912459 -0.011398018 -0.0053838263
000100 13 7a 0c bd 73 fd 03 bd a1 cb e3 3d fd dd e8 3c
       -0.034296107 -0.03222413 0.111228235 0.028426165
000110 d7 c7 1e bb 43 f8 4f 3d 60 e9 a0 ba 47 6c 8b bb
       -0.0024228 0.05077387 -0.0012276582 -0.004254851
000120 8d 45 99 3c 03 8c d9 ba f2 ce 1b bd 4d 2c 30 bd
       0.018709922 -0.0016597513 -0.038039155 -0.043011
000130 5a 6b b1 3d aa b5 8c 3d d6 46 d2 3d 4c 06 11 bd
       0.08663054 0.06870587 0.10267417 -0.035406396
000140 70 64 f1 3d 1a 9d 47 bc 0d 62 9d bb d6 34 aa 3a
       0.11786735 -0.012183452 -0.0048029483 0.0012985717
000150 33 e1 9b 3d 28 9a 32 3c 5b 05 b3 bd 06 32 80 3c
       0.07611313 0.0109010115 -0.08741256 0.015648853
000160 59 9a 9b bc 4b 83 67 bc b4 c1 aa bd 2e cd e9 3d
       -0.018994497 -0.014130424 -0.08337727 0.11416088
000170 6e 91 50 bd ba 31 3a bc e4 ac 9a 3d f8 4b 7a 3c
       -0.050919943 -0.011364395 0.075525075 0.015276901
000180 f9 30 4c 3d 9b a8 ad 3c 04 ca 51 bc 81 2e 74 3d
       0.04985139 0.021198561 -0.012804512 0.059614662
000190 50 78 0c bc bd 93 8f 3b b4 60 75 bd 67 88 de 3d
       -0.008573607 0.0043816254 -0.059906676 0.108658604
0001a0 89 28 95 3d 1b 33 0f 3c 59 0e 75 3d 6b 24 05 3e
       0.07283122 0.008740212 0.059828136 0.13002174
0001b0 79 4c 7a 3c 85 aa 99 bd 29 0b f4 bd c4 bb b0 bd
       0.015277022 -0.07503227 -0.11916191 -0.086295635
0001c0 d2 be e5 3c 73 72 8c 3d e8 b7 98 3c 84 6b b0 bd
       0.028045092 0.06857767 0.01864238 -0.08614257
0001d0 c7 f1 53 3d 10 1b 45 bc 8c db 91 bc d9 dd 0c bc
       0.05174425 -0.012030378 -0.017804883 -0.0085978145
0001e0 67 cf 1b 3e 0d 10 3a bd 83 d9 86 3d 70 2c 6f bd
       0.15215836 -0.045425463 0.06584456 -0.05839199
0001f0 3d 6b ee 3b 70 56 09 be 0f fe 04 3c 2a 1b 6c bc
       0.0072759674 -0.1341188 0.008117213 -0.014410773
000200 fe 14 e9 bd 31 92 8b bd 10 fd 76 bc ff 26 55 3c
       -0.11380957 -0.06814993 -0.015074983 0.013009786
000210 ff c7 81 bd aa 84 3b bd 3b 24 99 3d c4 0b bb bc
       -0.06336974 -0.045780815 0.074776135 -0.022832759
000220 d7 ec 02 bd 8b 8d b2 3c bf bd f1 3d 91 87 e2 bd
       -0.03196415 0.021796009 0.11803769 -0.110610135
000230 42 75 e1 3c 56 1e 12 3d 59 54 b3 3d bc c8 06 3e
       0.027521733 0.03567346 0.087563224 0.13162512
000240 21 35 e6 3c 61 99 98 bd 43 6f 74 3d 76 75 2d bd
       0.028101506 -0.0745113 0.05967642 -0.042348348
000250 c4 fc 24 3d ee a9 c0 bb f5 46 2c 3e 55 30 00 bd
       0.04028012 -0.005879632 0.16823943 -0.031296093
000260 37 2c b4 3c 4b 86 ad 3d f5 92 04 3b 51 fa 58 bd
       0.02199374 0.0847288 0.0020229195 -0.052973095
000270 e9 3e 96 3d 48 b5 95 bd 9e 69 e4 bd 31 bc d6 bc
       0.07336218 -0.07309967 -0.111529574 -0.026212784
000280 93 71 4c bd b6 74 46 bd ce ae 7a 3d 6e 35 47 bd
       -0.049913 -0.048451148 0.061201863 -0.04863494
000290 e4 ea 01 be 63 93 bc bd aa f5 d1 3d 13 38 55 bd
       -0.1268726 -0.09207799 0.10251935 -0.05205543
0002a0 6b 9f 8a ba 94 21 8f 3d 1f d8 7d bd ac 2d c5 3d
       -0.0010576075 0.069888264 -0.061973687 0.09627852
0002b0 08 78 92 bd 05 09 89 3c 42 4f d3 3d a0 33 f0 bc
       -0.071518004 0.016727934 0.103178516 -0.029321492
0002c0 87 44 3c bd 7a c6 87 bd f3 56 66 bd 66 82 8e 3c
       -0.04596379 -0.06629653 -0.056235265 0.017396163
0002d0 f5 f0 81 3c 35 02 7b bc 6b 60 fc 3b f4 c8 a7 bd
       0.015861968 -0.01532035 0.0077019236 -0.08192626
0002e0 45 85 2c 3d 22 66 f3 bd 9d bc 5b 3d 3b 32 28 3d
       0.042119283 -0.11884715 0.053646673 0.04106353
0002f0 ee 1c e6 3c 54 27 08 be 73 79 c1 3d 58 47 d2 bd
       0.028089967 -0.13296252 0.09446993 -0.10267514
000300 96 ba 06 bd d3 4d dc b9 b4 63 bf bd 8d e3 9d 3d
       -0.032892786 -0.00042019653 -0.09345189 0.077094175
000310 23 4e a1 bd a5 57 38 bd c6 83 bd bd 00 2f 4f bd
       -0.078762315 -0.04500546 -0.092536494 -0.050581932
000320 5d f0 38 3d b0 c2 9b 3d 3f 73 b5 3d 7b 54 59 3d
       0.045151103 0.07605493 0.08859872 0.053059082
000330 b1 38 c0 3d f4 8c ad bc d8 6c 3b bc be d8 fe 3c
       0.09385813 -0.021185376 -0.011439525 0.03110921
000340 b6 21 aa bd de b9 02 3d be 81 df bd 15 13 7c 3d
       -0.08307211 0.031915538 -0.10913418 0.061541636
000350 fc 10 a1 3d 21 dc 37 3e 4b 6b e5 bd f0 10 5d bd
       0.07864568 0.17955066 -0.11202105 -0.05397123
000360 bb 1d 3b 3c 13 b9 9e bd 3b a1 5e bb 36 52 af bd
       0.0114206625 -0.07750144 -0.0033970613 -0.08560602
000370 49 ec 33 be b2 af 7b bc e6 52 43 bd 3e 69 cb 3c
       -0.17570604 -0.015361713 -0.04768648 0.024830457
000380 2f c7 a9 3d 42 ec b8 bd 96 da d5 3a a1 2c b3 bd
       0.082899444 -0.090294376 0.0016315754 -0.08748747
000390 bc 54 86 bd c6 9f 0a be 9a 2a ec bd 67 f2 46 be
       -0.065591305 -0.13537511 -0.11531563 -0.19428407
0003a0 4b 98 ed bd e7 25 45 3c fb 9a 2d 3d 4b 78 ed bd
       -0.11601313 0.012032962 0.04238413 -0.1159521
0003b0 cc c6 e8 bc d7 aa 96 3d 73 fa a0 bc b0 bd ab bd
       -0.028415106 0.07356804 -0.019650673 -0.083857894
0003c0 5b 86 08 3d df 63 26 be ce 1a 0a 3e 69 8c 0d bc
       0.033331256 -0.16249035 0.13486788 -0.008639433
0003d0 5b c1 a3 bc 9c ba 88 3d 1f 96 49 bd ed 8a ad bc
       -0.01998966 0.06676218 -0.049215432 -0.021184409
0003e0 4b 37 07 be 15 45 ac 3d 96 67 9f bd 16 90 5a bd
       -0.13204686 0.08411614 -0.07783429 -0.053360067
0003f0 2e 19 07 be d0 62 3c bd 32 77 74 3c 6a 9c 25 be
       -0.13193199 -0.045992672 0.0149209965 -0.16172948

1.df.df.fc1.concat_real_layer_1.bias f4 [76]
000000 ac d6 63 bd e0 f7 5e bd a4 cb b8 3b 54 33 0e bd
       -0.05562465 -0.05443561 0.00563951 -0.03471692
000010 c0 d2 12 3b 8b 0d 64 bd 01 8a f0 3c 81 3b 2d bd
       0.0022403449 -0.055676978 0.02936268 -0.042293075
000020 e2 70 5a 3d dc fd 4f bd 16 ef e5 3b e6 51 8e bd
       0.05333031 -0.05077921 0.0070170267 -0.06949215
000030 19 34 16 3c 08 fa 9a bd 1b 54 2c bc ba 37 81 bd
       0.0091676945 -0.07567221 -0.010518099 -0.06309457
000040 a0 99 2c bd 41 2c 37 bd 5f 6a 81 bd 1e 51 d6 bd
       -0.042138696 -0.04471994 -0.06319117 -0.104646906
000050 52 01 4b 3d 14 4a 08 be eb dc 2d bb 54 f6 a8 3a
       0.049561806 -0.13309509 -0.0026529382 0.0012890794
000060 71 e2 57 bd 3a 71 94 3d 4c ee 40 3d c9 f5 8c 3d
       -0.052706186 0.07248159 0.047102258 0.06882817
000070 9f 7e 38 bd 2e ad 11 3c ba 09 e4 bd d5 19 b0 3c
       -0.04504263 0.008891387 -0.11134668 0.021496693
000080 dc 22 3a be 4d a0 55 3d b3 d2 50 3c c6 30 b6 bd
       -0.1817736 0.052154828 0.012745547 -0.088960215
000090 6e f6 7b bd 2f c7 55 3c 00 51 f7 bd 08 79 88 bb
       -0.06151431 0.013047977 -0.120759964 -0.0041648187
0000a0 07 5a 0b bd 24 81 9e 3d 9c 49 e2 3b d7 7b 77 bd
       -0.034021404 0.07739475 0.0069057476 -0.060420837
0000b0 dc cd a7 bd 39 3c 85 bd ef dc f1 bd ab 64 c5 bd
       -0.081935614 -0.06505627 -0.11809718 -0.096383415
0000c0 ad a4 f1 bd 3f 47 5f 3c e5 f9 66 3d db 63 7e 3c
       -0.117989875 0.013627826 0.05639066 0.015526737
0000d0 d3 64 9e bd e8 6e 24 3d 20 a1 67 3d 2e 4b e4 3c
       -0.077340744 0.04014483 0.056550145 0.02786788
0000e0 d9 1e c3 3c f1 1f 7a 39 f8 ca 7c bd 33 d9 c7 3c
       0.02381842 0.00023853757 -0.061717004 0.02439556
0000f0 57 3d a3 bd a0 87 69 bd dc f2 80 bc 42 38 3f be
       -0.07970684 -0.057014108 -0.015740804 -0.18673804
000100 69 43 94 bd 5d b4 a5 3d 90 70 8b 3d eb 7c 91 bc
       -0.0723942 0.08091042 0.06808579 -0.01775976
000110 ce 11 6b 3d 2a 72 86 bd aa 6f 43 bc bd 31 0a 3d
       0.057390027 -0.06564744 -0.011928478 0.03373884
000120 e7 80 e9 bd 99 b7 41 bc 75 2d fe bd 1b 30 66 be
       -0.11401539 -0.011823558 -0.12411014 -0.22479288

1.df.df.fc1.concat_imag_layer_1.weight f4 [76, 152]
000000 3d e5 e1 3d 9d cd c7 bd 14 18 95 3d f7 4f c4 bd
       0.11030052 -0.097560145 0.07279983 -0.095855646
000010 7b 1a 68 bd ac ee 0b 3c f6 c1 22 bd 40 68 cf bd
       -0.05666588 0.0085407905 -0.039735757 -0.10127306
000020 49 86 93 3d b4 63 96 3c bb b1 bb bc 44 dc fc bc
       0.07203347 0.018358089 -0.022911897 -0.03086675
000030 2b d5 0e bc 85 77 f6 3b d2 5b 11 be d4 da f2 bd
       -0.008717815 0.007521572 -0.14195183 -0.118581444
000040 07 68 26 3d 93 49 3c ba 6a 50 04 bc 08 64 be bd
       0.040626552 -0.0007182594 -0.008075813 -0.09296423
000050 5d b1 aa 3d f7 07 7c bd 57 84 b0 bd 36 a8 09 3e
       0.083346106 -0.061531033 -0.08618992 0.13443074
000060 34 4f 9c bd 18 65 e8 bd b6 20 ec 3d 01 2b 18 bd
       -0.07632294 -0.11347407 0.115296766 -0.037150387
000070 82 28 69 3d e5 1e ba 3b 0a 6c ad 3c de a4 79 3c
       0.056923397 0.0056799524 0.021169681 0.015237061
000080 a9 4c a3 bd 82 71 c5 3d de 61 b9 3c da 58 a5 bd
       -0.07973606 0.096407905 0.022629675 -0.08073588
000090 a7 7b 95 bc c9 50 e4 3d 93 e3 3c be c4 b7 94 bd
       -0.018247439 0.11148221 -0.18446188 -0.07261613
0000a0 7d 50 9a bc 87 9f 49 bd c7 a7 de bc 79 57 93 3d
       -0.018837208 -0.049224403 -0.027179612 0.071944185
0000b0 52 54 97 bd ab c0 3b bd 2d 0b c7 3c 95 37 9e bd
       -0.0738913 -0.04583804 0.024297321 -0.07725445
0000c0 0b 1b 5d 3d 85 3e 0f 3c d9 4f c0 bc 18 c0 ab bd
       0.05398087 0.008742933 -0.023475574 -0.08386248
0000d0 c6 1a 91 bd 8f 0b 00 be b9 73 11 be 1b 8f 1a be
       -0.07085185 -0.12504409 -0.14204301 -0.15093653
0000e0 af db 57 bd c1 e7 c0 bd f1 20 87 bd f6 db 12 3e
       -0.05269974 -0.094192035 -0.0659808 0.14341721
0000f0 0b d8 7f 3d fc 84 71 bd f9 b3 b7 3d e4 f8 ad bd
       0.062461894 -0.058964714 0.08969874 -0.08494738
000100 23 02 34 bd bd 56 f6 bd 5d 8a fb bc d6 c2 44 bd
       -0.04394735 -0.12028263 -0.030705625 -0.048037373
000110 cb 5f 94 bd aa 66 b3 bd 9e 1b de bd 23 34 15 bc
       -0.072448336 -0.08759816 -0.10845111 -0.009106669
000120 f8 3b a1 bd e2 57 71 3d 81 04 c7 3d bb 02 4a 3d
       -0.07872766 0.058921702 0.09717656 0.04931901
000130 f8 48 27 bc d3 80 db 3d da c0 08 3e c7 2a 54 3c
       -0.010210268 0.10717931 0.13354817 0.012949652
000140 b3 b3 23 3c d4 d5 ea ba 38 a4 ed bc ed ce 01 3c
       0.009991574 -0.0017916509 -0.02900897 0.00792287
000150 06 ee 17 bd 70 d5 9a bc ba 6b 64 3c 88 12 21 3b
       -0.03709223 -0.018900603 0.0139417 0.0024577696
000160 9b 9a e0 3d eb a2 53 3a bc cd 04 bb d2 1b b1 3c
       0.10966989 0.0008073288 -0.0020264229 0.021619711
000170 fc b1 10 be 90 c6 e4 bc 11 9e cb 3d be 03 34 bd
       -0.14130396 -0.027926713 0.09942258 -0.04394888
000180 58 77 3f 3d e1 31 df bd a6 cd 59 3d 33 a5 c0 3d
       0.046744674 -0.108981855 0.053174637 0.09406509
000190 1d 39 84 3d f7 1e a3 3d d1 8e 99 3c 43 86 db 3d
       0.06456206 0.079648905 0.018744858 0.10718968
0001a0 36 1d 12 bd 18 18 be 3c 13 bb 61 bc 70 9a 09 3d
       -0.03567239 0.023204848 -0.013777512 0.03359455
0001b0 78 8a 5d 3d 9a 89 9e bd 49 b7 83 bd bf 9a d9 3c
       0.054087132 -0.07741089 -0.06431443 0.026563047
0001c0 b3 78 19 bc b5 8b 8c 3c 7b 87 dc 3d 0f 4f f4 bd
       -0.009367156 0.017156461 0.10768028 -0.11929142
0001d0 13 17 47 3d 46 ea cc bc b1 12 a1 bd 9a 8b 62 3c
       0.04860599 -0.025014054 -0.07864893 0.013827229
0001e0 65 ef 0b 3e 1b 07 a7 bc 9f 40 0a be f9 ef 00 3d
       0.1366554 -0.02038913 -0.13501213 0.031478856
0001f0 7d 4d 9c bd f9 28 01 be 08 ca 8f 3d 1d 1a d3 3d
       -0.07631967 -0.12613286 0.07020956 0.10307715
000200 9c 0f 6c bc f1 c4 d3 bd 7c 8a d9 bc ad 54 de bd
       -0.014408018 -0.10340298 -0.026555292 -0.108559944
000210 4e 3f ef bd 95 87 fa bb c6 91 b2 bc d4 5d e3 3d
       -0.11681996 -0.007645557 -0.021798026 0.11101881
000220 4e 73 79 bc de 9e 07 be 0d 9c b8 bc 81 ee 82 bd
       -0.015225245 -0.13244197 -0.022535348 -0.06393147
000230 20 69 b1 3a 28 5c ed 3d 55 a1 b5 bd f2 57 3f 3d
       0.0013535358 0.11589843 -0.08868662 0.04671473
000240 de ba b9 bc fe 0c fe 3b 60 fe 23 ba af 0e 54 3d
       -0.022672113 0.0077530136 -0.00062558614 0.051771816
000250 3e c5 98 bd 5b c1 93 bd 9b 98 9f 3b 74 55 5d bd
       -0.07459496 -0.07214614 0.004870487 -0.054036573
000260 ef d2 a1 bd c0 66 8f bd 25 a9 ee bc 28 66 75 3c
       -0.079015605 -0.0700202 -0.029133389 0.014977969
000270 2a cb 97 3d dc b0 44 bd 61 b2 eb bd 4f cc 2b 3d
       0.07411797 -0.04802023 -0.115086325 0.04194289
000280 6f eb 24 3e f2 e4 c1 bd f6 9a 05 3e de d8 9a bd
       0.16105436 -0.09467496 0.13047394 -0.075608954
000290 e5 9f cc bd db aa be bc ea 0e 69 3e b7 e6 28 bd
       -0.09991435 -0.02327483 0.22759596 -0.04123565
0002a0 f7 ec f9 3c e0 08 e8 3c 5b 9a e8 bd 50 6b 6c bd
       0.030508501 0.028324544 -0.11357566 -0.05771953
0002b0 81 b5 92 3b 75 f4 a8 3b 97 7c 7f 3c b3 72 ea bd
       0.0044772034 0.0051560947 0.015593669 -0.114476584
0002c0 3a e6 6f bd 38 9d e3 3d a4 c1 e8 3c 70 8a 2f 3e
       -0.05856917 0.111139715 0.028412648 0.17142653
0002d0 7c 44 08 bd 0f 3f 41 bd 71 dc eb bc 0c 9d 54 3d
       -0.033268437 -0.047179278 -0.028791638 0.051907584
0002e0 fc 65 8d 3d 7c 16 da bd cf eb 19 3e 3b 56 e9 3b
       0.069042176 -0.1064882 0.1503136 0.007120875
0002f0 f3 d6 a7 3d dd 3d d9 bd 5e ec ea 3d ac f2 23 3c
       0.08195295 -0.106075026 0.11470865 0.010006588
000300 68 7f 2d bc 8e a8 89 3c 4c ba 29 be 37 0b f5 bc
       -0.010589458 0.016804006 -0.16574973 -0.029912574
000310 cd 8b 68 bd c3 23 a9 bb 19 3c cf bd 3b 76 a7 3c
       -0.05677395 -0.005161734 -0.101188846 0.020442119
000320 35 cc 87 bc fa 65 cb bc 74 ae 72 bd ba bd c8 3d
       -0.016576866 -0.0248289 -0.059248403 0.098018125
000330 cc 34 0d 3d c3 e5 42 3e 64 6d c9 3a 18 0d 8c bb
       0.03447418 0.1903296 0.0015367684 -0.004274022
000340 89 f6 63 bd b9 85 e9 bd a3 9f ae bd 0e b3 36 bd
       -0.055655036 -0.11402459 -0.08526542 -0.044604354
000350 f0 7d 22 bc 4b bf 8e 3c a2 04 c6 3c 3c 7f d9 bc
       -0.009917721 0.0174252 0.024172131 -0.026549928
000360 51 0a a2 bc f5 59 8c 3d 8d 63 fa 3b 30 77 46 3b
       -0.01978031 0.068530954 0.007641262 0.0030283444
000370 36 09 f2 bb 2b 6d 15 3c a4 1f ec 3d 80 f0 d2 bc
       -0.007386352 0.009120266 0.115294725 -0.025749445
000380 ef 7c 66 3c 9a 6b 37 bd 9a ba 1f bd 28 28 74 bd
       0.014067872 -0.04478035 -0.038996316 -0.05960861
000390 ae 6c c2 3c 9b 5c 91 bd 99 85 22 bd 94 16 26 bc
       0.023733463 -0.07097741 -0.03967819 -0.010137219
0003a0 01 7f e0 3c 18 5f 23 3d 68 39 ac bd 96 43 d4 bd
       0.02740431 0.03988561 -0.08409387 -0.103644535
0003b0 b4 40 86 bd 1a b5 bf 3d cd 6a c3 bd af b9 1f 3e
       -0.0655531 0.09360714 -0.09541855 0.15598176
0003c0 f7 e4 b7 bd d6 72 26 bd 8d 74 e6 bc 93 81 3c 3d
       -0.089792185 -0.04063686 -0.028131748 0.04602201
0003d0 12 2e 10 3c 6f 3f 4f 3d 3c 8a 43 bd 10 63 8f 3d
       0.0088000465 0.050597604 -0.047739252 0.070013165
0003e0 b2 64 03 bd cd 72 47 3e c7 ce 3d bd 42 aa 3a bd
       -0.032078452 0.19477387 -0.046339776 -0.045572527
0003f0 4f 0f 6c bd 3b 9d 35 bb b1 a5 75 3c be 4e 21 be
       -0.057631787 -0.0027712125 0.014993117 -0.15752694

1.df.df.fc1.concat_imag_layer_1.bias f4 [76]
000000 43 8d 4d 3d 0c 87 4a 3d 4d 6a 6e 3d 10 a3 5b bd
       0.050183546 0.049445197 0.058206845 -0.053622305
000010 86 8f 3d bd fa 86 59 3c 9a 50 8c 3d f7 b1 a1 bc
       -0.046279453 0.01327681 0.06851311 -0.01973818
000020 94 69 ac 3c ac fc f0 3c aa 6b 75 bd 5c 65 49 bc
       0.021046437 0.029417358 -0.05991713 -0.012292232
000030 8b 8e bb bd d9 9d 23 3d 78 0c ce bd 78 32 c0 bd
       -0.09158047 0.039945457 -0.10060972 -0.09384626
000040 fa bd 5b 3c 8c 1f df 39 c7 ee 97 3d 1f 3b 29 bd
       0.013411993 0.0004255738 0.0741859 -0.041316148
000050 0b a5 19 bc a7 22 89 bd eb 72 eb 3c 8c b2 0c 3d
       -0.009377728 -0.066960625 0.02874132 0.034349963
000060 c5 05 ac bd b2 9a bd 3c 44 19 f1 3c 87 e1 66 bd
       -0.08399538 0.023145054 0.029430993 -0.056367423
000070 ef 85 f1 3d 66 58 45 3d 4b da fa bc 51 bc 43 3d
       0.11793124 0.048180006 -0.030621668 0.047787014
000080 10 bf 54 bd 27 6b 27 bd 4f a2 86 3d ba 6a 90 3d
       -0.051940024 -0.040873673 0.06573927 0.070516065
000090 00 a0 a9 3d d1 7c d3 bc ce 46 d2 3d d8 bd c5 bd
       0.08282471 -0.025816353 0.10267411 -0.096553504
0000a0 dc 45 29 3d b6 32 e0 3c f0 a8 0a 38 d6 4d a4 3d
       0.04132639 0.02736793 3.30591e-05 0.080226585
0000b0 a9 a4 a9 3c 9c 0e e2 bb 58 aa 34 bd f8 67 c0 3c
       0.020708399 -0.006898714 -0.044107765 0.023487076
0000c0 33 8e 32 3d bf 93 e8 bc 20 42 85 bd 0c 66 85 3d
       0.043592643 -0.028390763 -0.06506753 0.065136045
0000d0 12 19 5b 3d f5 32 6d bd a2 43 00 3e 36 da 8f bb
       0.053490706 -0.057909925 0.125258 -0.0043900264
0000e0 f3 52 2a bb ec bc d7 bd 69 38 fe bc fe 4b 91 3d
       -0.0025989383 -0.10534081 -0.031032758 0.070945725
0000f0 87 b3 af bc 5f 9a d8 3c 86 30 95 3d 52 0c 09 bb
       -0.02144791 0.026440797 0.07284646 -0.0020911884
000100 92 85 db 3b e9 1c cf 3c 2f 59 50 3d f3 81 4d bd
       0.0066992724 0.02528234 0.050866302 -0.050172757
000110 c3 4d b2 3d 05 65 a2 bb 7e 9d d1 3d 31 fd 40 3d
       0.08706238 -0.00495589 0.102351174 0.047116462
000120 43 28 6c 3d 53 9e ef 3b a4 2b 48 3d df 9e 39 3b
       0.057655584 0.007312575 0.048869744 0.0028323454

1.df.df.fc2.weight_block_1.weights1 f4 [2, 76, 76]
000000 46 e8 e0 bc ac 22 90 bc ef 0a 7e 3c 32 51 88 3c
       -0.027454507 -0.017594658 0.015505536 0.01664028
000010 d6 70 6e 3d fc 85 dd bc 68 ff 01 3d 5b 8e 0b bc
       0.058213077 -0.027041428 0.031737715 -0.008517827
000020 5b 48 2a 3c b7 cb 94 3b e0 db 8e 3c c5 fc 5f 3c
       0.010393227 0.0045408863 0.017438829 0.013671105
000030 02 62 d2 bb 67 ab 63 3d 57 e9 23 3d 8a 0c 2a 3d
       -0.006420375 0.055583384 0.040017452 0.041515864
000040 ba d8 d5 3b 1a ec ba 3d d2 c2 7c 3d 35 b5 1b bd
       0.00652608 0.09127064 0.061709233 -0.03801461
000050 3c 23 c6 bc cb 24 51 bd 9c cb 19 3d 07 39 fa 3c
       -0.024186723 -0.05106048 0.037547693 0.03054477
000060 7c bf c3 3c 6a f6 a6 bc d8 e8 44 bd b4 9c 70 3d
       0.023895018 -0.020381171 -0.04807362 0.058743194
000070 2a 9a 5d bc 3c 29 63 bd c7 5f 18 3c 85 58 53 bc
       -0.013525525 -0.055459246 0.009300179 -0.012899523
000080 28 7a 8a bd 40 ff 3f 3d 2f 23 8c bc 81 18 1d 3b
       -0.06761581 0.046874285 -0.01710662 0.0023970904
000090 a9 20 e8 bc 2f 60 1e 3c 94 e7 49 3d 80 10 5c bd
       -0.028335886 0.009666487 0.049293116 -0.053726673
0000a0 8b 18 04 3c dc 3d ef 3c 8f a8 21 3a ce a4 01 bd
       0.008062492 0.029204302 0.000616678 -0.03165131
0000b0 eb 52 44 3d 1c ef 8d 3c 63 af 64 3d 89 ba 0d bc
       0.04793064 0.01732593 0.055831324 -0.0086504305
0000c0 97 61 8e bc 74 04 51 3b 67 cf 24 3c 56 8d 9b 3c
       -0.017380519 0.0031893523 0.010059214 0.018988293
0000d0 87 b4 5b 3d cb 87 ef 3c ef 4e b4 bc e0 e5 8f 3d
       0.05363896 0.029239556 -0.022010295 0.07026267
0000e0 2e 7f c6 bc 8a bf b1 bc 5d 9a 55 3d 56 fb 80 bd
       -0.024230566 -0.021697778 0.052149165 -0.062979385
0000f0 c7 4d b0 3b 1a 1f 6f 3d 09 0f 24 bc ff a4 15 bd
       0.0053803655 0.05837927 -0.01001335 -0.036534306
000100 aa f8 3d 3d 2e 66 ea 3b ce f0 a1 3c 25 49 e8 3c
       0.046379723 0.007153294 0.019768145 0.02835519
000110 36 3e b0 bc 1f e3 bf 3c a5 d8 97 3d 55 9c de 3c
       -0.02151404 0.02342373 0.074143685 0.027174154
000120 97 c5 30 3c 7d 45 34 3d e9 91 45 3c 5f 0d 6e bc
       0.010789297 0.04401158 0.0120587135 -0.014529555
000130 99 3e 82 3d 61 ea ae 3c 89 1e 72 bd b8 46 9c 3d
       0.06359596 0.021351995 -0.05911115 0.07630676
000140 11 bd a2 3c d7 5b af bc 36 ae 78 3c b4 67 2f ba
       0.019865545 -0.021406097 0.015178254 -0.0006691173
000150 fe 6c 54 3c e1 76 c1 3d 78 86 dc bb 81 d2 32 3c
       0.012965439 0.094465025 -0.006729897 0.010914446
000160 1f 58 9b bd 02 ce 73 bd 3a 96 7c bc c6 d9 ed 3d
       -0.07585167 -0.059522636 -0.015416676 0.116138026
000170 17 10 57 3c e1 03 e7 3d 76 03 02 3d e7 31 04 bd
       0.013126395 0.11280037 0.03174158 -0.032274153
000180 cb e7 92 bd a0 e1 6a bd 35 2e c8 3c 9d d8 e0 3d
       -0.07173117 -0.05734408 0.024436096 0.10978816
000190 39 e4 6c bd 38 ce 8a 3d 35 e6 29 bc 5d e9 8a bd
       -0.057834838 0.06777614 -0.010369827 -0.06782792
0001a0 e7 6f 88 3c 5e 8d 1a 3d 4a 39 0f 3d 0b 33 9b 3c
       0.016654922 0.037732475 0.034966744 0.018945238
0001b0 e8 93 9c 3c 2f 01 3b bd a0 03 1f bd cf 45 5f 3d
       0.019113496 -0.045655426 -0.038821816 0.054509934
0001c0 be d1 22 bc 48 6b ff 3b 07 99 f0 3b 9b 79 17 bd
       -0.009937702 0.0077947713 0.007342461 -0.036981206
0001d0 35 c0 e3 3c bd b4 c1 3c 16 d4 53 bd 53 ff e0 bc
       0.027801612 0.023645753 -0.051715933 -0.027465498
0001e0 ec aa 46 3d bc e2 0c bc e3 4b 3c bd 6f 1d 8a bd
       0.048502848 -0.00859898 -0.04597081 -0.06743895
0001f0 34 93 f9 3b 23 07 5f bd 76 94 6d bd f3 eb e2 3c
       0.007616425 -0.054450165 -0.05800291 0.0277004
000200 4e c4 de 3d f9 bc 34 3d 29 84 40 bb cf d2 19 bd
       0.10877286 0.04412553 -0.0029375649 -0.03755456
000210 33 6e 88 3c 08 d8 83 bc c4 06 cf bc f2 6f ab bd
       0.01665411 -0.016094223 -0.02527178 -0.08370961
000220 4a 2f a6 bb 73 c1 59 3d 87 57 38 bc 5b 79 9c bd
       -0.0050715553 0.053163003 -0.011251337 -0.07640334
000230 c7 d0 26 3b f9 1d 84 bd 03 93 ab 3c 20 57 a2 3c
       0.002545403 -0.06451029 0.020944124 0.019816935
000240 71 c1 57 bb c3 9e 43 bc a8 f9 c5 3d 53 28 64 bd
       -0.0032921697 -0.011939707 0.09666759 -0.05570252
000250 40 31 1b 39 89 7b dd bc d0 e3 7f ba 25 91 25 3d
       0.00014800299 -0.027036445 -0.0009761425 0.040421624
000260 95 c4 d6 3c a5 4d ac 3d 89 04 f6 3c 8f 80 cb 3c
       0.026216784 0.08413247 0.03003146 0.024841575
000270 94 58 5c 3c f2 e9 14 bd eb e5 0c 3d 62 31 63 3d
       0.013448853 -0.03635592 0.034398954 0.055467017
000280 b1 32 dd 3c f5 e4 1e 3d 65 e1 2c bd de 27 c6 bb
       0.02700171 0.03879257 -0.04220714 -0.006047233
000290 64 2e 8e 3c b4 60 5d bd a8 af 53 bc 15 a2 04 3d
       0.017356105 -0.0540473 -0.012920298 0.032381136
0002a0 70 f4 07 3d 72 12 95 bc d4 80 00 3d 11 7d 34 3d
       0.0331921 -0.018197272 0.03137286 0.044064585
0002b0 32 cb 0b bd f0 af ed bd 13 68 3e 3d 9a 12 2b 3d
       -0.03412933 -0.11605823 0.04648597 0.041765787
0002c0 7d c1 04 3b 7a 41 cf ba 36 60 21 bd e7 99 0d 3b
       0.002025693 -0.001581236 -0.039398395 0.0021606626
0002d0 16 e2 27 bd 87 a2 3a bd 22 12 51 3d 3e 19 1b bb
       -0.040987097 -0.045565154 0.051042683 -0.0023666169
0002e0 dc c4 ef 3c 28 6d 42 3d d1 d8 87 bd c5 6e a3 3d
       0.029268675 0.04746738 -0.06633151 0.07980112
0002f0 95 f1 53 3d 2b 4b 89 bc a8 19 c7 bb 0f 8e 7f 3b
       0.051744062 -0.016759476 -0.0060760565 0.0038994586
000300 44 75 48 3d 6b 65 48 3d d3 f3 4d bd 41 72 84 bc
       0.04893996 0.048924845 -0.050281357 -0.016167762
000310 5e 48 a4 3b e7 2d bd bb 06 9d cb 3c a5 2a 4b 3d
       0.0050135097 -0.0057732943 0.024855148 0.049601216
000320 9f d3 a8 3c e8 7b 8f bc e6 e9 13 3d 7c 6f fd 3d
       0.020608721 -0.017515138 0.036111735 0.123747796
000330 97 9d de 3c 57 f5 9c bc fa 89 a5 3c 95 c2 58 3d
       0.027174754 -0.019159956 0.020207394 0.052919943
000340 33 63 4e 3d cf 05 bf 3c 37 af 84 3c 43 71 71 bd
       0.050387572 0.0233182 0.01619683 -0.058945905
000350 13 86 33 bd 42 72 67 3d fd 9f 91 3c 0b a3 1e bd
       -0.043829035 0.05650545 0.017776484 -0.03872971
000360 e7 8d f6 3b 60 2f a7 3c 57 66 4d 3c b8 73 31 3d
       0.0075242403 0.020408332 0.012536607 0.04332325
000370 2a 2b b1 3d fc b3 8f bb ec fa e9 3d 58 b2 a7 3b
       0.08650811 -0.0043854695 0.11424813 0.005117696
000380 88 88 87 bc a8 b5 40 3b 40 6d aa bc 5a 06 d0 ba
       -0.016544595 0.002940515 -0.020804048 -0.0015871034
000390 11 cf 6e 3d 63 5b 13 bc 25 4a 97 3c da 00 e0 bb
       0.058302943 -0.008993956 0.018467972 -0.006836039
0003a0 11 fa f2 bb 40 c8 92 3c c1 10 09 bd 2e 63 61 3b
       -0.007415064 0.017917752 -0.033463243 0.003439139
0003b0 92 b2 29 3d 63 1e 77 3b f6 9f 15 3d 92 5c 91 3c
       0.041430064 0.003770732 0.036529504 0.017744336
0003c0 3f 8f c6 bd a9 3a 40 bc 4b 46 e4 bc 86 36 c4 bc
       -0.09695291 -0.011732736 -0.02786555 -0.02395178
0003d0 70 43 6d 3d 87 5d d2 bd c1 cc a9 bb 10 f8 81 3d
       0.05792564 -0.10271745 -0.0051818793 0.06346142
0003e0 43 06 13 3d 61 55 62 3d 9c 9d 11 3d 9f 31 82 bd
       0.035894644 0.055257205 0.0355507 -0.06357121
0003f0 b6 09 03 bd 2a 43 db 3c 1f 60 a4 3d 47 ca 91 bd
       -0.031991683 0.026765425 0.08026146 -0.071186595
