model/3.pt (torch, 694923 bytes, 30 tensors)

1.df.df.fc1.weight_block_1.weights1 f4 [2, 76, 76]
000000 99 67 8c 3d 4f bc 03 3c b7 49 44 bb f8 2a 9b ba
       0.06855697 0.008040502 -0.0029951164 -0.0011838367
000010 d1 3b 2d bd b1 7d 01 3d 48 ca 1a 3c 1f d4 9a 3d
       -0.042293373 0.03161401 0.009447642 0.0755999
000020 8c 06 37 3d 9d ef 0d 3c 5b ba 3d 3c b4 e9 18 bd
       0.044683978 0.008663085 0.011580075 -0.03733225
000030 8c 5a aa bc b9 40 7f 3b a4 37 0a 3d 86 f4 71 3d
       -0.02079513 0.003894849 0.03374447 0.059071086
000040 24 c0 41 3d ed bf 00 bc f7 59 27 3d f5 13 e8 3b
       0.04730238 -0.007858259 0.04085728 0.007082457
000050 51 b5 9a bc f5 c2 68 bd 97 67 0f bd e8 37 01 3d
       -0.018885287 -0.05682655 -0.0350109 0.031547457
000060 9b a6 14 3d 3a 1b bc 3c 3c 0e 7a 3d 90 e1 53 3d
       0.0362917 0.022962201 0.06104873 0.051728785
000070 01 c2 10 3d df f6 ee bd f3 94 87 3c f3 37 7f 3d
       0.035341267 -0.11668181 0.016550517 0.062309217
000080 8e 89 a5 3d 81 aa 3c bb 4c aa 63 3c 78 2c 41 3d
       0.08082877 -0.0028788152 0.013895582 0.04716155
000090 ee 78 e9 bc 62 69 85 3d 68 cc 56 3c 06 51 9f bd
       -0.028500047 0.06514241 0.013110258 -0.07779126
0000a0 15 3f d6 bb c4 fe 71 bc a4 c4 c5 bc a8 33 7a 3d
       -0.0065382817 -0.0147702135 -0.024141617 0.06108442
0000b0 3f 27 71 bd 5e ac d6 3b 27 41 4b 3c 99 bc 5e bd
       -0.05887532 0.0065513095 0.01240567 -0.05437908
0000c0 d4 93 1f 3d 88 df e3 bd 10 c0 23 bd b2 53 b0 bc
       0.03895934 -0.111266196 -0.039978087 -0.021524284
0000d0 82 ff bb bc e2 36 87 3c 6e fd f4 bd 51 7a 93 bc
       -0.022948984 0.016505662 -0.119624004 -0.018002661
0000e0 09 c4 f5 3c ed 76 44 bd 0a a2 ec bb 9c 50 b7 3c
       0.030000703 -0.04796498 -0.007221465 0.022377305
0000f0 d2 fe 45 3d 73 e4 54 bc 74 04 39 3d 87 dc 9f bc
       0.04833872 -0.01299392 0.045170262 -0.019514335
000100 63 ca 4e 3c be c0 ea 3a a9 68 d5 3c 4b 03 a7 bd
       0.012621495 0.0017910225 0.026050882 -0.08154925
000110 f9 b7 1c 3d f7 2c 28 3d 45 71 d8 bc 69 7a 94 3c
       0.038261387 0.041058507 -0.026421199 0.018124776
000120 05 2c 57 bb 26 f9 14 3d a8 52 ec bb 81 66 36 bd
       -0.0032832634 0.03637042 -0.007212002 -0.04453135
000130 9d fe f0 bc 99 c5 e3 3c 44 86 bc 3c a2 a1 ef 3c
       -0.029418284 0.027804183 0.023013242 0.029251877
000140 60 c4 08 bc d8 55 c3 3b 0e 02 f9 3b 9f d8 3f bd
       -0.008347601 0.005961161 0.007599122 -0.046837445
000150 51 68 8d bc b0 66 14 38 73 2a 58 3a 20 7a c0 3c
       -0.017261656 3.5381585e-05 0.00082460715 0.023495734
000160 40 b5 18 3b 87 b2 1c 3c 94 8f 58 3b ee 55 c0 3b
       0.0023301393 0.009564049 0.0033044564 0.0058696186
000170 94 cb ea bb f3 c3 b4 3c 6f df 46 3b 84 f2 a6 3b
       -0.0071653817 0.022066092 0.003034558 0.005094828
000180 8b 1d 92 3c d0 c4 32 3d 0c 26 da 3c 77 e4 2f 3c
       0.017836353 0.043644726 0.02662947 0.010735623
000190 dc 03 0e 3c 86 dd e3 3b 83 96 d2 38 5a 29 89 bc
       0.008667912 0.006953898 0.00010041615 -0.01674335
0001a0 7c 8d 10 3c 16 15 b1 bb d7 cc 04 3c 5a d4 8a ba
       0.008822795 -0.005404125 0.008105478 -0.001059185
0001b0 ab ca 21 bb b1 a1 76 bb 2e ee b4 3b f4 44 45 bc
       -0.002468745 -0.0037632997 0.0055215573 -0.0120403655
0001c0 c7 67 18 3d 17 c2 0f 3c e3 76 4a 3c 89 78 e5 3c
       0.037208345 0.008774302 0.012357446 0.028011577
0001d0 ed 94 47 3c 73 f3 1d 3c 0c 8a a6 3c d0 58 df bc
       0.012181503 0.009640562 0.020329498 -0.027264029
0001e0 05 ec 4f 3d 12 c5 38 3b b2 44 9a bb 65 f1 87 bc
       0.050762195 0.0028193635 -0.004707896 -0.016594598
0001f0 a6 2c 6d bb 33 87 86 3d 79 8a 74 3d 44 56 03 3d
       -0.0036189943 0.06568756 0.05970237 0.03206469
000200 3b 3e 0f 3d 62 50 82 3c f3 32 4d 3d 79 6c 20 3d
       0.034971457 0.01590747 0.050097417 0.039165948
000210 92 9b 1e bc 31 57 68 3d dd 5a 12 3d f6 f5 da bb
       -0.009680646 0.056723777 0.035731185 -0.006682153
000220 56 f4 e2 bb 8e 5c 44 3d a1 22 ec 3b 2d 86 36 3d
       -0.0069261 0.04793983 0.0072062765 0.044561554
000230 cd eb a8 3c 88 a4 09 3d ce 46 97 3b ba 5c 06 3c
       0.020620251 0.033604175 0.004616595 0.008200819
000240 ef 5c f3 bb 01 98 af bc f6 71 c7 3c 9e 2b 4f bb
       -0.00742685 -0.021434786 0.024346333 -0.0031611691
000250 52 a8 41 3c f9 27 b2 3b 7f 00 a1 3c d8 e1 36 3d
       0.011819916 0.005436894 0.019653557 0.044648975
000260 81 cc a7 3c 6d 4d 97 3d 2d 2a 3a 3d a1 eb cd 3c
       0.020483257 0.07387815 0.04545038 0.02513677
000270 cb 14 44 3c e7 e8 0a 3c f0 ed 48 bd 6c 7e 0e be
       0.011967848 0.00847838 -0.04905504 -0.13915414
000280 fd c9 8a bc 22 c0 c2 b9 18 fe 27 bb eb 3f f4 bd
       -0.016942019 -0.00037145714 -0.002563363 -0.11926254
000290 05 32 5e bc fc a3 03 3d 5e 9e 1f 3d d2 cd 9d bd
       -0.01356173 0.03213881 0.03896939 -0.07705273
0002a0 87 d3 08 bc 08 a0 0b 3d 1b 75 aa 3d 8c 6c 2b 3d
       -0.008351213 0.034088165 0.08323117 0.041851565
0002b0 8b b2 8f 3d a8 d2 12 3c 1b 89 dc 39 a9 76 63 3d
       0.07016476 0.008961357 0.00042063821 0.055533085
0002c0 ac da 04 be 27 4b 82 3d 78 31 ec bb 15 21 c6 bc
       -0.12974042 0.063619904 -0.0072080456 -0.024185697
0002d0 3d c6 18 bc 3a 24 a5 3d 97 2d a6 bd 7b 22 89 3d
       -0.009324607 0.0806355 -0.08114164 0.0669603
0002e0 f9 34 2c bd 9c ba 54 bd fa 75 b9 3d 63 c9 0c 3b
       -0.042042706 -0.051935777 0.09055705 0.002148234
0002f0 85 a9 88 bd 02 8a 1d bd 07 be af 3c c0 b2 e0 3c
       -0.06672958 -0.038461693 0.021452917 0.027428985
000300 e0 14 06 3c 9b e1 7b bd d5 3e 50 3c 60 46 ee 3c
       0.008183688 -0.06149445 0.012710293 0.029086292
000310 33 bd 11 bd a7 83 52 3d 8e 39 24 bd ab 21 77 bd
       -0.035580825 0.051395085 -0.04009395 -0.060334843
000320 bf 8f 41 bc 8d fc ba 3d c2 c9 61 3a 11 d3 93 3c
       -0.011814057 0.091302015 0.0008613133 0.01804498
000330 4e b2 78 bc 7e 6d cf bc c1 ff ae bb 1c a2 9a b9
       -0.01517923 -0.025320765 -0.005340547 -0.0002949395
000340 22 a3 17 bd 53 68 c3 bd 81 10 bb bc 2e 7c 3e 3d
       -0.03702081 -0.09541383 -0.022835018 0.046505146
000350 f6 9d 62 3d ad 55 16 3d 3e 07 2f 3d d9 5b 89 bd
       0.055326425 0.0367028 0.042731516 -0.06706972
000360 25 57 33 3c 74 66 81 3d 9d db 64 3d 0e c6 86 3d
       0.01094607 0.063183695 0.055873502 0.06580745
000370 7d cd 49 bd 18 44 97 bc c3 c9 9d 3d dd 4f 2a 3d
       -0.049268235 -0.018465087 0.077044986 0.04158007
000380 04 c7 44 3c ca 5d b5 bc 6b 0e 41 bc 1e dc 96 bd
       0.01201034 -0.022139449 -0.011783223 -0.07366203
000390 da ce 97 bd e3 60 7f bd 68 4f 0b 3c 67 57 f3 bb
       -0.07412501 -0.062348258 0.008502819 -0.0074261907
0003a0 aa 9e 0b 3e ad fc b5 bd fe 12 33 bd 09 c0 99 bd
       0.13634744 -0.08886085 -0.043719284 -0.07507331
0003b0 b4 39 4c bd b9 ad ff 3c b8 46 0a 3d a8 66 7a bd
       -0.049859717 0.031210767 0.03375885 -0.061133057
0003c0 ad 9d 42 3d 0b 41 c7 3c f9 56 20 bd 13 b3 53 be
       0.047513653 0.024323007 -0.039145444 -0.2067378
0003d0 63 07 66 bc 97 f0 41 3d bf d8 43 bd 13 3e 18 3d
       -0.014039847 0.047348585 -0.047814127 0.037168574
0003e0 f2 e1 b1 3c f9 32 03 3d a0 40 dc 3a cb 03 ef ba
       0.021714184 0.032031033 0.0016803928 -0.0018235383
0003f0 95 26 3e be 71 11 45 bc 2f 68 0c be 81 13 a9 3b
       -0.18569405 -0.012028084 -0.13711618 0.0051597957

1.df.df.fc1.weight_block_1.bias1 f4 [2, 76]
000000 3d 15 ba 3d b2 e8 38 3d 12 27 92 3d de 78 bd 3c
       0.09086082 0.04514379 0.07136358 0.023128923
000010 6a e3 6e 3d 19 58 2b 3d d1 82 30 3d 91 d6 b8 3d
       0.058322348 0.041832063 0.043093506 0.090253
000020 d1 89 00 bc 72 2e 8b 3c 46 b7 ae 3d 59 b8 16 bd
       -0.007845358 0.01698992 0.085310504 -0.0367969
000030 e1 c3 41 3d 97 33 f0 bc cb cf 0b bb 1a bf 9a 3c
       0.047305945 -0.029321475 -0.002133357 0.018889952
000040 ff d9 48 be 69 17 82 3d ee ff 05 3d 95 25 6b 3d
       -0.19614409 0.063521214 0.032714777 0.057408888
000050 14 b8 67 3b cc 8f bc 3d a1 32 a0 3d ed ad 2e bb
       0.0035357522 0.092071146 0.07822157 -0.002665396
000060 09 b0 ff 3d da 7a ed bd 13 a6 d9 3c 6f c3 f9 bc
       0.12484748 -0.11595698 0.026568448 -0.030488698
000070 dc cf c2 3c be 12 0d be 0a 90 0c 3d bc 9f 24 3e
       0.023780756 -0.13776681 0.034317054 0.16076559
000080 2e ab 5a 3d 54 b3 38 3d 10 6f e4 3c 35 42 08 3d
       0.053385906 0.045092896 0.02788499 0.033266265
000090 64 01 a6 3d 47 2a e6 bc f4 8b 90 bd db ec a0 bd
       0.08105734 -0.028096331 -0.07057944 -0.078576766
0000a0 50 d6 b4 3d ae ad 06 bc df c5 ee 3c 49 64 7e 3c
       0.08829939 -0.008220119 0.029147087 0.0155268395
0000b0 4b f3 6d 3c e1 a2 00 3c a7 b1 b3 b9 e3 42 9b 3a
       0.014523338 0.007851333 -0.00034273902 0.0011845495
0000c0 85 0b fa 3c ef 02 70 be 45 b6 19 3e 43 3f 16 3d
       0.030523071 -0.23438619 0.15010937 0.036681425
0000d0 07 9b 3f bc d8 3d 8f 3d 45 90 c7 bb b3 8f 03 3c
       -0.011694676 0.06994218 -0.0060901963 0.008029866
0000e0 c4 4f 81 3c 5b 22 35 3d 65 f0 33 3c 58 b6 36 3c
       0.015785106 0.044222217 0.0109826075 0.011151873
0000f0 14 b0 f5 bd ea 6b 33 3e 87 c0 0f 3d de 45 ba 3c
       -0.11996475 0.17521635 0.035095718 0.022738393
000100 ab f8 9e 3c 97 86 eb 3d df 11 97 bc 54 d5 21 be
       0.019405684 0.1150028 -0.018441139 -0.15804034
000110 be 3f 9d 3d 6d 8c 2c 3c 92 3a aa bc ba 95 cb 3b
       0.076781735 0.010531527 -0.020779882 0.006212917
000120 55 b4 3b bd c2 e1 40 3d d4 53 96 3c a6 f6 77 3d
       -0.045826275 0.0470903 0.01835052 0.060537957
000130 43 f9 82 3d 03 2d 45 bd e1 cb 9f bd 76 a7 85 3d
       0.06395199 -0.04813863 -0.07802559 0.06526081
000140 fe 14 70 3d 60 64 53 ba 1b fd 2d bc 09 75 bd bd
       0.05861377 -0.0008063968 -0.010619427 -0.09250838
000150 af 3c e6 bd e0 1d 7e bc d1 55 a8 bd f0 ea a5 3d
       -0.11242043 -0.015510052 -0.08219493 0.081014514
000160 76 6f 17 bd 27 3a b9 3c 1c 33 60 bc 7a 2f 00 bd
       -0.03697153 0.022610737 -0.01368406 -0.031295277
000170 91 2d 51 be 7a b6 0a bb b3 d7 3e bb 91 8a 28 bc
       -0.20427538 -0.0021165893 -0.0029120266 -0.010286943
000180 f7 e9 8d 3c 17 08 20 bd b4 ef 72 3c 73 e8 ed 3c
       0.017323477 -0.039070215 0.0148276575 0.029041504
000190 45 41 84 3c 02 91 dd bd 3b 9b a0 3c 8f 27 84 3b
       0.016144404 -0.10818674 0.01960527 0.004033036
0001a0 79 d8 4e bd e1 c7 9b 3d 98 91 77 3c a8 29 7f 3d
       -0.050499413 0.07606483 0.015110396 0.062295586
0001b0 64 37 95 bd b3 87 31 bc f5 28 bd bc e0 5e 66 3c
       -0.072859555 -0.010835576 -0.023090819 0.014060706
0001c0 d8 92 78 3b 4e 61 13 3d 8f 57 59 bd 28 fe 8b 3d
       0.0037929323 0.03598147 -0.053062018 0.06835586
0001d0 fd 96 bd 3c f2 c3 7c 3c 78 70 2b 3d 71 94 45 3d
       0.023143286 0.015427576 0.041855305 0.048237268
0001e0 df c9 0e 3d 38 76 af ba fe 8a 03 3d 71 ec ec bc
       0.034860488 -0.0013386672 0.032114975 -0.028921338
0001f0 df 9e e0 bc 68 50 58 bd 36 7f a6 3b 9f cd 7a 3d
       -0.027419506 -0.052811056 0.0050810827 0.06123125
000200 af fd 8d 39 f4 6f 8f bd d0 47 61 3d 59 4d dd 3c
       0.00027082625 -0.07003775 0.055000126 0.027014421
000210 45 bd 07 3c ed 92 2f 3d e3 9c 99 3c 78 1a 72 bc
       0.0082848715 0.04286473 0.018751567 -0.014776818
000220 96 1f 0b 3d ee 06 5c 3d 00 8d 42 3d ce c5 71 3d
       0.03396567 0.053717546 0.04749775 0.059026532
000230 86 47 b0 3c 95 f2 00 3d 5c ac 16 3d d9 a6 c3 3c
       0.02151848 0.031481344 0.03678547 0.02388327
000240 42 3a 19 bc 9c 90 6a 3c 4e 79 23 3d 49 02 99 bd
       -0.009352269 0.014316704 0.039910607 -0.07471139
000250 28 71 89 bd a3 b6 ad bb 12 d8 95 bc 2b e4 2b 3d
       -0.06711036 -0.005301313 -0.018291507 0.041965645

1.df.df.fc1.weight_block_2.weights1 f4 [2, 76, 76]
000000 0f 45 86 3d f5 15 06 3d 52 48 35 3d 7a bb cc 3c
       0.06556141 0.032735784 0.044258423 0.02499174
000010 e2 9f 6b 3c dc e9 43 3d a8 8a 8f bc 34 7e 18 3d
       0.014381381 0.047830448 -0.017522171 0.03722973
000020 13 ce 25 bd a1 67 e1 bc a4 ab 33 bc d4 28 97 bb
       -0.04047973 -0.027515234 -0.010966215 -0.0046130214
000030 14 35 90 bb ab 99 cc 3b 84 bd c9 3b 56 2b b9 3c
       -0.0044008587 0.0062439046 0.006156625 0.022603672
000040 1f f3 92 bc 90 36 5f 3c 5f e6 e1 3b 07 79 16 3c
       -0.017938195 0.013623849 0.0068939175 0.009184129
000050 e0 0b 3c 3d bd 6e 45 3c 89 49 d1 3c 21 6b 3e 3d
       0.045909762 0.012050328 0.02554776 0.046488885
000060 70 d1 c7 bb af dc 03 bc 7a 5e bc bc c4 05 82 3c
       -0.006097965 -0.008048221 -0.022994269 0.01587189
000070 48 27 0e bd 8f f1 43 bc 4d f4 4f bc e8 62 79 3d
       -0.03470543 -0.0119594475 -0.012692523 0.06088534
000080 c2 25 fc 3b 62 79 22 bc 2f ee 2e bc 80 31 3d bc
       0.007694931 -0.009916635 -0.010676905 -0.011547446
000090 9f df 67 bd 11 29 2f 3d 81 13 d4 3c f4 3a 4d 3a
       -0.056609746 0.042763773 0.025888206 0.0007828914
0000a0 02 bb dc 3c 63 84 6a 3b 7d 25 c1 bc c1 bc 62 bd
       0.026944641 0.0035784475 -0.023577446 -0.05535579
0000b0 d3 d8 58 3d 0e 4d 43 3d 91 c6 85 3a 32 04 0c bd
       0.052941155 0.047680907 0.0010206272 -0.03418369
0000c0 e7 38 99 3d ad 8c 43 bd a7 d0 48 3b 78 11 64 3d
       0.074815564 -0.04774158 0.0030641945 0.055680722
0000d0 8f 62 c3 bb a1 3e 1e bd 6a ac d5 3b 0c 9e 6f bd
       -0.005962677 -0.038633946 0.0065207975 -0.058500335
0000e0 06 78 e4 bc 27 ee 23 3c 17 84 d3 ba b8 39 2b 3d
       -0.027889263 0.01000551 -0.0016137388 0.04180309
0000f0 a7 10 06 bc 3d d2 cd bb 88 71 8a 3d a4 ac c3 bc
       -0.008182681 -0.006281166 0.067599356 -0.023886032
000100 c4 f9 21 bc a4 d0 c6 3d b8 26 b1 3c 7c 73 a2 3d
       -0.009886209 0.09707764 0.021624908 0.07932183
000110 87 77 27 3d cf ca 9f bc fa 93 2a 3c 27 e4 a6 bc
       0.040885475 -0.019505886 0.010411257 -0.020372463
000120 9c 39 b0 bc 64 73 8d 3c ac 08 21 3d 3c ca 7d 3c
       -0.021511845 0.017266937 0.03931491 0.015490111
000130 19 fc 6d 3a 57 b8 ff bb 64 4f b2 3c 6b 2b d4 ba
       0.0009078398 -0.0078039574 0.021766372 -0.0016187256
000140 f5 82 d9 3c 77 c9 c3 bc 7d 59 80 3c 83 fc 16 bb
       0.026551703 -0.023899777 0.015667671 -0.0023038692
000150 e4 e6 28 3c dd d6 91 3c 4f f9 1a 3d 27 a7 bf 3c
       0.010308955 0.01780265 0.037835415 0.023395134
000160 c5 0e d9 3c 30 1f d2 3c 1b fa 4c 3d ec 28 89 3c
       0.0264963 0.025649637 0.050043207 0.016743146
000170 30 c3 0a 3d 8c f7 c0 3c 7e 46 17 bb 43 06 3a bc
       0.03387755 0.02355554 -0.0023082788 -0.011354032
000180 51 ad a9 bb 91 49 19 bc 64 6f 0b bc 83 37 11 3c
       -0.0051781316 -0.0093559185 -0.008510444 0.008863333
000190 a8 3a c4 3c 83 68 26 3d 62 6b 15 3d 32 33 01 3c
       0.02395375 0.040627014 0.03647936 0.007885741
0001a0 ca 2d aa 3c ab af 40 3d 58 e7 24 bc ec 54 38 bc
       0.020773787 0.04704253 -0.010064922 -0.011250716
0001b0 f9 01 21 bc 6a 21 2e 3d 7d 23 81 3c 15 8d ba 3c
       -0.0098271305 0.042512335 0.015763992 0.022772351
0001c0 5c 74 44 bc 73 b8 0e 3c 6b b2 21 3c f8 63 74 3c
       -0.011990633 0.008710968 0.009869198 0.0149164125
0001d0 c2 ec bb b9 5c 11 05 3b 97 0f 18 3d 72 67 3e 3d
       -0.00035843818 0.0020304536 0.037124243 0.046485372
0001e0 22 71 64 bc 42 fa 36 3c 16 59 ed 3c 12 c2 c1 3c
       -0.013942989 0.011168065 0.028973144 0.02365211
0001f0 e4 0b 16 bc 03 41 86 3d bb 98 37 bb 9e 61 41 3b
       -0.009158108 0.06555369 -0.0028014618 0.0029507647
000200 91 62 bd 3c 71 0b 34 3d 64 b7 88 3b 96 be 65 3d
       0.02311829 0.043956224 0.0041722525 0.05608996
000210 fa 23 62 3d 45 b6 90 3c 5b f5 0e 3c bb 0e a3 bc
       0.05521009 0.017665038 0.0087254895 -0.019904485
000220 b2 ca 84 bb 92 c1 85 3c 90 f1 26 bc 4a 25 20 3d
       -0.0040524835 0.016327653 -0.010189429 0.03909806
000230 c6 0a e6 3c 81 90 bf 3b 9d c9 53 bb 32 a3 de bc
       0.028081309 0.0058460836 -0.0032316216 -0.027177427
000240 97 23 df 3c 06 97 d1 3c 34 0a 94 3c 65 52 bc bc
       0.02723865 0.025584709 0.018071271 -0.022988508
000250 83 f1 b8 3c 40 0f 99 3b 1e d8 aa 3c 70 51 60 3c
       0.0225761 0.0046710074 0.020855006 0.013691291
000260 21 51 0c 3e 93 42 1d 3c 0e ee 0d 3d e9 e8 d4 bd
       0.13702823 0.009598392 0.034650855 -0.103959866
000270 cc 4e 28 3d 95 17 0d bd 13 09 57 3d 14 8b d8 3c
       0.04109077 -0.034446318 0.05249889 0.026433505
000280 70 64 8a bd 83 77 92 3c b2 4d 0e be 1f b4 13 3c
       -0.06757438 0.017879253 -0.13896826 0.009015112
000290 95 aa e5 3d 35 4f 24 bb 16 a5 09 3c 03 45 cb 3d
       0.112141766 -0.0025071625 0.008401176 0.09925272
0002a0 bb b6 4c 3b 4a c2 7a bc 66 f5 c0 3d 2e 19 62 bc
       0.0031236846 -0.015305111 0.09421806 -0.013799949
0002b0 42 47 66 bd 70 83 b0 3d f0 29 57 bc 21 7b 95 bb
       -0.0562203 0.0861882 -0.013132557 -0.0045617973
0002c0 6a c4 af 3b 56 42 a3 3a 86 03 95 3b 29 96 04 bc
       0.0053639906 0.0012455683 0.004547539 -0.008092442
0002d0 66 5e 03 3d 49 6f ef bc 4c 5f 00 3e e9 f9 85 3d
       0.032072447 -0.02922787 0.12536353 0.06541807
0002e0 3b c7 16 bd 8a 34 2e 3c dc 7a 81 bd 7b 16 17 3a
       -0.036811095 0.0106326435 -0.06322262 0.0005763543
0002f0 06 83 25 bb dc f6 8b 3d d7 57 85 3d f7 c3 8b bd
       -0.0025255098 0.06834194 0.06510895 -0.06824487
000300 92 1f 98 bc 8d ee 75 bd 40 0a ed 3c 98 47 2d bc
       -0.018569741 -0.060041953 0.028935552 -0.010576151
000310 ac 33 23 bd 61 c1 58 bc 2d 4b 28 3d ae e8 8b bd
       -0.0398442 -0.013229699 0.04108732 -0.068314895
000320 d4 0a c6 3d 4a 82 35 bc 0f 37 82 bd c7 1b 01 3d
       0.09670034 -0.011078427 -0.06358158 0.03152063
000330 8d 42 aa bc 45 88 d4 3c 23 9d 0b 3d 36 df 1a bd
       -0.020783687 0.025943885 0.034085404 -0.037810527
000340 4a 0d d3 3c d3 4e 6b 3c d2 54 ca 3c 74 d9 73 bd
       0.025763173 0.014362055 0.024698649 -0.05953355
000350 7f 04 71 3c 2f 8b eb 3b 31 68 96 ba b1 22 8e bb
       0.014710545 0.007188223 -0.0011475143 -0.0043376316
000360 19 d7 46 3d 3d 98 dd bc bc 87 10 ba 9e d3 09 3d
       0.048544977 -0.027050132 -0.000551339 0.03364908
000370 44 ec f5 3d fd 83 49 3d d3 84 23 3c 1b 14 29 3d
       0.12007955 0.04919814 0.009980398 0.04127894
000380 a9 40 38 bc bb 7e d8 3c 54 67 e3 3c 72 a5 b5 ba
       -0.011245885 0.026427617 0.027759232 -0.0013858511
000390 aa 49 22 bd 45 7e 1a 3c 55 ef 13 be f1 d5 f1 bd
       -0.039621033 0.009429519 -0.14446767 -0.11808384
0003a0 7e 6b 23 bd d4 2e 2a bd 0d 08 02 3e 0d 94 b2 bc
       -0.039897434 -0.041548565 0.12698384 -0.021799112
0003b0 f7 5c 52 3c cd 27 c3 3d b4 8d f1 bd 5d 6c 12 3d
       0.012839547 0.09529076 -0.11794606 0.035747875
0003c0 af 8b 9a bb 1c 3d 79 bd da e1 b9 bd 77 78 da bb
       -0.0047163586 -0.060849294 -0.09076281 -0.0066671926
0003d0 73 78 f7 3c 2d d1 24 bd 9e 7f 8a 3d 0e 0a 01 3d
       0.030208802 -0.040238548 0.06762622 0.03150373
0003e0 23 56 d0 bd 87 f6 9c 3d 72 49 8e bc 3e 25 cb bd
       -0.10172679 0.07664209 -0.017369006 -0.09919213
0003f0 70 ad f3 bc 82 fd b4 bd c2 6f ac 3c a4 f8 8c bc
       -0.029745787 -0.08837415 0.021049384 -0.017208405

1.df.df.fc1.weight_block_2.bias1 f4 [2, 76]
000000 36 b3 16 3e 13 65 0e 3d ad 81 84 3d f2 03 d3 3d
       0.14716801 0.03476436 0.06470046 0.10303487
000010 94 51 38 3d d3 77 01 3d 41 31 97 3d 27 05 de bc
       0.044999674 0.031608414 0.07382441 -0.027102066
000020 df bb 1f bc 40 a9 da 3d fb 26 eb 3d b9 e9 0f be
       -0.009749382 0.10676813 0.11482044 -0.14054002
000030 ab 56 a9 bc 23 c2 40 3d 0d 8f 37 3e 32 6e 2e 3d
       -0.02067121 0.047060143 0.17925663 0.04258556
000040 f9 70 b0 3d d8 dc 72 3b 93 80 d8 3d fe d9 00 bd
       0.08615298 0.0037057903 0.105713986 -0.031457894
000050 65 ae 8f 3d 2d 3d 8b 3d 12 b1 c0 3c 3d 19 c4 3d
       0.07015685 0.06798778 0.023521934 0.09575126
000060 20 a6 c0 3d 37 30 5e 3d 86 6e b6 3c 72 81 37 3d
       0.09406686 0.0542452 0.022269499 0.044801183
000070 40 b2 30 3c 65 b6 87 3d d4 8c f7 bc cc 2e 43 3e
       0.010784686 0.06626586 -0.03021852 0.1906082
000080 94 29 e8 3c ea 1b 8f 3d ba 60 02 3d dd fd 64 3d
       0.028340138 0.06987746 0.031830527 0.055906165
000090 c6 1b 03 3d 3e 5d 52 3d 47 7d f5 3d c0 80 48 3d
       0.03200891 0.051358454 0.119867854 0.04895091
0000a0 86 fc 0a 3d dd 0b 8c 3d bd 57 32 3b e2 70 c1 3d
       0.03393223 0.068382 0.002721294 0.09445359
0000b0 96 ec 02 bd 05 19 9d 3d 6b 94 a1 3d 8f 9d 48 bc
       -0.031963907 0.07670788 0.078896366 -0.012244596
0000c0 da 6c 52 be 94 5b 19 3e 36 fa 82 bd c8 e2 43 bd
       -0.20549336 0.1497634 -0.0639538 -0.047823697
0000d0 84 38 3d bc 85 9a 02 3d 41 86 b6 3d fc 1c 32 bb
       -0.011549119 0.031885643 0.08912326 -0.002717792
0000e0 9c 3a 30 3e cf 2d 32 bd c9 33 94 bc 52 62 81 bd
       0.17209858 -0.043500718 -0.0180911 -0.06317581
0000f0 47 5f 54 3d e7 fd 6b 3d 8e 5d 3f 3e d0 eb df 3d
       0.051848676 0.057615187 0.18688032 0.109336495
000100 e6 b1 47 bd ad 9a 3a 3b d4 b7 13 bb 29 2f 09 be
       -0.04875364 0.0028473542 -0.002253999 -0.13396896
000110 79 73 0a 3e 13 d9 c6 3d 64 17 75 bd 88 cf 69 3d
       0.13520612 0.09709372 -0.05983676 0.057082683
000120 81 32 f7 3c 88 4f b0 3c 58 f4 d2 3d c7 29 bc bc
       0.03017545 0.021522298 0.10300511 -0.02296914
000130 a3 d1 1d 3d e7 9a 24 3d 77 2d 40 3d c8 09 1b 3d
       0.038530003 0.04018679 0.04691836 0.037851125
000140 be 13 78 bd 4e 2c 2e 3b 80 a9 a7 bd 87 ca df 3c
       -0.060565703 0.00265767 -0.081866264 0.027318252
000150 58 7a c2 bc 66 fe 93 bc 41 ac e1 3c 16 d1 9f bd
       -0.023739979 -0.018065643 0.027547957 -0.07803552
000160 62 b1 7b 3c 5c 68 47 3c 3c 51 0f 3d 38 2f 6f 3d
       0.015362116 0.012170877 0.03498958 0.05839464
000170 f7 6b 16 3d 7e 38 52 3d 8e 97 16 3d a2 65 e1 bc
       0.036724057 0.051323406 0.036765628 -0.027514283
000180 3f 10 9b bc 98 35 85 3d 53 9f b3 3c fe 2f 04 3d
       -0.018928645 0.06504363 0.021926558 0.03227233
000190 e7 64 ef bc dd b4 ba 3c 7b 42 f5 bb 09 bc 70 3b
       -0.029222919 0.02279132 -0.0074847317 0.0036733171
0001a0 3b e7 70 bd dd 3b bd bb 78 c4 e8 3c c5 f8 3e 3d
       -0.05881427 -0.0057749585 0.028413996 0.046623964
0001b0 9f d0 06 bd 35 c8 74 bd e2 23 41 3d c1 e1 fb bc
       -0.0329138 -0.059761245 0.04715336 -0.030747296
0001c0 1e 9c 16 3d 81 d2 9d bc e0 7c 99 3c aa 38 6d 3c
       0.03676998 -0.019265415 0.018736303 0.014478842
0001d0 30 61 b9 bb 33 8d 97 3c ad 22 e9 3d 07 53 21 bd
       -0.0056573376 0.018499946 0.11383567 -0.03938582
0001e0 86 c6 6b bd 3c 13 35 be c1 cd 89 bd 31 23 3f 3d
       -0.057562374 -0.17683119 -0.067286976 0.04666442
0001f0 95 ea 3c bd 5a 64 13 3d 0f 24 b6 bd 5a cc 08 3d
       -0.046122152 0.035984375 -0.088935964 0.03339801
000200 4c c7 e6 3c a2 a8 31 bc f2 8a d7 3c 3d 01 0d bc
       0.028171204 -0.010843428 0.026311371 -0.008606252
000210 de 37 81 bd 56 29 2b bd 89 5b c0 bc aa 0b 4d bd
       -0.06309484 -0.041787468 -0.023481147 -0.05005995
000220 c5 9b ab bc bb 37 5f 3d 48 b2 a4 bd 40 9c 08 3c
       -0.0209483 0.054496508 -0.08041817 0.008338034
000230 95 64 9c bd b7 5a c8 3c d1 6c 49 bb 4a 43 81 bd
       -0.07636372 0.024457319 -0.0030735026 -0.063116625
000240 69 40 ec bc f2 93 cd 3c e1 26 33 bd d4 d9 79 bd
       -0.028839307 0.02509496 -0.04373825 -0.060998753
000250 7d 27 fb 3c f0 17 ee 3c a5 70 48 bd 2d 06 92 bb
       0.030658478 0.029064149 -0.04893555 -0.0044563026

1.df.df.fc1.concat_real_layer_1.weight f4 [76, 152]
000000 62 63 37 3c 2d ed b5 3c ec c6 90 3d f6 ab 49 bc
       0.011193128 0.02220782 0.07069191 -0.012309065
000010 d5 6a e3 bc a7 b3 92 3c a3 c6 a5 bd b1 f0 5c 3d
       -0.027760902 0.01790793 -0.080945276 0.05394048
000020 b7 b3 c0 3c 42 5b 46 3b c8 dc 13 3d 59 97 bf bc
       0.023523195 0.0030266796 0.036099225 -0.023387598
000030 7e 6a 1e 3e a1 bb 20 3d ea 5e 77 bc fa c7 fb 3c
       0.15470311 0.039241437 -0.015098313 0.030735005
000040 6b de 15 3d f0 d2 93 bc 60 f0 86 3d 90 fc 47 bd
       0.036589067 -0.018044919 0.06588817 -0.048824847
000050 c2 5c 27 3a c8 13 e3 3c a0 5a 6c 3d e4 9b 67 3c
       0.00063843664 0.027719393 0.057703614 0.014136288
000060 2a 24 ec bd 4d 5a 60 3d 96 14 d8 3c 1a eb 39 3d
       -0.11530335 0.054773618 0.026377004 0.045390226
000070 86 d4 06 3c e2 cd 36 3d d7 7c 99 bd 0b 8d 38 3d
       0.0082293805 0.04462994 -0.074945144 0.045056384
000080 70 31 33 bd 32 a2 0d bd 22 b1 c0 3d fe 70 62 bd
       -0.04374832 -0.03457851 0.094087854 -0.05528354
000090 e2 20 e4 bd 3e cf 60 bb 2f 12 7c 3d b5 91 7b 3d
       -0.111390844 -0.0034303213 0.06154078 0.061418254
0000a0 3b 80 32 bd 11 29 f8 3c aa 74 a2 3c 94 98 3b 3d
       -0.04357932 0.03029302 0.01983102 0.045799807
0000b0 23 d4 a5 bd c6 cf 2b bd ee de e2 bc 6b 21 af 3d
       -0.080971025 -0.041946195 -0.027694192 0.08551296
0000c0 a4 11 87 bd 09 0e 76 3d 5d 9d 9e bd d5 6b d5 bd
       -0.065951616 0.06007198 -0.077448584 -0.10420958
0000d0 71 2e 14 3d 0e 2c 53 3c 86 81 17 3c 27 b5 fc bd
       0.036177102 0.012888921 0.009247189 -0.123392396
0000e0 a9 16 6c 3c f3 1c fc bd a0 3e a4 3d 09 75 f4 bb
       0.0144096995 -0.12310209 0.08019757 -0.0074602407
0000f0 10 b8 8d bb 1a 79 0b be df 94 17 bc 8b 41 f8 bc
       -0.0043249205 -0.13620415 -0.009251802 -0.03030469
000100 94 a0 53 bd d8 a7 d8 bc b7 45 c1 3d ca 29 e5 3c
       -0.05166681 -0.026447222 0.09437125 0.027974028
000110 28 4b 11 bc 04 0f 61 3d 28 be 2a 3c f6 4e ca bc
       -0.008868016 0.05494596 0.010421313 -0.024695855
000120 03 48 ad 3b b8 d4 86 bc 61 85 0d bd d4 23 64 bd
       0.0052881255 -0.016458854 -0.03455103 -0.05569823
000130 32 5f 89 3d 96 d6 92 3d 21 40 c6 3d 46 65 28 bd
       0.0670761 0.07169835 0.096802 -0.041112207
000140 59 93 08 3e b9 57 a0 bc de da e3 ba 32 b3 e6 bb
       0.13337459 -0.01957308 -0.0017383953 -0.0070404047
000150 33 34 a0 3d 05 f4 a3 3c 6b 8e c6 bd 8d bd 19 bb
       0.07822456 0.020013819 -0.09695133 -0.0023458928
000160 64 50 a6 bc c0 ba 0d bc 26 22 dd bd 8d bc 05 3e
       -0.020302005 -0.008650482 -0.10797529 0.13060208
000170 74 e5 95 bd f1 af 33 bc 70 b3 b0 3d 9a 64 2f 3c
       -0.07319155 -0.010967241 0.08627975 0.010705138
000180 11 83 3b 3d 6a 4a 32 3b 83 ec 20 bc e6 5e 6b 3d
       0.04577929 0.0027204999 -0.009822014 0.05746355
000190 7d 94 ff 3a 40 fc 5f 3c bc 43 6f bd 07 fd bf 3d
       0.0019499209 0.013670981 -0.058414206 0.09374433
0001a0 99 e2 ad 3d 43 34 62 bc 9c b0 66 3d ec 4a 02 3e
       0.08490486 -0.0138064055 0.05632077 0.12723893
0001b0 a0 bb 6d 3c 9f bf be bd 4b 64 02 be 30 13 8b bd
       0.014510065 -0.093138926 -0.12733571 -0.06790769
0001c0 aa 11 03 3d 19 37 2f 3d 46 af f5 3c 9f 0d b1 bd
       0.031999268 0.042777155 0.029990803 -0.08645176
0001d0 b4 77 09 3d 3c 3b b6 bc b7 89 8f bc d6 a1 5d bc
       0.033561423 -0.022245042 -0.017521722 -0.013527354
0001e0 fa ae 16 3e 92 d2 5d bd 6e 56 65 3d a5 ad a2 bd
       0.14715186 -0.054155894 0.05599063 -0.07943276
0001f0 7a a2 ab bc 15 01 12 be fe fc 31 3c 60 d4 36 bd
       -0.020951498 -0.14258225 0.010863541 -0.04463613
000200 04 10 fa bd 15 4f 86 bd 0b a5 f4 bc 48 10 d3 bb
       -0.12210086 -0.065580525 -0.029863855 -0.00644115
000210 6d c0 a7 bd 9f b5 7e bd ce e4 af 3d 19 62 93 bc
       -0.08190999 -0.062184926 0.08588563 -0.017991113
000220 b2 dd c1 bc 7b a3 68 3c a1 b2 dd 3d 52 08 03 be
       -0.023665283 0.014199133 0.108250864 -0.12796143
000230 11 ed 4c 3d 9a 6a 3c 3d 9d e9 bd 3d ff 8c fc 3d
       0.05003077 0.0460001 0.09273074 0.1233158
000240 74 4b 35 3c 3d 63 a3 bd d5 5c 7f 3d 20 c9 f5 bc
       0.011065353 -0.079779126 0.06234439 -0.03000313
000250 bc 67 22 3d 25 0a 8b bc 9f 6f 24 3e ea 47 45 bd
       0.03964971 -0.01697261 0.16058205 -0.048164286
000260 23 a0 10 3d c5 f9 aa 3d 30 b2 5b bc 50 7c a4 bd
       0.03530897 0.08348421 -0.013409182 -0.08031523
000270 55 e2 79 3d 00 ef c3 bd 46 b6 f3 bd a9 40 46 bc
       0.061006863 -0.0956707 -0.119 -0.012100377
000280 f2 3f f6 bc 55 70 c0 bd 62 30 b9 3d 7e 20 13 bd
       -0.030059788 -0.09396426 0.090424314 -0.03591966
000290 74 f6 30 be 3f f2 02 be 09 cc ce 3d d9 06 aa bd
       -0.17281514 -0.12787722 0.1009751 -0.08302087
0002a0 0b b5 bd 3c 0a f3 b1 3d e3 89 a5 bd 44 c0 77 3d
       0.023157617 0.08688934 -0.080829404 0.060486093
0002b0 52 ae 0a be d0 b8 a9 3c de 16 cf 3d a6 3f 47 bd
       -0.1354306 0.020718008 0.101117834 -0.048644684
0002c0 13 75 57 bd 12 1c db bd 2c af c2 bc 41 7c 04 3d
       -0.052601885 -0.10698713 -0.02376517 0.03234506
0002d0 e9 a4 91 3c 96 f1 19 bd 3a b6 89 3c 48 1c bd bd
       0.01777883 -0.03758391 0.016810525 -0.0923391
0002e0 67 fd 7e 3d c9 1c 0d be dd cd 45 3d 6f a8 55 3d
       0.062253382 -0.13780512 0.04829203 0.052162584
0002f0 72 d7 eb 3c 59 7a 17 be fe 13 f0 3d 31 e3 e0 bd
       0.028789256 -0.14792766 0.11722563 -0.10980833
000300 4e 24 0f bd 34 2d 17 3d 3c c6 03 be ff af 87 3d
       -0.034946732 0.036908343 -0.12868589 0.066253655
000310 c2 f1 30 bd d8 c3 81 bd e6 83 05 be 47 bc 93 bd
       -0.04319931 -0.06336182 -0.13038597 -0.072136454
000320 a1 9c 36 3d aa 7a 74 3d d8 bf e2 3d e9 85 5a 3d
       0.044582967 0.059687294 0.110717475 0.053350363
000330 ad d1 b7 3d 0b 5e be 3c fe bd a9 bc 85 70 ad 3d
       0.08975539 0.023238203 -0.020720478 0.08468727
000340 69 81 d0 bd 40 6f 6d 3d bd ea e0 bd 97 43 46 3d
       -0.10180933 0.057967424 -0.10982273 0.048404302
000350 7e 24 f0 3d 61 54 46 3e d9 de dd bd 72 b4 53 bd
       0.1172571 0.19368125 -0.108335204 -0.051685758
000360 54 38 bd 3b 06 45 8d bd f4 b3 14 bd 8a 1a d2 bd
       0.005774537 -0.06897931 -0.03630443 -0.10258968
000370 94 b1 29 be 68 5b b0 bb 5d e6 a3 bd 4a ff 60 3c
       -0.16571647 -0.00538199 -0.08002923 0.013732741
000380 15 54 96 3d d4 09 f6 bd 1f 2d 14 bd d0 20 db bd
       0.07340256 -0.12013593 -0.036175843 -0.10699618
000390 ff 81 97 bd ca 29 31 be e8 16 06 be aa d5 48 be
       -0.07397842 -0.17301098 -0.13094676 -0.19612756
0003a0 2b 6a f6 bd 23 21 8c 3b ae 17 7a 3b e7 b4 18 be
       -0.12031969 0.004276411 0.0038161087 -0.14912759
0003b0 1c 8c e3 bc 28 43 c6 3d 44 db a7 bb 7e b2 8d bd
       -0.02777677 0.09680778 -0.005122574 -0.0691881
0003c0 05 45 a3 3c 11 11 49 be f0 e7 11 3e 38 f2 de bc
       0.019930372 -0.19635417 0.14248633 -0.027215108
0003d0 36 f5 8c bc 7f b4 64 3d 51 26 5a bd 98 a1 85 bc
       -0.01720677 0.055836197 -0.053259198 -0.016312405
0003e0 a8 a0 07 be 8e 83 84 3d 50 53 ee bd 66 ae 81 bd
       -0.13244879 0.064704046 -0.11636984 -0.06332092
0003f0 e6 97 14 be 43 4c 88 bd 2d 0e b7 3c c4 97 4c be
       -0.1451107 -0.06655171 0.022345627 -0.19979769

1.df.df.fc1.concat_real_layer_1.bias f4 [76]
000000 bb e8 5a bd 2d 45 8a bd d5 cd c7 3b 59 9d 0d bd
       -0.053444605 -0.067514755 0.006097535 -0.034573887
000010 e3 b4 36 3b fd 0b 64 bd f8 3e 3d 3d 88 c7 72 bd
       0.0027878813 -0.055675495 0.04620263 -0.05927232
000020 9b 02 51 3d e8 f9 3e bd ee e4 9c bc a6 f9 85 bd
       0.051027875 -0.046625048 -0.019152131 -0.06541757
000030 94 4f b3 3b 51 03 9b bd ea 5c 2c bc c2 fd 72 bd
       0.005472133 -0.07568992 -0.010520199 -0.059324034
000040 ee 47 33 bd 82 81 34 bd 39 ce 81 bd b6 e0 e4 bd
       -0.04376977 -0.04406882 -0.06338162 -0.11175673
000050 b3 3c c4 3c ae 9a 0b be 8d d7 2d bb 33 f6 a8 3a
       0.023954725 -0.13633224 -0.0026526183 0.0012890756
000060 92 e2 57 bd ac 26 77 3d 4e ee 40 3d c9 f5 8c 3d
       -0.05270631 0.060339615 0.047102265 0.06882817
000070 f4 41 41 bd 3c e0 fd 3b 32 be 21 be f5 19 b0 3c
       -0.04718204 0.007747678 -0.1579521 0.021496752
000080 97 13 4b be c1 99 6c 3d 01 8b 13 bc a2 d5 cf bd
       -0.19831692 0.05776382 -0.009005309 -0.10148169
000090 32 f6 7b bd 7a 88 3c 3c 08 df 0f be 20 87 89 bb
       -0.061514087 0.011507148 -0.14049923 -0.0041970164
0000a0 09 0d 16 bd 24 81 9e 3d 21 a0 71 ba 69 cc 82 bd
       -0.036633525 0.07739475 -0.00092172815 -0.063866444
0000b0 95 c1 b8 bd a2 b7 87 bd ee d7 0a be 54 65 c5 bd
       -0.09021298 -0.06626822 -0.13558933 -0.096384674
0000c0 08 c5 f5 bd 3b f4 5d 3c e1 1b 62 3d 85 2c e4 3b
       -0.12000471 0.013546999 0.05520237 0.006963315
0000d0 13 a5 9d bd c7 83 12 3d ce d9 3f 3d 3b 4b e4 3c
       -0.07697501 0.035770204 0.046838574 0.027867904
0000e0 f7 b2 a4 3c 95 b0 fb ba d1 e8 8c bd 5a dc ad 3c
       0.020104868 -0.0019202406 -0.06880344 0.021223236
0000f0 20 b7 ad bd a7 6b 7b bd 8f 08 81 bc a7 be 3d be
       -0.08482194 -0.061381962 -0.015751151 -0.1852976
000100 35 5d b4 bd 5d b4 a5 3d bf cb 79 3d 1f 76 91 bc
       -0.0880684 0.08091042 0.060985323 -0.01775652
000110 06 73 77 3d b4 f3 86 bd ae a9 14 bd 30 a7 8f 3c
       0.06041243 -0.065894514 -0.03629463 0.017535776
000120 0d 74 0e be cf aa 5d bc c1 2e 16 be 2a e8 7f be
       -0.13911457 -0.0135294935 -0.14666273 -0.24990907

1.df.df.fc1.concat_imag_layer_1.weight f4 [76, 152]
000000 23 c2 1e 3e b0 9c f4 bd f1 a3 c1 3d 71 c1 c9 bd
       0.15503745 -0.11943948 0.094550975 -0.09851349
000010 81 92 82 bd c6 1d 52 3c b3 e9 09 bd 63 9f b3 bd
       -0.063756 0.012824481 -0.03367014 -0.08770635
000020 2a 80 b8 3d 8e b6 fb 3c 5a d3 a1 3c ea 4c 55 bd
       0.0900882 0.030726697 0.0197541 -0.052075304
000030 e2 58 44 39 a0 0b 8b 3c 5e 79 09 be cc 72 03 be
       0.00018725128 0.016973317 -0.13425204 -0.1283676
000040 ff bd 67 3b 66 55 77 3c bd 24 50 3c e8 0d e2 bd
       0.003536105 0.015096044 0.012704072 -0.11037809
000050 b1 22 d7 3d 9e a9 46 bd a7 b6 e7 bd b0 14 2b 3e
       0.10504664 -0.048501603 -0.11314135 0.1670711
000060 d4 20 a6 bd a8 3a f8 bd 89 b6 05 3e f3 aa 07 bd
       -0.0811173 -0.12120563 0.13057913 -0.033122014
000070 81 27 6f 3d 61 27 06 3c d7 7d d6 bb 65 ca d4 3b
       0.058387283 0.0081881 -0.006545763 0.006493854
000080 88 56 aa bd 21 a4 dc 3d e4 68 9d 3c 2f 0b d8 bd
       -0.08317286 0.107734926 0.019215055 -0.10549008
000090 c9 5b 05 bd 3a c0 fc 3d ab bb 48 be a6 f5 be bd
       -0.032558236 0.12341352 -0.1960284 -0.093241975
0000a0 06 2d e3 bc 79 e4 8d bd 8b b8 df bc 8d d7 c5 3d
       -0.02773143 -0.06928343 -0.027309677 0.09660254
0000b0 e6 3b a6 bd a8 b2 06 bd f0 0a 0a 3d 98 4a 56 bd
       -0.081168935 -0.032885224 0.033701837 -0.052317232
0000c0 78 3d 68 3d 6c ca b8 3b 01 04 22 bd e3 4e af bd
       0.056699246 0.005639365 -0.0395546 -0.08559968
0000d0 23 b8 76 bd 6a 6c bc bd 1d de 1b be 1e 32 34 be
       -0.0602342 -0.09200366 -0.15221448 -0.17597243
0000e0 2c 50 4a bd ae c4 e7 bd 9e bb 80 bd 57 7d 2d 3e
       -0.049392864 -0.113168105 -0.06285785 0.16942345
0000f0 1e d4 a7 3d 73 3e 5c bd de 32 f3 3d 03 f9 c1 bd
       0.08194755 -0.053770494 0.118749365 -0.09471323
000100 43 40 19 bd ef a2 fc bd 59 64 03 bd 9c 28 1d bd
       -0.0374148 -0.123357646 -0.03207812 -0.038368806
000110 68 60 8e bd 14 89 c4 bd 5b af e0 bd 28 71 5a 3c
       -0.06951982 -0.09596458 -0.109709464 0.013332643
000120 7d a4 96 bd a6 49 8c 3d d6 b1 e4 3d 5e 6e 87 3d
       -0.073555924 0.06849985 0.11166732 0.06612848
000130 ca 98 7d bc 44 bb f6 3d f7 8d 24 3e fa 52 f5 3b
       -0.015478322 0.12047437 0.1606978 0.007486698
000140 98 a1 cb 3c fe 99 05 3c 60 d4 ce bb 75 0c 03 3c
       0.024857327 0.00815439 -0.006311938 0.007998575
000150 36 3e 1f bd 5b e5 8b 3b 15 ba 90 bc ed 87 2f bc
       -0.03887769 0.0042692847 -0.017666856 -0.01071356
000160 3c e8 02 3e bc 8c 91 3c 6f 9c 09 bc 6f 65 13 3d
       0.12783903 0.017767303 -0.008399113 0.035985406
000170 ea 7a 20 be 83 d7 14 bd 83 e1 f1 3d a8 be 22 bd
       -0.15671888 -0.03633834 0.11810591 -0.039732605
000180 60 7a 72 3d be ce e8 bd 3b 7f 6e 3d 09 de de 3d
       0.059198737 -0.11367558 0.058226805 0.108821936
000190 14 04 a4 3d 92 41 d8 3d 81 60 c4 3c 0f 99 04 3e
       0.0800859 0.105593815 0.023971798 0.12949012
0001a0 2b 0c e1 bc 6b 4f 43 3c 55 5f 80 bb 2c 6c 8e 3c
       -0.027471622 0.01192079 -0.0039176145 0.017385565
0001b0 e6 8b 84 3d cc 48 9e bd aa ce bc bd 63 23 d7 3c
       0.06471996 -0.07728729 -0.092191055 0.02626199
0001c0 c3 c3 b9 3c 0a 80 c5 3c e6 30 00 3e 46 e6 0c be
       0.022676354 0.024108905 0.12518653 -0.13759717
0001d0 81 15 88 3d 58 75 93 bc 0c 29 ab bd 49 b5 a6 3c
       0.066447265 -0.01800029 -0.083574384 0.020350115
0001e0 be 2e 1b 3e 3c e4 b0 bc 42 30 10 be 15 30 e5 3c
       0.1515455 -0.021593206 -0.14080909 0.027977029
0001f0 32 07 ac bd c9 73 07 be b3 fa e7 3d 7c 29 f6 3d
       -0.0839981 -0.13227762 0.11327114 0.12019631
000200 bc 1d 42 bd b6 11 b8 bd c6 99 01 bd c9 e8 ca bd
       -0.04739164 -0.08987753 -0.03164079 -0.099076815
000210 6b fa e2 bd bc a2 5b 3b fa 77 15 bd fa c5 f3 3d
       -0.1108292 0.0033513745 -0.03649137 0.119029954
000220 f5 74 8b 3b 60 f0 07 be 57 f3 aa bc 56 0c b7 bd
       0.0042558857 -0.1327529 -0.020867987 -0.089379
000230 f8 a7 7c 3c f8 66 0c 3e 1b 1f 88 bd 75 9b 9b 3d
       0.015420906 0.13711154 -0.06646558 0.075980105
000240 4f 1c d3 bc e5 b3 7a 3c 48 42 0a 3d 4f f4 a0 3d
       -0.025770335 0.015301679 0.033754617 0.07859098
000250 3a 8e a7 bd 55 c9 da bd 2b 5a a2 bc 04 44 40 bd
       -0.081814244 -0.10682932 -0.019818386 -0.046939865
000260 2c 91 a5 bd 84 0d 77 bd 8a 98 4b bd 40 68 d7 3c
       -0.0808433 -0.060315624 -0.04970602 0.026294827
000270 0c 79 c1 3d 31 e3 83 bd 2a 1f eb bd de 0f 5e 3d
       0.09446916 -0.06439818 -0.114805534 0.05421435
000280 80 cb 7b 3e a7 14 fa bd 48 f2 2b 3e 19 b4 97 bd
       0.24589348 -0.1221097 0.16791642 -0.07407398
000290 1f 2c 09 be 4c 43 6c bd e1 18 80 3e f9 fd 30 bc
       -0.13395737 -0.057681367 0.2501898 -0.010802739
0002a0 f2 54 3d 3d 55 ef 3e 3d 33 67 04 be da f5 69 bd
       0.04622359 0.046614964 -0.12929992 -0.057119228
0002b0 d5 bd af bb b3 c5 01 3b 36 7c fb 3c 6a 7d ea bd
       -0.005363206 0.0019801676 0.030698877 -0.11449702
0002c0 7a de 4c bd 4a ec 00 3e e1 21 e7 3c 47 90 5d 3e
       -0.050016858 0.12590137 0.028214397 0.21637069
0002d0 79 78 10 bd c6 45 40 bd dc bb b8 bc de f8 4e 3d
       -0.03527114 -0.04694154 -0.022550516 0.050530307
0002e0 b9 1c e8 3d ab f1 c1 bd 12 86 1d 3e e5 a8 9a 3c
       0.113336034 -0.09469923 0.15383175 0.018879363
0002f0 a5 a0 c1 3d 9b cf bf bd da b5 fe 3d a6 11 2c bc
       0.09454469 -0.093657695 0.12437029 -0.010502255
000300 1e 7c 82 3c 0f 52 5e 3b 1a 62 4b be 39 f4 1c bd
       0.015928324 0.0033923422 -0.19861642 -0.038318846
000310 28 73 57 bd 0f a2 83 bc e3 9a 05 be e1 aa 77 3c
       -0.052600056 -0.016068486 -0.13047366 0.015116424
000320 e2 98 65 3c 48 91 46 bd 6b 50 9b bd bf 7e f0 3d
       0.014013501 -0.048478395 -0.07583698 0.11742925
000330 61 8e 4a 3d 76 03 64 3e a5 09 b4 3c d2 d1 a2 bb
       0.04945219 0.22266945 0.021977255 -0.00496886
000340 99 d6 82 bd f8 e6 f7 bd 4b 07 bd bd c7 1a 99 bd
       -0.063885875 -0.12104601 -0.09229907 -0.074758105
000350 62 34 07 bd 88 b4 81 3c 54 0e 32 3d 0d 7b 88 bc
       -0.03300894 0.015833154 0.043470696 -0.016660238
000360 26 6c ae bb ea b9 83 3d 69 d9 c2 bb bb d3 9c 3c
       -0.005322951 0.06431945 -0.0059463275 0.01914393
000370 a9 d8 86 3c 0e d5 24 3d c7 61 00 3e 1d 85 0b bd
       0.016460733 0.040242247 0.12537299 -0.034062494
000380 57 82 89 3a 97 71 4e bd 35 a1 07 bd 3e d2 0c bd
       0.0010491115 -0.050401296 -0.033112723 -0.03438019
000390 ff d5 14 3d bd 1e d8 bd e6 ed 49 bd 54 58 32 3c
       0.036336895 -0.10552738 -0.049299143 0.010885317
0003a0 07 b5 83 3c c8 68 4a 3d 3c 8b ed bd 72 9b 0d be
       0.016077532 0.049416333 -0.115988225 -0.13828829
0003b0 bb 6e 8d bd 97 05 ff 3d d6 f9 c4 bd f0 bf 21 3e
       -0.06905886 0.12452238 -0.09617965 0.15795875
0003c0 33 a7 bc bd a7 96 18 bd a2 ac 06 bd bf e5 f5 3c
       -0.09211578 -0.03725305 -0.03287948 0.030016778
0003d0 a5 4f 09 3c 69 46 84 3d 32 ec 64 bd c9 65 ac 3d
       0.008380805 0.06458742 -0.055889316 0.084178515
0003e0 83 37 f2 3a d3 ee 52 3e ae c5 96 bd e4 47 20 bd
       0.0018479679 0.20598917 -0.07361923 -0.03913106
0003f0 4f fb 32 bd ba ea 70 3c c4 62 dd 3c 47 21 34 be
       -0.043696698 0.014704401 0.027024634 -0.1759082

1.df.df.fc1.concat_imag_layer_1.bias f4 [76]
000000 87 b4 52 3d 28 d4 83 3d 72 f4 7a 3d f1 4e 59 bd
       0.051441696 0.0643695 0.061268277 -0.0530538
000010 cf 1e 51 bd 0a 55 fc 3c 65 26 80 3d 80 52 3a bc
       -0.051054772 0.030802269 0.06257323 -0.011372209
000020 a3 3a 1a bc 55 37 5d 3d 59 eb 7c bd 29 7b c3 bc
       -0.009413394 0.054007847 -0.061747883 -0.023862438
000030 84 4a 8d bd b7 7f 5a 3d 6a a0 da bd ad 0a c0 bd
       -0.06898978 0.053344455 -0.10675128 -0.09377036
000040 b0 47 b6 3c 88 bf 10 3b 8d f2 c6 3d 4a 8e 44 bd
       0.02225098 0.0022086818 0.09714232 -0.04798726
000050 d5 fb 02 bb 98 b4 9a bd c5 ee 7d 3c b2 0e e2 3c
       -0.001998653 -0.07553977 0.015498822 0.027594898
000060 27 7b af bd 50 85 c0 3c b5 b2 4a 3d c2 6d 81 bd
       -0.08568411 0.023501068 0.049486835 -0.06319763
000070 de b7 f8 3d fd 16 33 3d d6 c8 e9 bc 0e 25 3b 3d
       0.12144445 0.043723095 -0.028538149 0.045689635
000080 24 87 1a bd 01 45 31 bd d0 24 92 3d a8 f4 52 3d
       -0.037726536 -0.043278698 0.07135928 0.051502854
000090 3b 48 d3 3d b3 6d 0f bd 97 70 ce 3d 34 46 d0 bd
       0.10316511 -0.035016727 0.100800686 -0.1016964
0000a0 78 a9 89 3d b4 6c 00 3d 3c e2 ef b9 8d f7 ab 3d
       0.06721777 0.031353667 -0.0004575419 0.08396826
0000b0 58 17 c2 3c 05 11 b7 bc 2b 6d 4b bd 6e 1d 90 3c
       0.023692772 -0.022346983 -0.049664658 0.017592158
0000c0 30 19 30 3d be 42 e3 bc 13 ac 97 bd cd 53 91 3d
       0.04299277 -0.027741786 -0.074058674 0.07096062
0000d0 0c e5 71 3d 67 6e 9e bd a0 f0 03 3e 99 8a 2b bc
       0.059056327 -0.07735901 0.1288476 -0.010470056
0000e0 47 7c 6d bc 35 0b e2 bd d6 27 10 bd 0c f8 a2 3d
       -0.014494962 -0.11037294 -0.03519424 0.079574674
0000f0 f7 4d c0 bb 7e e0 f7 3c 6c 61 5e 3d c1 f3 58 ba
       -0.005868669 0.030258413 0.054292127 -0.0008276068
000100 dd a0 28 3c 3d c4 07 3d ba 0f 74 3d 4a f8 1b bd
       0.010292259 0.03314613 0.05958531 -0.038078584
000110 21 48 ab 3d 06 e1 0f bb 1a 44 e2 3d 93 c2 43 3d
       0.08363367 -0.0021954193 0.110481456 0.047792982
000120 da 0e 80 3d f8 59 25 3d d7 3f 52 3d 9f 18 c4 ba
       0.06252833 0.040369004 0.051330414 -0.0014960951

1.df.df.fc2.weight_block_1.weights1 f4 [2, 76, 76]
000000 c9 41 22 bd ab 84 96 bc 0d dd c7 3c 90 62 7c 3c
       -0.03961352 -0.018373808 0.024397397 0.0154043585
000010 66 95 66 3d bc 63 3e bd 54 1e 17 3d 7b dc 45 bc
       0.05629482 -0.046481833 0.036894158 -0.012076492
000020 76 e4 dc 3b e4 0d f2 bc 1d e7 55 3c 93 bb b0 3c
       0.006741102 -0.02954764 0.01305559 0.021573817
000030 dc 6b 4c bc d0 c4 73 3d ea 4f d1 3c de 81 47 3d
       -0.012476888 0.059513867 0.025550801 0.048707835
000040 8e a3 5f 3c ef 79 ce 3d 74 cc 93 3d 8c b6 82 bd
       0.013649834 0.10081851 0.07216731 -0.06382474
000050 73 91 18 bd be 59 1d bd 11 3e dc 3c 85 6d 2c 3d
       -0.037248086 -0.038415663 0.026885064 0.042096633
000060 c4 e3 17 3d b9 a9 3e bd 2a d1 71 bd 0a 3e a5 3d
       0.03708245 -0.04654858 -0.059037365 0.08068474
000070 6b 8a 4f bc 61 ad 90 bd a5 df 08 bb f7 36 5e bc
       -0.012667279 -0.070643194 -0.0020885256 -0.013562909
000080 f9 75 a7 bd 43 e3 46 3d 9c 27 15 bd 3d 8e dd bb
       -0.081767984 0.048556577 -0.036414728 -0.006761341
000090 40 e5 21 bd b2 83 08 3c 27 6c 4f 3d 01 fe 8b bd
       -0.03952527 0.00833218 0.05064025 -0.06835557
0000a0 08 57 d1 3b 41 24 ea 3c 42 e5 0f 3c 27 20 3a bd
       0.0063885488 0.02858174 0.008782687 -0.04544082
0000b0 0b 1a 97 3d 5c 65 7f 3c 84 d3 a0 3d dd 6f 58 bc
       0.07378014 0.015588131 0.078528434 -0.013210264
0000c0 ad 6b eb bc f3 d1 45 bc e2 cd 82 3b 98 3d d1 3c
       -0.028737867 -0.012073982 0.0039918283 0.025542066
0000d0 01 36 32 3d be 13 45 3d 5f 57 d1 bc 2e 62 91 3d
       0.043508533 0.04811453 -0.025554357 0.070988044
0000e0 99 7e 0e bd 4d 47 39 bd 7f 0b 6e 3d 94 eb 76 bd
       -0.0347887 -0.045234013 0.058116432 -0.06028326
0000f0 46 1d dc 3b d5 e7 d2 3d 11 eb c9 bc 1a 76 97 bd
       0.006717357 0.10298125 -0.024648221 -0.07395573
000100 e7 ec 28 3d c2 5e b7 3c f5 33 84 3c de a9 d9 3c
       0.041241553 0.022384051 0.016138056 0.026570257
000110 d2 ad f3 bb ec d2 d4 3c c6 e6 91 3d d4 23 e0 3c
       -0.0074364925 0.025979482 0.07124095 0.027360834
000120 ba c7 09 3c ef 0c 4d 3d a8 5e 77 3c ac ff a8 bc
       0.008409435 0.050061163 0.015098251 -0.020629726
000130 bc 74 ae 3d bd 8c 0c 3d 76 d8 05 bd 7b 10 d3 3d
       0.08518359 0.034313906 -0.032677136 0.10305878
000140 29 01 16 3d ef b5 84 bc 5d 50 cd 3b 1c 3b 10 bc
       0.0366222 -0.016200034 0.0062656836 -0.008803155
000150 14 53 ad bb fc 66 09 3e d4 e0 59 3c f9 c3 0b bc
       -0.0052894447 0.13418192 0.013298232 -0.00853061
000160 f7 87 a6 bd 40 ab 97 bd ca b2 83 bc ea 01 fd 3d
       -0.08131402 -0.0740571 -0.016076464 0.12353881
000170 15 5b fa 3b 51 16 17 3e 8e 03 11 3d 17 fb 45 3b
       0.0076402524 0.14754607 0.03540378 0.0030209476
000180 f7 c6 bc bd ef c2 37 bd 34 bc ba 3c 0a b7 28 3e
       -0.09217637 -0.044863638 0.02279482 0.16476074
000190 c3 ec bd bd b3 4c bc 3d e5 9e 06 bd db 0f ae bd
       -0.09273674 0.09194317 -0.032866377 -0.08499118
0001a0 86 5b 6e 3c df 60 91 3d e6 97 d2 3c 1e c1 47 3d
       0.014548188 0.07098555 0.025707196 0.048768155
0001b0 4c 79 1a 3d 83 9d 80 bd bb 1c 24 bd 83 ff 54 3d
       0.037713334 -0.06280043 -0.040066462 0.052001487
0001c0 68 75 bf bc e5 a8 47 3d db 4e 85 3b bb ca 4b bd
       -0.023371413 0.048745055 0.004068238 -0.049753886
0001d0 75 81 3d 3d 26 7e e3 3c be 82 5e bd 3e 8c 82 bd
       0.046266038 0.027770113 -0.054323904 -0.06374405
0001e0 ff 6a 96 3d e6 c4 43 bb 95 d2 69 bd c9 5a 26 bd
       0.07344627 -0.0029872 -0.057085592 -0.040613923
0001f0 d4 f5 1f bb 56 7d 53 bd ed 2a 9b bd 18 a4 5a bc
       -0.0024408 -0.0516332 -0.07576547 -0.013344787
000200 e0 fc 12 3e 28 b0 d5 3d 46 97 cd 3b 5e 11 31 bd
       0.14354277 0.1043399 0.0062741367 -0.043229453
000210 3c 17 25 3c 3d 9f 93 bb dd 58 0a bd b1 5c e5 bd
       0.01007634 -0.0045050667 -0.033776153 -0.1119932
000220 98 b8 c4 bc ca e0 ee 3c 12 2d 0b bc 56 d9 a6 bc
       -0.024013802 0.029159922 -0.008494632 -0.020367306
000230 82 d9 88 3c 54 69 cd bd b8 20 3f bc d7 f5 64 3d
       0.016705278 -0.10029855 -0.011665516 0.055898514
000240 e3 76 51 bc 34 48 0f bc 20 5a 97 3d de 46 6b bd
       -0.012784692 -0.008745242 0.07390237 -0.05744063
000250 91 f2 1a 3d 0c a7 2b bd 41 ad 31 3b 1c b7 86 3d
       0.037828986 -0.041907355 0.0027111324 0.06577894
000260 2d 31 27 3d ef 87 b3 3d 4f 1c 51 3d 3b 66 48 3d
       0.040818382 0.08766162 0.051052388 0.04892562
000270 05 4a 28 3d 30 3a ca bc d3 70 7f 3d fd 41 a1 3d
       0.041086216 -0.02468595 0.062363457 0.078739144
000280 6e 02 38 3c b1 22 55 3d 9b 9f 19 bd 48 01 0b bd
       0.011231048 0.052035037 -0.037505727 -0.03393677
000290 cd bb df 3b 2c 7c d7 bd cd 86 c8 3a 7b 3a 48 3d
       0.0068278075 -0.10521731 0.0015298963 0.048883896
0002a0 47 cf 30 3d 13 4b 39 3d 9e 7c 0d 3d 51 e3 76 3d
       0.043166425 0.045237612 0.034542672 0.06027538
0002b0 0c 65 43 bd 70 ad 1a be b4 fa b3 3c c0 a7 1c 3d
       -0.047703788 -0.15105224 0.02197013 0.038245916
0002c0 5c cd c3 3c 22 b7 94 3b 17 a0 5b bd d5 92 1c bd
       0.023901634 0.0045384327 -0.05361947 -0.038225967
0002d0 68 61 09 bd 60 51 03 bd f4 97 af 3d 2a a8 d7 bc
       -0.03354016 -0.032060027 0.08573905 -0.026325304
0002e0 60 8a 39 3c 10 50 16 3d 36 c1 7c bd 50 92 40 3d
       0.011324495 0.036697447 -0.061707698 0.047014534
0002f0 2a 53 8a 3d d6 2c f8 bc 74 93 5d bc 36 ba f5 3b
       0.067541435 -0.030294817 -0.013523925 0.0074990047
000300 b5 65 61 3d ec 42 fc 3c 77 6f 7a bd fe 3f 43 3c
       0.055028636 0.03079363 -0.061141457 0.011917112
000310 46 9d 54 3c 93 69 0f bd 09 57 b0 3c cf 5a 18 3d
       0.01297695 -0.035012793 0.021525877 0.037195977
000320 49 a9 b1 3d e4 fb d6 bc 79 58 1a 3d 26 5a 27 3e
       0.08674867 -0.026243158 0.03768203 0.16342983
000330 3d ec cb 3c 6e 74 34 bc 74 b1 b3 3a 8b 45 a9 3d
       0.02489292 -0.011014087 0.0013709501 0.082652174
000340 aa 86 b3 3d fd 10 b6 3b 6e 72 9c 3c 90 e5 9b bd
       0.087659195 0.0055562244 0.019097533 -0.07612145
000350 7e 26 cc bc 25 04 28 3d 4f 7f af 3c a3 eb f1 bc
       -0.024920698 0.041019578 0.02142301 -0.029531306
000360 78 b8 1a 3d 2b ae 2a 3d c5 db 02 3c 3d c4 81 3c
       0.03777358 0.041670006 0.007986967 0.015840644
000370 98 e6 05 3e ad 72 85 3b bb 2a ce 3d 12 56 67 bb
       0.13076246 0.0040725083 0.10066744 -0.0035299105
000380 71 61 76 bc 3d 7d 40 3b b0 d9 06 3c df 80 e5 bc
       -0.01503788 0.0029371523 0.008230612 -0.028015552
000390 ae bf 7b 3d a4 64 88 bc a8 85 0b 3d f8 d9 76 bc
       0.061462097 -0.016649552 0.03406301 -0.015066616
0003a0 73 9d 44 bc 05 7c 54 3c 6d 7b 12 bd 34 3f b3 3a
       -0.012000429 0.012969022 -0.03576224 0.0013675452
0003b0 b0 90 75 3d 7d 3d 9d 3c df 31 4b 3d b0 cd 1d 3c
       0.059952438 0.019194359 0.049608108 0.009631559
0003c0 98 34 e4 bd 52 98 29 bb 25 29 e1 bc 34 b8 48 bc
       -0.11142844 -0.0025878143 -0.02748544 -0.012250949
0003d0 43 0e 52 3d 42 3c bd bd fb d0 78 bc 2f e5 81 3d
       0.051283132 -0.09240009 -0.015186544 0.063425414
0003e0 fa ac 7e 3d 88 49 98 3d 7a e0 0c 3d 27 dc ae bd
       0.062176682 0.074359 0.034393765 -0.085380845
0003f0 d3 93 1a bd 3b 49 b5 3c ae d7 fa 3d ac 4f eb bd
       -0.037738632 0.022129646 0.12248169 -0.114898056
