model/4.pt (torch, 694923 bytes, 30 tensors)

1.df.df.fc1.weight_block_1.weights1 f4 [2, 76, 76]
00000000: 55d6 9e3d e5f6 d93b 15d6 583c 734d 23bc
00000010: 7607 40bd b7ca dd3c 0836 2d3c 4e17 9a3d
00000020: 743c 4b3d e841 f93b 27d6 443b 02f1 41bd
00000030: ffca 84bc 0e30 0e3c 5e4f d93c e7ed 693d
00000040: 2992 273d 38c1 72bc a0ba 023d 12a2 44bb
00000050: 63e9 9abc a608 0cbd 868d debc 1106 fd3c
00000060: 65e2 333d bc44 d73c 9555 7b3d 06dd 3e3d
00000070: e22d d43c 90c7 0fbe 440a 6c3c 4b2d 9a3d
00000080: 0302 a33d d08d c43b f426 d03c 01d8 e83c
00000090: bb7b 26bd 98b1 783d 278d af3c 9093 9bbd
000000a0: 5ef2 d9bc 0a1c e3bc 5776 8ebc 3961 8f3d
000000b0: dd44 8dbd 5d46 55b9 c19b ae3c a75c 8dbd
000000c0: 3e6c f33c ab0b 02be 52c9 27bd f3c5 68bc
000000d0: 8c01 b2bc cdf3 273c 7886 07be f354 b4bc
000000e0: ea21 f93c d7cc 71bd 8837 b6bc 7b75 043d
000000f0: cdfd 0f3d eb19 a5bc b5a3 4b3d c608 d3bc
00000100: 032d 9a3b 8b74 3e3c ea17 003d 0bbb d2bd
00000110: 3abb 1b3d c5a2 0b3d 5878 f5bb 08b9 cd3c
00000120: cf4b 3f3c 9c45 093d 1d33 1fbc 87b0 52bd
00000130: 8cfb 0cbd 91b2 103d 1157 cf3b cc0d 0c3d
00000140: 6834 00bc 9f18 453c 85eb 7b3b 78f8 39bd
00000150: a1fc 3dbc c259 acbb 71ed 843b 90ed ba3c
00000160: 25b4 29bc 78d7 033c 1340 303c 8d95 df3b
00000170: f2d4 9e3a 67fa d43c 85d9 203c 69ba 8f3c
00000180: e735 a23c ff17 113d 41b5 ce3c d43d 3f3c
00000190: 26c1 a63b 9655 6a3c a2f6 7c3b e2b5 04bc
000001a0: e8ea 923c b54d eaba 887a 563c edac fdbb
000001b0: 3656 503c 1a15 cbb9 f615 903b 9963 da3b
000001c0: f62f 383d b1f7 ac3c b248 f03b 0eff da3c
000001d0: ecd8 ff3c f6ec d73c 50ca a83c b99e 20bd
000001e0: c725 793d 01e0 463c eec5 bbbb 862b 38bc
000001f0: e50b 983b a67f 923d f489 853d 5f1f 083d
00000200: f7ce 193d 384b dd3c af66 923d 3e06 3f3d
00000210: 2ee3 e3bb a6eb 893d c557 5d3d be4e 01bc
00000220: b823 e63b 70c8 5c3d 0201 a13b 015a 543d
00000230: f808 e33c 9c65 083d 66bb b13b 4ef8 943c
00000240: a4b1 44bc a0c7 94bc 17c3 6f3c 3155 10bc
00000250: 89ee eb3a c905 163b 945a b63c c2de 153d
00000260: 941d 9f3c 4067 ba3d d213 073d e321 b13c
00000270: 2bb8 5d3c c28f 4e3b 2fdb 3cbd 46d0 1bbe
00000280: 2877 6ebc 7846 ed3b c673 f8bb d745 0abe
00000290: 2aac 3cbd ecec 0b3d 3242 573d 3abc aabd
000002a0: d315 a13c 2914 093d bb96 bc3d f3b2 2f3d
000002b0: 7d02 823d 8c4a 343c 3312 d53b e84c 313d
000002c0: dbf9 0dbe 7d78 c53d 4c4e dc3a 61d5 e7bc
000002d0: a336 0f3b 1fd6 8d3d 1c1d 99bd 630c 963d
000002e0: b547 36bd 89ec 25bd c903 e43d 188c a33a
000002f0: ab69 86bd ecf9 c2bc ecbb cd3c f528 213d
00000300: a567 193c fc48 4bbd 4884 893c d841 1c3c
00000310: b64d ecbc c295 553d 7ddd eebc 37a7 8ebd
00000320: 3514 f8ba 65cd a23d 4860 5a3c b70e 3b3d
00000330: 8bc7 60bc 7eba 6cbc 0414 d1bb a5d5 db3b
00000340: a55c 0bbd f3f5 cbbd 5cbc afbc 629c 593d
00000350: 04bb 623d bbf6 233d ddd3 453d 1ae6 71bd
00000360: 889e 453c f936 9e3d 6266 893d fdfc a43d
00000370: befe 61bd 7277 d2bc a3b9 e33d 5c71 1c3d
00000380: 1153 633c 7f35 08bd f3d1 45bc f7c4 c4bd
00000390: f25f 9ebd cf35 91bd 5fd6 103c 04fb 91bb
000003a0: 592a 143e d994 c6bd 213b 0dbd 1564 abbd
000003b0: 3a28 99bd fdc8 4d3d cc3e 243d 0bc3 80bd
000003c0: 18bf 5e3d 039d af3c 1236 0dbd 2c23 5bbe
000003d0: a4b1 55bc 6bd6 4d3d 1b17 22bd 2d13 f53c
000003e0: 1a9a 333c f4ff 973c 82f8 adba 038c fbbb
000003f0: 0813 4abe 7643 b7bc ca49 0abe 1952 3dbc
0.07755724 0.0066517466 0.013234635 -0.009967196 -0.046882115 0.027074201 0.010571964 0.07523976
0.0496182 0.0076067336 0.0030034871 -0.047348984 -0.016210077 0.008678449 0.026527103 0.057111647
0.040910874 -0.014816575 0.03191626 -0.0030003828 -0.018910116 -0.034187935 -0.027167093 0.030886682
0.04391708 0.026277892 0.061360914 0.046597503 0.025900785 -0.14040971 0.014406744 0.0752817
0.07959368 0.0059983507 0.0254092 0.028423311 -0.040645342 0.06071624 0.021429611 -0.07596505
-0.026604827 -0.027723331 -0.017390413 0.070009656 -0.068979 -0.00020339475 0.021314504 -0.06902438
0.0297147 -0.12699763 -0.04096348 -0.014207351 -0.021729253 0.010250998 -0.1323489 -0.022013163
0.03041168 -0.05903324 -0.022243276 0.0323386 0.035154153 -0.02015396 0.04971667 -0.02576102
0.004705073 0.011624466 0.031272806 -0.10289582 0.03802035 0.034090776 -0.0074911527 0.025112644
0.011675789 0.03351365 -0.009716776 -0.05143788 -0.03441958 0.035326544 0.006327518 0.034192845
-0.007824995 0.012029796 0.003843994 -0.045402974 -0.011595876 -0.0052597234 0.0040566255 0.022818357
-0.010357891 0.008046977 0.010757464 0.0068232478 0.0012117906 0.025998307 0.009817486 0.017544942
0.019801093 0.035423275 0.025232913 0.011672456 0.005088943 0.014302632 0.0038599153 -0.008100005
0.017934278 -0.0017875942 0.013090737 -0.0077415616 0.012715867 -0.000387349 0.004397149 0.006664705
0.044967614 0.021114202 0.0073328847 0.026732948 0.031231366 0.026358109 0.020604283 -0.03921387
0.060827043 0.012138368 -0.005730382 -0.011240846 0.00464009 0.07153253 0.06520453 0.033233043
0.037550893 0.027013406 0.071484916 0.046636812 -0.006954572 0.067343995 0.05403878 -0.007892309
0.007023301 0.05390209 0.00491345 0.051843647 0.027714238 0.033300027 0.005423951 0.018184807
-0.012005243 -0.018161595 0.014633915 -0.008809374 0.0018000166 0.0022891632 0.022259988 0.03658939
0.019423284 0.091017246 0.032977886 0.021622604 0.013532679 0.0031518792 -0.046107467 -0.15216169
-0.014554776 0.0072410665 -0.0075821606 -0.13503204 -0.046062626 0.034161493 0.052553363 -0.083366826
0.019663727 0.03346649 0.09208437 0.04289527 0.06348131 0.0110041015 0.0065024137 0.043286234
-0.13864844 0.09642122 0.0016808002 -0.02829999 0.0021852634 0.06925606 -0.07476255 0.07326581
-0.04450198 -0.04050878 0.111335345 0.0012477664 -0.06563123 -0.023800813 0.025114022 0.0393457
0.00936309 -0.04963015 0.01678671 0.009537183 -0.02884565 0.052144773 -0.029158348 -0.069654875
-0.0018926921 0.07949332 0.013328619 0.04566833 -0.01371945 -0.01444876 -0.00638056 0.006708818
-0.0340239 -0.099590205 -0.021452121 0.053127654 0.055354133 0.040030222 0.04829775 -0.059057333
0.012061723 0.07725329 0.06708981 0.08056066 -0.05517458 -0.025691722 0.11119392 0.038194045
0.013874785 -0.033254143 -0.012073982 -0.096078806 -0.07733144 -0.07090341 0.008840173 -0.004454972
0.1446928 -0.09696359 -0.034480218 -0.083686985 -0.07478376 0.050240505 0.04009895 -0.062872015
0.05438146 0.021437174 -0.034475394 -0.21400136 -0.013042841 0.050253313 -0.039572816 0.02991637
0.010962034 0.018554665 -0.0013272914 -0.007676603 -0.19733822 -0.022371035 -0.13504711 -0.011555218

1.df.df.fc1.weight_block_1.bias1 f4 [2, 76]
00000000: b679 b33d 0dc2 443d ea7b ab3d f1ea f03c
00000010: 035d 153d fec7 353d cbcf 053d 7b9c d73d
00000020: 2434 e9bc e0b2 393c d565 933d 3431 62bd
00000030: 6979 683d 933a 14bd f00e 87bc d967 0f3c
00000040: 9474 85be 0060 903d 3dc3 283d 3e1b 813d
00000050: da35 243c da6e eb3d 0264 b33d 3e64 33bc
00000060: ffbb e53d 2401 01be 52ca 223d 2ad0 11bd
00000070: ca67 9b3c 9712 29be 4f61 203d cd15 343e
00000080: 4aa7 813d ee71 873d bbbc 5c3c 8a4b 2a3d
00000090: fab3 b63d 10ca 7dbd 99f3 a8bd 0e93 ecbd
000000a0: 73fa a03d 41fc 3a3b e821 983c 63bd c63c
000000b0: dae6 033d d04a 5c3c e20f 24bc 458e b13c
000000c0: 4abb b53c fdfd 84be e1e0 203e 8670 2f3d
000000d0: e6c1 1bbc 5ca5 983d 27da 06bd 309f 833c
000000e0: 30b9 6d3c 08bc 7c3d 0548 823c a625 0d3d
000000f0: 1224 1dbe 859f 373e 9f99 2d3d 6189 773c
00000100: a29d ab3c 1e32 003e e56c 21bc d8cd 3dbe
00000110: 872b b63d 7dba afbb 8893 f8bc e70c 413b
00000120: d51c 97bd fdb8 3a3d ac83 9d3c 64c7 3a3d
00000130: 4ba6 8d3d 2171 99bd e3ee c4bd fe43 7f3d
00000140: 49ea 2b3d bb10 14bc 5949 afbc 660d e5bd
00000150: 243e eebd f25c 08bd 611d a3bd 1264 be3d
00000160: 4c5d 6abd e5a3 e73c 5669 e7bc 2c3e 44bd
00000170: d8a6 5dbe 877c aebc fa9d a63b 28eb 9abc
00000180: 6cf8 543c 11a2 94bd 536b 0e3c 10a8 d53c
00000190: cb32 533c 37e8 03be 953d 313c db0c be3a
000001a0: 6f45 72bd 6440 873d b989 ba3c 1c5c 8a3d
000001b0: d6fa 87bd f33f 1fbd 4201 06bd 2c63 803b
000001c0: e083 55bb d0ec 093d d24c 8fbd ccc3 8b3d
000001d0: 02b9 e13c b617 933c a432 253d 8410 3c3d
000001e0: 3725 4d3d b448 55bb 8741 013d c728 c5bc
000001f0: bc6e 37bc cb2e 45bd 533d 273c 2543 533d
00000200: e5db 2fbc 2a2a 6dbd afd8 803d 097a df3c
00000210: 8187 85bc 16cc 5f3d 4a2c 863c 0dff e1bc
00000220: 1588 0a3d d345 733d 71d5 3e3d fc43 973d
00000230: 12e5 9e3c d0ad ac3b f385 b33c 17be 383c
00000240: 066d 34bd fdf3 2b3c f6e7 0e3d 1eb7 bdbd
00000250: 5b71 a2bd f23b 88bc 6681 6dbc 8251 213d
0.08763449 0.048036624 0.08373244 0.029408904 0.036465656 0.04438018 0.03266887 0.10527893
-0.028467245 0.011334151 0.07197157 -0.055222705 0.05675641 -0.036188673 -0.016486615 0.008752787
-0.26065505 0.070495605 0.04120182 0.06304024 0.010022605 0.11495753 0.08759309 -0.010949193
0.11217498 -0.12598091 0.03974373 -0.03559891 0.018970389 -0.16510998 0.0391553 0.17586441
0.06330736 0.06613527 0.013472731 0.041575946 0.089210466 -0.06196028 -0.082495876 -0.11551486
0.078602694 0.0028531703 0.018570855 0.024260228 0.03220258 0.013445571 -0.010013552 0.021674285
0.022184033 -0.25975028 0.15710784 0.04283192 -0.009506678 0.07453415 -0.03292289 0.016067117
0.014509484 0.061702758 0.015903482 0.034459732 -0.15345791 0.17931946 0.042382833 0.015108437
0.020949189 0.12519118 -0.009852623 -0.18535554 0.08895021 -0.0053628073 -0.030343786 0.0029457153
-0.07378546 0.045586575 0.019227825 0.04560031 0.069164835 -0.07492281 -0.096158765 0.0623207
0.04197148 -0.009037192 -0.02139728 -0.11184196 -0.11632946 -0.033291765 -0.07964588 0.09296431
-0.05721788 0.028276393 -0.02824847 -0.047910854 -0.21645677 -0.021299614 0.0050847502 -0.01891096
0.0129986815 -0.07257474 0.00869258 0.026081115 0.012890528 -0.12881552 0.010817905 0.0014499681
-0.05914825 0.066040784 0.02277075 0.0675585 -0.0663964 -0.038879346 -0.032716043 0.003918072
-0.0032579824 0.033673108 -0.06997074 0.06824455 0.027554039 0.017955642 0.040331498 0.045914188
0.05008432 -0.0032544555 0.031556632 -0.024067296 -0.011195835 -0.04814033 0.010207492 0.051577706
-0.010733579 -0.05790154 0.06291329 0.02727987 -0.016299965 0.05463799 0.01637854 -0.027587438
0.033821184 0.05939276 0.046590272 0.07386014 0.019396339 0.0052697435 0.021914458 0.01127579
-0.044049285 0.010495183 0.034889184 -0.092634425 -0.07931777 -0.016630147 -0.014496183 0.039384373

1.df.df.fc1.weight_block_2.weights1 f4 [2, 76, 76]
00000000: 4c0b 873d 1175 483c a3c6 453d a2a4 0e3d
00000010: 2b8f d33c 2b89 503d 4010 c8bc 5d3d 303d
00000020: 4e69 23bd 0bc4 d7bc a486 02bd 94eb 663a
00000030: de1d b03b 3152 b13b 189c c23b 29a1 053d
00000040: dc43 dcbc f1e6 09ba dac9 903c e394 4c3c
00000050: da3e 4e3d 8a85 8a3c de98 0b3d 4926 2d3d
00000060: 7d0b 39bb e8a5 753b de80 a3bc 4e3e 8c3c
00000070: 7731 babc 2a80 86bc f564 fdbb 7d54 8a3d
00000080: 732b 3c3c 73b9 f23a 71d8 20bc 6eeb 04bc
00000090: 9354 91bd 620a 3d3d 6fc1 ed3c 4993 c9bb
000000a0: efa9 db3c b49b 253b 9bd5 d8bc 4d1d 66bd
000000b0: 16b9 8f3d 5bf4 6c3d 5d9b ff3b 309c 35bd
000000c0: d637 933d cbb3 48bd 0d39 f9bb 5bb4 643d
000000d0: 2c32 733b 6d2a 16bd a120 4b3b a00f 91bd
000000e0: fc8e 09bd ce67 773b 1775 abbb 30c3 e13c
000000f0: 1022 7cbc 2fb8 2dbc 073f a33d fbfb aabc
00000100: 8bfb 92bc 8f60 df3d 67d3 0c3d 2174 c53d
00000110: 0714 2c3d 647a edbc 61a1 413c 740b 1bbc
00000120: 24d7 22bd b8d1 853b a2b8 3d3d 6a4c 753c
00000130: 7e51 f23b cb6e 4d3c 38ce 9a3c 213e 60bc
00000140: 36d9 be3c e2e0 fabc 88da b23c b25c abbb
00000150: 621e 5a3b f3d2 d83b 4774 6e3d 2e27 de3c
00000160: 0bd8 cb3c cb25 c63c 3096 5c3d a9ac 463c
00000170: 7279 333d 12f8 f93c 0565 3bbc 5c54 08bc
00000180: fa63 39bc a670 45bc 4f4e 96bc fa90 543c
00000190: c6ae cd3c e6fe e23c 714c 043d a178 133c
000001a0: 4601 ae3c ec43 5d3d 8be7 37bc bb28 33bc
000001b0: ea91 7bbc f2bc 173d f3d6 c93c 7ed6 a43c
000001c0: f434 c4bb 157e c03b 9fe5 ec3b 74ff c33c
000001d0: ce80 963b e65a 8f3b 65e0 1c3d c4be 3b3d
000001e0: 71b4 bfbc 192b 9f3a b43d f93c 4aaf 1e3d
000001f0: 8d15 66bb 0c7a 853d 6bf8 ea3a 1fcb 253c
00000200: 433e b23c b461 383d b19d 3c3c b440 973d
00000210: a5e5 813d 57ef d43c ae0f 3c3c 2dbf 01bc
00000220: 0f10 153b d063 a83c fb3f c7bc fa02 093d
00000230: 5fb8 003d e8ae ad3b 8b3b c7bb 1104 19bd
00000240: 0b27 093d da40 0a3d 9327 4d3c 7504 d8bc
00000250: d079 2d3d c8db 843c dd37 d63c d22e 8a3c
00000260: 8462 1e3e 938d 1c3c d7e4 183d 1058 d4bd
00000270: 7914 473d 7d6c 2abd 7367 763d 2088 873c
00000280: 3dd9 aebd 1702 2f3a fba2 ffbd 847b d43c
00000290: 778b fb3d d160 ccba 2626 643c faf4 e13d
000002a0: d492 11bb f48c b6bc 15d3 a93d 049e 56bb
000002b0: 1f05 7fbd 71f3 af3d 67e5 96bc 7976 56bb
000002c0: 407a 713c 1916 61bc b529 683c 138e 02bc
000002d0: 53ce 483d 23d0 cebc 06c7 163e 78c5 883d
000002e0: 25a3 09bd 629b f93b 0e73 56bd 0f41 bc3b
000002f0: 7cb8 4dbc 28e2 833d 82cb 943d c74d 64bd
00000300: 3c98 3bbc 2aba 78bd 999a df3c 22ee 71bb
00000310: 7e97 0abd cb4c 97bc a11a 5a3d a394 87bd
00000320: d700 c13d e3fd d8ba 930f 7cbd 29c6 4e3d
00000330: ad2b 8fbb ac99 c43c 8107 4d3d 3ccb fcbc
00000340: 8866 3a3d 211d 503d 7613 863c 33de 85bd
00000350: acbd dc3c e911 ffbb 17ae 57bc 0f8b dc39
00000360: ab29 0d3d 5041 b1bc 686a 87bb 0b9a fe3c
00000370: 5480 0d3e f287 4e3d eaea 653c bd2f 7d3d
00000380: d2fa 20bc 361e 023d 9450 1c3d e345 293c
00000390: 4c33 29bd 2735 e5bb 41ca 0ebe 7a39 e3bd
000003a0: 294e 5abd 14dc 04bd 8679 083e d445 04bd
000003b0: 7a99 a53c 2eef d33d e1c5 f9bd 0744 d53c
000003c0: bba4 28bc 3e4f 60bd 2346 cebd 3c81 12bc
000003d0: 1b48 9e3c bf31 07bd 1b97 913d d511 d03c
000003e0: 585e c6bd 321d 9c3d c415 37bc eb5b c3bd
000003f0: c0e5 0ebd efe8 aebd 49e2 f93c e458 b9bc
0.065939516 0.012234942 0.048285138 0.034824975 0.025825104 0.050912064 -0.024421811 0.04302727
-0.03989535 -0.026338598 -0.031866685 0.00088089076 0.005374654 0.0054114093 0.005939018 0.032624397
-0.026887827 -0.0005260548 0.017674375 0.012486669 0.05035291 0.01690938 0.034081332 0.04227284
-0.0028235607 0.003748292 -0.01995891 0.017119553 -0.022728665 -0.016418535 -0.0077329823 0.06754396
0.0114849685 0.0018518403 -0.009817229 -0.008112771 -0.070962094 0.04615248 0.0290229 -0.006151591
0.02681443 0.0025269808 -0.026469043 -0.056180287 0.07017724 0.057850223 0.007800503 -0.044338405
0.07188384 -0.04899959 -0.007605678 0.055836063 0.0037108762 -0.036661554 0.003099479 -0.07083058
-0.033583626 0.0037751081 -0.005232464 0.027558893 -0.0153889805 -0.010602995 0.07971006 -0.020872107
-0.01794221 0.10907089 0.034381296 0.096412905 0.042011287 -0.028989024 0.011818261 -0.00946318
-0.039755955 0.0040838383 0.046318658 0.014971832 0.0073949685 0.012538622 0.01889716 -0.013686688
0.023296934 -0.03062481 0.02183272 -0.005229556 0.003328227 0.006616944 0.05821636 0.027118292
0.02488329 0.024187943 0.053854167 0.012126126 0.04381699 0.030513797 -0.011437659 -0.008320894
-0.01131534 -0.012050783 -0.018347887 0.012974018 0.025107753 0.027709436 0.032299463 0.009000928
0.021240842 0.054019853 -0.011224638 -0.010935004 -0.015354613 0.037045427 0.024638629 0.02012181
-0.005987758 0.005874405 0.0072295214 0.02392552 0.0045929914 0.0043748496 0.038299937 0.045836225
-0.02340147 0.0012143581 0.03042493 0.038741387 -0.003510806 0.06517419 0.0017926818 0.010119229
0.021758204 0.045015052 0.011512206 0.07385388 0.06342629 0.025993032 0.011478348 -0.007919115
0.0022745167 0.020555407 -0.0243225 0.033450104 0.03142583 0.0053003915 -0.006080096 -0.037357394
0.0334845 0.033753254 0.012521642 -0.026369313 0.042352498 0.016218081 0.026149685 0.016868029
0.15467268 0.009555238 0.037327614 -0.10368359 0.04860351 -0.04160737 0.06015725 0.016544402
-0.08537529 0.00066760316 -0.12482258 0.025937803 0.1228246 -0.0015592818 0.013925111 0.11033054
-0.002221276 -0.022284009 0.08292214 -0.0032747993 -0.062260743 0.08591355 -0.018419934 -0.0032724424
0.014738619 -0.013738179 0.0141701 -0.007968443 0.04902489 -0.025245732 0.14724359 0.06678289
-0.033602852 0.0076174 -0.05235582 0.0057450603 -0.0125561915 0.0643962 0.072653785 -0.055738237
-0.01144987 -0.060724415 0.027295398 -0.003691562 -0.03383588 -0.018469235 0.05324805 -0.06620147
0.09423988 -0.0016555156 -0.06153829 0.05048195 -0.00436922 0.023999058 0.050055984 -0.030858628
0.045507938 0.05080903 0.016366702 -0.06536522 0.026945911 -0.0077841175 -0.013164065 0.00042065277
0.034463566 -0.021637589 -0.0041325577 0.031079313 0.13818485 0.050422616 0.014033059 0.061813105
-0.009825425 0.031767093 0.038162783 0.010331604 -0.041308686 -0.0069948616 -0.13944341 -0.11094947
-0.053297196 -0.032436445 0.13327608 -0.032293156 0.020214785 0.10348354 -0.121959455 0.026033415
-0.010293181 -0.05476307 -0.10071971 -0.008941945 0.019321492 -0.033006426 0.07108899 0.025399128
-0.096859634 0.07622756 -0.011174623 -0.09539016 -0.034887075 -0.08540522 0.030503409 -0.022625394

1.df.df.fc1.weight_block_2.bias1 f4 [2, 76]
00000000: 46bb 183e af26 433d 2428 843d 0c44 f33d
00000010: 9f4c 4b3d bb92 683d 3fd4 973d 005a f1bc
00000020: e4f7 24bc 09bd f23d 1475 f83d 2c51 14be
00000030: 2417 0fbd 5d7c 2b3d d18b 3d3e 0f19 1d3d
00000040: fd12 5f3d 12ad 44bc ca4c b63d 6102 95bd
00000050: 01fc be3d ec96 a43d a050 eb3c 3436 de3d
00000060: bdc4 f43d 7c35 1c3d 5a02 983c 64c8 1a3d
00000070: 8c0d b83a db64 543d 78b2 59bd c3cb 573e
00000080: 3e66 093c fe6a 673d 21a3 4f3d e258 3b3d
00000090: 8bf2 cf3c 8c36 2a3d e1e4 023e 0329 263d
000000a0: ba95 133d a62b 873d 9450 24bc 5fc9 ac3d
000000b0: 0791 d1bc 1c9e a83d 0f23 7d3d 4596 d4bb
000000c0: 32a3 90be 8693 2b3e 7170 92bd d2eb 89bd
000000d0: 0c3a 103a 5c17 cc3c c2ee cc3d 647e 853c
000000e0: 7d39 313e 1a9b 86bd de42 bdbb e74d 81bd
000000f0: c8c5 323d fe24 493d 1ffe 573e 37d7 ad3d
00000100: 0fea 54bd 086b 0e3b 0762 05bc 6355 29be
00000110: 4642 183e 29dd b73d 4dde 97bd 7112 713d
00000120: 8634 a23c f114 67bc ae2d e83d 22aa 03bd
00000130: a7b4 063d 2bcf f63c 07df 2a3d fb04 0f3d
00000140: 7ff3 97bd 2c7e 8e3c 36e1 d3bd 83c0 c13c
00000150: 0ca8 27bd d442 17bd 7c6c f93c 6f85 cabd
00000160: 5539 e03c c75c f6bb 0cfa dd3c 496d 723d
00000170: 70dd 1c3d aab5 5d3d 2d08 ae3c d5f8 2bbd
00000180: 7078 bbbc 1653 3c3d f9e6 ab3c e8d4 dd3c
00000190: 8f0c 0abd eee8 d73b 152c 85bc 0858 42bb
000001a0: 05ae 92bd e957 f1bb 901b 913c 9899 513d
000001b0: 4880 20bd a656 76bd 157b 153d 5ca7 42bd
000001c0: 44c3 173d b05e 07bd b8f5 753c 5f5d 993c
000001d0: 4943 88bc 00cc 913c bf58 e33d 453f 6bbd
000001e0: bee2 3bbd e9b7 44be 841a a2bd 4a3f 443d
000001f0: 5af4 56bd a545 313d c025 c1bd 5278 ac3c
00000200: 4eff 9e3c 0604 74bc 6dff e13c c032 ecbb
00000210: edf9 89bd 51a8 62bd 4ba4 26bd 2898 5cbd
00000220: 9490 01bd a569 3f3d 9e2b 99bd a635 d93b
00000230: 606b e8bd ddae 063d 6967 1f3a 16ee 92bd
00000240: a7fe 89bc 676c 713c 42eb 87bd d718 a3bd
00000250: 1e76 593d ea4d b83c 6da5 4cbd 327f 9f3b
0.14915189 0.047644313 0.06452969 0.11878213 0.04963362 0.056780558 0.074135296 -0.02946186
-0.010068867 0.11852462 0.12131706 -0.1448409 -0.034934178 0.04186665 0.18510367 0.038353976
0.054461468 -0.012004154 0.08901365 -0.07275844 0.0932541 0.080365986 0.028724968 0.10850182
0.11951587 0.038136944 0.018555809 0.037788764 0.0014042123 0.051853996 -0.053148717 0.21073823
0.008386193 0.05649852 0.05069268 0.045739062 0.025384208 0.041555926 0.12782623 0.040566456
0.036031462 0.06600122 -0.010028977 0.08436846 -0.02558185 0.08233282 0.061801013 -0.00648764
-0.28249508 0.16755494 -0.07150353 -0.06734432 0.0005501814 0.024913482 0.10006477 0.01629562
0.17307086 -0.06572552 -0.0057757935 -0.06313687 0.04364565 0.049107544 0.21093033 0.084883146
-0.05198103 0.0021731276 -0.008141047 -0.16536479 0.14869031 0.0897773 -0.074154474 0.058855478
0.019800436 -0.014104114 0.11336838 -0.032144673 0.032887127 0.030128082 0.0417166 0.03491686
-0.0741949 0.017394148 -0.1034569 0.023651367 -0.040931746 -0.036928967 0.030447237 -0.09888732
0.027371088 -0.007518384 0.02709677 0.059186254 0.038297117 0.054128326 0.021244133 -0.04198535
-0.022884578 0.045977674 0.02098416 0.02707906 -0.033703383 0.0065890467 -0.016256372 -0.0029654521
-0.07162098 -0.007365216 0.017713338 0.05117187 -0.03918484 -0.06014123 0.036494333 -0.047522888
0.037051454 -0.033049285 0.015012197 0.01872128 -0.016633647 0.01779747 0.11100911 -0.057433385
-0.045870535 -0.19210781 -0.07915214 0.04791192 -0.052479126 0.04327931 -0.09431028 0.021053467
0.019408848 -0.014893537 0.027587617 -0.0072081983 -0.06737123 -0.0553363 -0.040684026 -0.053856045
-0.03163202 0.04673161 -0.074790224 0.00662871 -0.11348605 0.032881606 0.0006080778 -0.071743175
-0.01684506 0.014735318 -0.06636669 -0.07963722 0.05309116 0.02249809 -0.04996245 0.004867458

1.df.df.fc1.concat_real_layer_1.weight f4 [76, 152]
00000000: 8c20 ae3c 1af6 ac3c 14cb 833d bc0b d2bc
00000010: 3c83 0fbd db89 a83c 15c6 9fbd 1e08 693d
00000020: c467 f63c a2c1 5b38 0723 013d a9ee 04bd
00000030: 1ae5 283e 5ff8 f83c 327d f5bb d647 f23c
00000040: 5abf 203d 57d4 56bc e07b 853d 786b 72bd
00000050: e3e2 783c bb7c 093d 2845 3a3d ff7a 393b
00000060: 9a3f 01be 10ca 803d 923b c43c 194c 673d
00000070: 8dfb 8f3b 4452 0d3d 4c8b afbd b1df 4a3d
00000080: 1651 62bd 7d04 2ebd 92aa de3d 9f59 82bd
00000090: 050a f5bd 946d e43b eba6 693d 2d99 6d3d
000000a0: 0fa6 4ebd 628c 053d b7ea b13c 921e 533d
000000b0: c99f a4bd a446 30bd a582 fbbc 544c 983d
000000c0: 5b3b 81bd 1e5e 4b3d 1761 91bd f469 dabd
000000d0: 8b27 f83c 358c 393c 9f7c 40bb 12e4 e9bd
000000e0: 6f05 e73b 03f9 febd 9179 af3d 92d2 b4bc
000000f0: 4f1a 88bc d08b 14be e991 a3b9 1eb5 03bd
00000100: 0a3d 6dbd 610e 82bc 3106 d13d 2104 793c
00000110: fb66 97bc 0010 413d 8316 bbba a034 2bbd
00000120: 2384 65bc a537 80bc 511f e8bc d9be 72bd
00000130: b4c7 873d 19d9 a83d 93b4 b43d 19f4 31bd
00000140: 641f 043e 60a9 9bbc e43f 01bd c1c1 b6bb
00000150: 34e0 8d3d 1cda 643c 7e7a cebd f2f8 ddbc
00000160: e42b 0dbd 04ef debb 5e8a efbd 3a1d 0b3e
00000170: 55c4 afbd 9c12 2dbc 7400 c13d 4206 74bb
00000180: 4807 1c3d aebc 593c a08a d5bb 8424 863d
00000190: 7de3 e63b d074 a03c f520 6dbd 98df b73d
000001a0: 2473 b63d 26e7 acbc f556 9d3d 61d2 013e
000001b0: 496e fa3b f560 d6bd 8770 07be 5156 80bd
000001c0: e1ed f53c 86dc 103d 3959 1e3d 27f8 b5bd
000001d0: 1498 da3c 1288 96bc 77f3 68bc 8540 9bbc
000001e0: c158 163e bf10 6dbd bc44 963d 6339 a1bd
000001f0: 5234 1fbc 82c2 0ebe 6ef8 983b 5896 29bd
00000200: 2925 fcbd 231a 95bd 5ff7 1bbd 6eaf d6bb
00000210: ecb9 aabd fa52 5dbd b87b a83d bcd4 acbc
00000220: ea44 1ebd 02d4 d63b 64dc d63d 946c 09be
00000230: 7f01 5a3d 7131 683d 299f c63d 5c07 0e3e
00000240: 5682 aab9 b15a b1bd a9ac 873d 08d3 f1bc
00000250: e142 1d3d 5be2 c7bc 7b6c 2a3e 1007 44bd
00000260: cd55 443d 4ea3 9c3d 0b2d a2bc b402 cfbd
00000270: dc53 203d 2376 d7bd 5700 01be e0c1 c7bc
00000280: 4ebb f0bc 737e b5bd ff22 cb3d 271a 43bd
00000290: 7f9c 2dbe de0e 09be 9395 993d 1eb5 05be
000002a0: bb0a 013d 3ae0 b13d 6482 90bd ffc5 8b3d
000002b0: 6694 08be 0472 cb3c eadf be3d b86c 92bc
000002c0: 5073 97bd ecf7 00be d882 88ba de5f 583c
000002d0: b3f9 943c b57f 2bbd 5a81 3d39 53d0 9bbd
000002e0: cfaf 6f3d 0eab 0fbe b917 3b3d a91e 463d
000002f0: 40ef 5e3c 3d19 40be 585f ac3d 4785 01be
00000300: 19a8 65bd a955 673c 6062 d4bd 02cf 403d
00000310: d737 48bd 4cb7 57bd d84b 15be 8f9b 9dbd
00000320: 417c 043d 595f 813d bc8c bf3d d7d3 bc3c
00000330: b69b ba3d b8d9 f83c ee3d 00bd c9b9 963d
00000340: 66dc 07be 05d4 5d3d 108d 03be 76c6 623d
00000350: 00f5 163e bc94 323e 3139 adbd 8b9a 5cbd
00000360: fa41 85bc 70cd bbbd 0d84 50bd 378d e3bd
00000370: 1d15 32be 93da 04bd 5976 ffbd 1008 993c
00000380: 14cb 863d 61ef f9bd c516 f6bc 1ea8 ccbd
00000390: f25b 98bd 056e 3bbe 2e12 02be 5260 4cbe
000003a0: 76e1 07be d016 40bc 8120 71bc c87a 24be
000003b0: 63b3 01bd b833 c43d 1f85 80bc 635e a7bd
000003c0: 0696 073d 81bd 43be c6b7 043e 833f 04bd
000003d0: dea5 30bd a294 f83c fab9 41bd 58d9 24bd
000003e0: c3f9 11be 9386 f43c bd15 0fbe 357e 8cbd
000003f0: f4d0 12be 640d 60bd 5e97 263c a7a4 54be
0.021255754 0.021113444 0.064352185 -0.025640361 -0.035037264 0.020573547 -0.07801453 0.056892507
0.030078776 5.2394003e-05 0.031527545 -0.032454167 0.16493645 0.03039187 -0.007491731 0.02957527
0.039244987 -0.013112149 0.06517768 -0.05918452 0.015190813 0.033566218 0.04547611 0.002830207
-0.12621918 0.0628854 0.023954187 0.056469057 0.004394001 0.034502283 -0.08571491 0.049529735
-0.05525311 -0.04248475 0.108723775 -0.0636475 -0.11964802 0.0069710705 0.05704395 0.058007408
-0.050451335 0.032604583 0.021718366 0.051542826 -0.08038289 -0.04303612 -0.030701945 0.074364334
-0.06310149 0.049650304 -0.070985965 -0.1066474 0.030292293 0.011324932 -0.0029371155 -0.11420454
0.0070502083 -0.12449839 0.08568109 -0.022073064 -0.016614107 -0.14506459 -0.00031198494 -0.03215515
-0.05791954 -0.015875997 0.10206259 0.015198738 -0.018481722 0.0471344 -0.0014273677 -0.041798234
-0.014008555 -0.015651533 -0.028335245 -0.059264038 0.06629887 0.08244533 0.08823504 -0.04344568
0.129026 -0.019001663 -0.03155507 -0.0055772965 0.06927529 0.013968017 -0.10081957 -0.027096245
-0.034465685 -0.006803395 -0.11696313 0.13585368 -0.08582369 -0.010563519 0.094239146 -0.0037235175
0.03809288 0.013289614 -0.0065167695 0.065499336 0.0070461617 0.01958695 -0.05789276 0.08978194
0.0890868 -0.021106314 0.07682601 0.1267791 0.0076425415 -0.10467712 -0.1322652 -0.062664635
0.030020656 0.035366558 0.038659308 -0.08885222 0.026683845 -0.01837543 -0.014218203 -0.018951664
0.14682294 -0.0578773 0.07337329 -0.07872274 -0.009717064 -0.13941386 0.004668287 -0.041403145
-0.12311775 -0.07280376 -0.03807771 -0.0065516746 -0.08336243 -0.05403421 0.082267225 -0.021097533
-0.03863994 0.006556035 0.10491255 -0.13420326 0.053224083 0.056687776 0.09698326 0.13869995
-0.00032522035 -0.08659876 0.06624729 -0.029519573 0.03839386 -0.024399927 0.16642945 -0.047858298
0.04793339 0.076483354 -0.019796869 -0.101079375 0.039142475 -0.1052058 -0.12597786 -0.024384439
-0.029386189 -0.08862009 0.09918784 -0.047632363 -0.1695423 -0.13384578 0.07499232 -0.13057372
0.031504374 0.08685346 -0.0705612 0.06824874 -0.1333786 0.02483464 0.09320052 -0.017874107
-0.07395041 -0.12594575 -0.0010414971 0.01320645 0.018185472 -0.041869838 0.00018072632 -0.07608094
0.058517274 -0.14030096 0.04567692 0.048369084 0.013606846 -0.18759628 0.08416623 -0.12648498
-0.056068514 0.014119544 -0.10370326 0.047072418 -0.048881378 -0.05266504 -0.14579713 -0.07695686
0.03234506 0.06317014 0.09353015 0.023050232 0.09111731 0.030377254 -0.03130906 0.073596545
-0.13267669 0.054157276 -0.1284678 0.05536505 0.14741898 0.1743955 -0.08458174 -0.05385832
-0.016266812 -0.091700435 -0.050907183 -0.11110919 -0.17390867 -0.03243501 -0.12473745 0.018680602
0.06581703 -0.12203861 -0.030040154 -0.09993003 -0.07439412 -0.18303688 -0.12702248 -0.19958618
-0.132696 -0.011724189 -0.014717222 -0.16062462 -0.031665217 0.09580177 -0.015688477 -0.081723
0.033102058 -0.19115259 0.12960729 -0.032287132 -0.043126933 0.030344311 -0.0472965 -0.040246338
-0.14255433 0.029849326 -0.13973136 -0.068600096 -0.14337522 -0.05470027 0.010167925 -0.20765935

1.df.df.fc1.concat_real_layer_1.bias f4 [76]
00000000: 86ea 56bd 1e61 8dbd 3ba1 763c 85af 2bbd
00000010: ddb4 363b 2010 64bd 85da ed3c 7ba4 44bd
00000020: 6d78 523d 283e 35bd dfe5 9cbc 49cf 97bd
00000030: 0506 8ebc 7c90 9abd 495f 2cbc 0305 97bd
00000040: 0d4b 33bd 77ec 3dbd cfa5 7cbd 9c1d d1bd
00000050: f6c3 703c 69a1 12be e7da 2dbb 70f5 a83a
00000060: 7ee2 57bd 2c39 5a3d 48ee 403d c9f5 8c3d
00000070: ffbd 47bd 5788 f83b d814 40be 541b b03c
00000080: e0d9 72be 0593 4a3d 4c60 cfbc e6e7 d7bd
00000090: 2102 7cbd f688 3c3c 5bb9 21be 5672 8abb
000000a0: dbdb 14bd 2481 9e3d fdc8 81bb 6883 19bd
000000b0: bdd0 c6bd f0ad 83bd 0f87 27be 5a65 c5bd
000000c0: 75b9 30be aff4 5d3c 01fc 723d c6ba 46bc
000000d0: 664d 9bbd 32f7 143d 41de 7f3c 474b e43c
000000e0: c8b2 a43c 171e 5dba 32e7 84bd 8280 753c
000000f0: 42d7 a3bd 4fad 90bd 7801 7cbc 4368 61be
00000100: a4aa b0bd d766 a53d 1cf5 7b3d 556e 91bc
00000110: f211 683d 64a9 86bd a1da 5bbd a0ff 2e3c
00000120: 031a 18be 43ee 86bc d8a9 0abe 774b 82be
-0.052469753 -0.06903289 0.015053089 -0.041915435 0.00278788 -0.05567944 0.029034862 -0.048008423
0.05138438 -0.04424873 -0.01915258 -0.074125834 -0.017336855 -0.075470895 -0.010520765 -0.07374003
-0.043772746 -0.04636809 -0.061681565 -0.10210726 0.014695158 -0.14319386 -0.002652818 0.0012890529
-0.052706234 0.05327718 0.047102243 0.06882817 -0.04876518 0.0075846124 -0.18757951 0.021497406
-0.23715925 0.049456615 -0.025314473 -0.10542278 -0.061525468 0.011507263 -0.15793364 -0.0042250557
-0.036342483 0.07739475 -0.0039607272 -0.037478834 -0.097077824 -0.0642966 -0.16360115 -0.09638472
-0.17258246 0.013547107 0.05932236 -0.012129491 -0.07583122 0.036368556 0.015616954 0.027867926
0.02010478 -0.00084349647 -0.064894095 0.014984252 -0.080000415 -0.07064306 -0.01538121 -0.22012429
-0.08626297 0.08076256 0.06151305 -0.017752806 0.05665774 -0.065752774 -0.053675298 0.010681063
-0.14853673 -0.016471034 -0.13541353 -0.254482

1.df.df.fc1.concat_imag_layer_1.weight f4 [76, 152]
00000000: 4804 223e 9b4c 19be 0421 e43d ed14 e4bd
00000010: a773 8dbd da84 813c b220 13bd d8fa b4bd
00000020: f92e c33d 4d3c 043d dbf0 173d c2dd 8dbd
00000030: 37f9 99bb 1e9b 573c 83fd 05be 3eea 0bbe
00000040: 2956 aabc 312e 963c 1079 893c 86c3 d8bd
00000050: 6719 f33d f3b2 0ebd 9809 fcbd bf5e 2d3e
00000060: e595 c9bd 2fa8 e1bd 181a 093e f8b8 03bd
00000070: 0098 5e3d 2c1d d53b 1313 febc e47f 983b
00000080: a31f c6bd 7a90 e73d 6b41 883c 295e d2bd
00000090: ccaa 3ebd ca4d 013e 02af 45be 4554 b1bd
000000a0: 6726 26bd d455 9abd f710 d6bc fa18 d33d
000000b0: 8c49 93bd a67b f7bc 0db0 233d 29fd 17bd
000000c0: 0fa1 523d 0b5e 633c c2d4 13bd 9be9 9cbd
000000d0: 7541 47bd 770e afbd a908 25be 0d89 2dbe
000000e0: ae2e 87bd 48b2 f5bd c440 83bd 13c6 2d3e
000000f0: 784e a43d 7b28 68bd 7763 003e fd9d d0bd
00000100: 96c5 30bd ef43 f9bd 63ec 15bd e10e 01bd
00000110: 4753 8fbd 2113 ccbd 79da c6bd a61d fd3c
00000120: a399 8fbd cc92 8b3d cf63 e33d b2e4 a33d
00000130: 7f4e 85bc 394d 023e 9d5b 383e f8c8 913b
00000140: 6b5c a53c ac42 fd3a c894 e53b 9e69 9aba
00000150: 8072 22bd bc0b cc3c 7503 41bd 8849 c0bb
00000160: 76a6 0a3e 6044 d23c 0900 bfbc d49f 313d
00000170: db47 1dbe 7c50 5fbd 2dc9 ed3d 558f 12bd
00000180: 6db8 5c3d 06bf d8bd 928a 5d3d a413 ef3d
00000190: 88ea a03d 98d6 fa3d f776 f63c 7260 0a3e
000001a0: edb4 d4bc 07c5 80bc e01f 823b d4af 6a3c
000001b0: 4f23 8c3d 2a39 9fbd 1c24 d3bd ab53 243d
000001c0: c2ba 273d 4809 953c 43da e93d 4a8b 15be
000001d0: 0180 863d 1f6b 69bc d9b2 c5bd 947f 223d
000001e0: a248 1e3e e3fe 7f39 aff7 09be bb03 fe3c
000001f0: 9ec1 c9bd ff18 fdbd 85e9 073e 3120 f03d
00000200: 9a8b 54bd 82bc bbbd 0627 c3bc 2167 c4bd
00000210: 3c00 c3bd e054 10bc b038 7ebd 8d39 fa3d
00000220: 76b3 99ba 61da fdbd a17a 03bc 5036 a6bd
00000230: 924b 233c e71c 183e e88f 77bd dda9 b63d
00000240: 724f 75bc 899f d53c c702 ee3c 8e7a c93d
00000250: b097 c5bd a8ab d8bd 60e3 2abd 2902 49bd
00000260: ffc7 58bd c090 cabd 206e e6bc 6244 013d
00000270: c0b5 da3d ce28 adbd 2baa dabd b984 a03d
00000280: 1198 933e 5620 20be 2612 3f3e 1bb8 69bd
00000290: 1362 18be e27a aebd 919c 853e a1a9 00bd
000002a0: 1ca6 c63c fab6 5e3d aff2 0fbe 3604 83bd
000002b0: 6c44 dbbc e63e 6a3c adcd 283d 52d9 f0bd
000002c0: a91e 87bd a4e4 f53d cc16 063d 14d3 813e
000002d0: 4571 44bc 45ac 70bd cc21 1c3b 59f8 213d
000002e0: 72bc 0f3e fcae b1bd ee4c 163e fc59 073c
000002f0: f599 de3d 06c9 d0bd 3a7e 023e b93a bcbc
00000300: 2e3c 793c 3fc3 50bc e43c 64be 7336 2fbd
00000310: 7506 08bd d0df b1bc 129c 27be 6bac 223c
00000320: a346 2a3d 4f58 72bd d7c7 ebbd eb05 fe3d
00000330: 761d 7a3d 3119 7e3e 794b 113d d7e1 72bc
00000340: e7a8 b9bd 7c12 01be 2efb e8bd 9f20 98bd
00000350: 56b5 6ebd e7e8 b3bc 3d10 5e3d d383 a7bc
00000360: 34b5 35bc 3ce8 0a3d 67c1 d7bc 54d5 d13c
00000370: 07ab cf3c 3285 7f3d 190d f13d 897e 07bd
00000380: 4b65 943b 8abe 9bbd 3231 63bd ef75 06bd
00000390: 3715 113d 9683 0bbe f711 81bd c128 4f3c
000003a0: 146b 853c bff8 803d 8c94 01be ce3e 2cbe
000003b0: b6e0 4dbd de09 103e 4259 e0bd f0f7 263e
000003c0: 380d c5bd 4217 6ebd ec7b 8fbd 943e 463c
000003d0: 6334 3d3b 2851 ab3d 6083 85bd 44c2 c43d
000003e0: 7c5c 223c 57e3 4e3e 262b e2bd 0ecd 51bd
000003f0: 7d8f 43bd f775 1a3c 3c6b 1b3d 761d 4dbe
0.15821946 -0.14970629 0.1113911 -0.11136804 -0.069068246 0.015810419 -0.035919853 -0.08836907
0.09530444 0.03228407 0.037094932 -0.069270626 -0.004698898 0.013159541 -0.13084988 -0.13663575
-0.020793037 0.018332573 0.01678136 -0.10584168 0.118700795 -0.034838628 -0.12306517 0.16930674
-0.09843043 -0.110184066 0.1338886 -0.03215882 0.054344177 0.0065037217 -0.031014955 0.0046539176
-0.09674003 0.113068536 0.016632756 -0.10271866 -0.046549603 0.1262733 -0.19305041 -0.08658651
-0.040563967 -0.07535902 -0.026131136 0.10307498 -0.07191762 -0.030210327 0.039962817 -0.037106667
0.05142313 0.013877402 -0.036091574 -0.07661744 -0.04864641 -0.08547681 -0.16116585 -0.16946812
-0.066007 -0.11996895 -0.064088374 0.1697009 0.08022779 -0.05667923 0.12537943 -0.10186384
-0.043157183 -0.121711604 -0.03660239 -0.03150833 -0.06998306 -0.09964586 -0.09709639 0.030897927
-0.07011726 0.06815109 0.11103021 0.080026045 -0.016272781 0.1272477 0.18003698 0.004449006
0.02018567 0.0019322238 0.0070062615 -0.0011780744 -0.039659977 0.02490794 -0.047122438 -0.0058681406
0.13540062 0.02566737 -0.023315446 0.043365315 -0.15359442 -0.054520115 0.11610637 -0.035781223
0.05388682 -0.1058331 0.05408723 0.11673668 0.07857233 0.12247962 0.030086024 0.13513353
-0.025965178 -0.01571895 0.003971085 0.014324147 0.06842672 -0.07774575 -0.10309622 0.040118854
0.04094959 0.018192902 0.11418583 -0.14603916 0.065673836 -0.014246731 -0.09653253 0.03967245
0.15457395 0.00024413648 -0.1347339 0.031007638 -0.09851383 -0.12358283 0.13272674 0.1172489
-0.051890947 -0.091668144 -0.023822319 -0.09589983 -0.09521529 -0.008809298 -0.06206578 0.12218008
-0.0011726457 -0.12395168 -0.0080248425 -0.08115828 0.009966748 0.14854775 -0.060439974 0.089191176
-0.0149725545 0.026077049 0.029054059 0.098378286 -0.09648073 -0.10579616 -0.041720748 -0.049074326
-0.052925106 -0.0989089 -0.028128684 0.031559356 0.10679197 -0.084550485 -0.10676988 0.07837815
0.28826955 -0.15637335 0.18659267 -0.057060342 -0.14881162 -0.08519532 0.26096013 -0.03141177
0.024249129 0.05437372 -0.1405742 -0.063972875 -0.026766025 0.014297223 0.041211773 -0.117602006
-0.06597645 0.120065 0.032736585 0.25356352 -0.011989896 -0.05875804 0.0023823855 0.039543483
0.1403673 -0.08675954 0.14677784 0.0082612 0.10869209 -0.10194592 0.12743464 -0.02297722
0.015212102 -0.012741863 -0.22288853 -0.042776536 -0.033209283 -0.021713167 -0.1636813 0.009928803
0.04157127 -0.05916625 -0.11512726 0.124034725 0.061063252 0.24814297 0.035472367 -0.014824352
-0.09065419 -0.12604707 -0.11376034 -0.07428097 -0.058278404 -0.021961642 0.054214705 -0.0204486
-0.0110905655 0.033912882 -0.026337339 0.025614418 0.025350107 0.062382884 0.11770076 -0.033079658
0.0045286766 -0.07604702 -0.05546684 -0.032827314 0.035420623 -0.13624415 -0.06302255 0.012643994
0.01628641 0.062974446 -0.12654322 -0.16820833 -0.05026313 0.14066264 -0.109545246 0.16305518
-0.09621662 -0.05812765 -0.07006058 0.012099881 0.0028870336 0.08365089 -0.065191984 0.09607366
0.009909745 0.20203911 -0.11043386 -0.051220946 -0.047744263 0.009427539 0.037944064 -0.2003077

1.df.df.fc1.concat_imag_layer_1.bias f4 [76]
00000000: 57e5 4f3d ac18 5c3d 3b54 693d 3e06 40bd
00000010: 38b8 23bd 5fd2 053d f9f8 993d a1bb 69bc
00000020: e0bd 47bc 7533 383d eef9 98bd 2e72 80bc
00000030: 9173 7abd a389 693d 9d51 f3bd 7e1d c8bd
00000040: ab66 cd3c 61f0 213c 5a8e d93d 9543 51bd
00000050: 70aa 4c3c fc19 83bd 29dd a8bc cfea 8e3c
00000060: aa08 bebd a44d c53c 5532 653d 76bb 8fbd
00000070: d1e9 083e a314 1c3d 8079 09bd 6200 513d
00000080: 2e33 27bd 771d 16bd 40ec 9d3d 729a 603d
00000090: 732a e93d f992 acbc c1c8 cd3d a59c cabd
000000a0: e720 983d c588 103d 2759 eb3c 34d2 9d3d
000000b0: 2e96 e73c 1baf dfbc 6318 35bd fbda 933c
000000c0: 6943 233d 0d39 35bd 227a adbd 1692 8b3d
000000d0: 4668 903d 56ee 85bd 9193 0f3e b429 f7bc
000000e0: f3c2 dfbb 0afc d5bd 2999 10bd 6081 b33d
000000f0: f66c e83a ba53 2d3d 9501 463d e11d 27bc
00000100: ac37 9c3c a14e 123d 96cd 753d a9e0 f8bc
00000110: 1419 a43d 23a0 20bc 2ded e23d 0ea1 443d
00000120: d153 923d 0cdb b53c 2db1 4f3d 73fc fc3b
0.050755825 0.053734466 0.056965094 -0.046880953 -0.039970607 0.03267133 0.07518191 -0.014265926
-0.012191266 0.04497095 -0.07469545 -0.015679445 -0.06114537 0.057016026 -0.11880801 -0.0977125
0.02507337 0.009883971 0.106228545 -0.051089842 0.012491807 -0.064014405 -0.02061327 0.01744595
-0.09278996 0.024084873 0.055956203 -0.07018177 0.13370444 0.03810562 -0.033563137 0.051025756
-0.040820293 -0.036649194 0.07711077 0.05483479 0.1138505 -0.021066176 0.100480564 -0.09893159
0.074281506 0.035286684 0.028729035 0.07706109 0.028269853 -0.027305176 -0.04421271 0.018048754
0.03985921 -0.04424386 -0.084705606 0.06814973 0.070511386 -0.065395996 0.14021136 -0.030171253
-0.0068286597 -0.10448463 -0.035302315 0.08764911 0.0017732668 0.042316176 0.048341352 -0.010199995
0.019069515 0.035719518 0.060010515 -0.030380564 0.08012596 -0.009803805 0.11080394 0.048005156
0.07144893 0.022199176 0.050706077 0.007720524

1.df.df.fc2.weight_block_1.weights1 f4 [2, 76, 76]
00000000: 9ff2 5fbd cfef 61bc 46bf 2e3c f115 423c
00000010: f134 773d b282 11bd 0bda 6c3d b519 d7ba
00000020: 3824 86b9 fa57 debc 66d0 523c 21f7 033c
00000030: 4f12 81bc b0af 933d 0b91 213d e3ce 5b3d
00000040: 0169 373c 4c87 cd3d 9183 b23d 343b 65bd
00000050: 5551 cdbc 518c 68bd c346 103d 4657 243d
00000060: a2f1 613d dad6 02bd 561c 9ebd 2ee6 b33d
00000070: 57bf bdbc 177f aabd 239a c5bb 0e6a 8e3a
00000080: 5a5f 88bd 0615 6d3d e98a 19bd ba4f e43b
00000090: a2cf 2abd c9d2 ee3b faf8 623d 8fb7 9dbd
000000a0: ace6 3a3b adad 383d a54a 0c3c 3498 3fbd
000000b0: 0560 903d 176a 0b3d 7a30 c03d d259 98bc
000000c0: 5b2a b6bc 3cd6 79bc 16fb bbba 3ce2 a33c
000000d0: 3e08 103d 4b39 183d f83c 05bd 475e ab3d
000000e0: e91d 30bd c5af dcbc cd26 733d cd8c 84bd
000000f0: bc6e 663c fdc1 eb3d 11fc 55bd 63ff c7bd
00000100: 620c 1d3d 0314 873c 81ed 393c b47f fe3c
00000110: edb0 d739 1573 053d e661 9f3d d8f7 763d
00000120: d804 48bb eeaa 493d a6ed 703c aaa9 05bd
00000130: 2f55 bc3d 26e2 7d3d 89af 17bd a921 f43d
00000140: e4bd f83c 54a1 44bb cc5e 81bc 7499 99bc
00000150: fb92 f3bc 4fe8 233e 76af 9d3c 6796 21bd
00000160: ecaf 8abd 3bc1 97bd d92c 70bb 73f8 d93d
00000170: 9d11 3c3d 4907 163e cdd4 443d d57b 91bb
00000180: bfd4 aabd 45be b9bc 903f 0f3d 43a0 503e
00000190: edcb e3bd 4812 c13d 70e6 85bc 3d3f 88bd
000001a0: 1763 7d3b 77f4 9d3d b00e 383d 541d 973d
000001b0: db57 403d 5a0b 41bd 5332 0fbd 11f7 853d
000001c0: c6a1 0fbd fa93 923d 5489 b13c 64bc 92bd
000001d0: 78b6 f33c 3787 1f3d 02bf 26bd b4a1 b1bd
000001e0: 2f86 ae3d 183d c93c a824 aebd dd38 54bd
000001f0: 9b6d a73c 2e4b 67bd b1e1 b8bd 923e 16bd
00000200: f285 3e3e 4c7a fa3d cedf 843c d757 b3bd
00000210: 019a 733b f531 06bc bcde f9bc c854 04be
00000220: bb9e 4dbc 638f 443c 2f22 00bd 324c 52bd
00000230: 41ae 383d 172f dabd 4f08 8a3c 99f0 a93d
00000240: 68d4 efbc d292 86bc f0db 863d e5a5 60bd
00000250: e8f3 8c3d 8f89 2bbd 0e0a 2c3c 9ac0 893d
00000260: b764 573c 7851 7d3d 3e10 0a3d 2fc1 893d
00000270: 8179 863d 08cd d4bb 8950 d63d 23b0 c63d
00000280: f025 c23c 479b 0e3d 7c2f 86bd 4f0d acbb
00000290: f156 403c 4d18 c9bd a5b4 3a3c dc1e 833d
000002a0: a02d 9c3d 9c6d 703d e384 643d 88bc bc3d
000002b0: d064 abbd c7ef 20be 0d5e 893c 0fe3 033d
000002c0: 45d4 b83c de27 b63a 3904 3dbd bc35 41bd
000002d0: 61cc 54bd 8fce fdbc 5f3f f83d 95b5 ebbc
000002e0: a9b9 4a3b 5202 683c 0ec7 a3bd ccb3 873d
000002f0: 5ceb 493d 1fca 29bc fe31 02bb e872 4a3c
00000300: 931c 513d ec28 0f3d deb0 9cbd 1758 d83c
00000310: 7be3 d1bb 7c2a 68bd 8126 e33c bf24 233d
00000320: 1df3 0d3e 5b03 08bd f19b 4a3c 94b1 403e
00000330: 2952 c33b bb1c 55bd 99d8 b63b d5d5 b93d
00000340: cf6f ea3d c590 ad3c aefd de3b a7f0 aebd
00000350: 4110 003b 587d 2d3d dc98 f93c 2511 1dbd
00000360: 78bb 623d 6b89 493d d8e5 073d e1af b33a
00000370: 64a9 233e 299e 133d 414c 093e e855 fa3b
00000380: 91ad e9bb fba6 233c f701 093d a46c 6fbd
00000390: e638 a43d 92ce 02bd 5f7a 213d c0fc c93a
000003a0: bb80 2ebc a998 aa3b f420 fbbc 95bf 34bc
000003b0: 440c 8b3d 220d bf3c 1763 4e3d 3eb3 af3c
000003c0: ea57 efbd 2362 433c ed73 a2bc 8e5f 83bc
000003d0: 4a9f 9b3d 8946 c6bd 1aea 83bc aef6 9f3d
000003e0: 0aa1 3f3d ddc2 ba3d 107d 133d 7876 adbd
000003f0: 17c8 22bd 745d 483c a9b1 213e 9928 01be
-0.05467474 -0.013790085 0.01066572 0.011846052 0.060353223 -0.03552503 0.05782513 -0.001641086
-0.00025585457 -0.02714156 0.012867069 0.008054526 -0.0157558 0.07211244 0.039444964 0.0536641
0.0111944685 0.100355715 0.087165006 -0.055964664 -0.025063196 -0.05677444 0.035223734 0.040122293
0.05516208 -0.03194318 -0.077202484 0.08784138 -0.023162527 -0.08325022 -0.0060303374 0.0010865347
-0.06658812 0.057881378 -0.03748599 0.006967512 -0.04170192 0.007288311 0.055413224 -0.07701027
0.0028518839 0.045087505 0.0085627185 -0.04677601 0.07049564 0.034036722 0.09384246 -0.018597517
-0.022236994 -0.015248831 -0.0014341797 0.020005338 0.03516411 0.037164014 -0.032528847 0.08367591
-0.042997275 -0.026939282 0.059363175 -0.06472168 0.014064487 0.1151161 -0.052242342 -0.09765508
0.038341887 0.016489035 0.011348129 0.031066753 0.00041139816 0.032580454 0.077823445 0.060294956
-0.0030520465 0.049235277 0.014705097 -0.032632507 0.09195935 0.06198325 -0.037032638 0.11920483
0.030363984 -0.0030003386 -0.015792273 -0.01874993 -0.029733172 0.16006587 0.019248705 -0.039450075
-0.06771836 -0.07409903 -0.0036647825 0.10643091 0.045915235 0.14651217 0.048054505 -0.0044398108
-0.08341359 -0.022673735 0.034972727 0.20373635 -0.1112288 0.09427315 -0.016345233 -0.06652687
0.0038663798 0.077126436 0.044935882 0.07378641 0.046958786 -0.047129966 -0.034960102 0.06541265
-0.03506639 0.071571305 0.021671928 -0.07164839 0.029750094 0.03894731 -0.040709503 -0.086734205
0.08521687 0.024565265 -0.085030854 -0.05181204 0.020438006 -0.05646818 -0.09027422 -0.036680765
0.18605784 0.122303575 0.01622 -0.087569885 0.003717065 -0.008190622 -0.030501716 -0.12922966
-0.012550051 0.011997077 -0.0312826 -0.051342197 0.045088056 -0.10653513 0.016849665 0.082978435
-0.029276088 -0.016427431 0.065849185 -0.05484571 0.06882459 -0.041879233 0.010500444 0.06726189
0.013146571 0.061845273 0.033706896 0.067263 0.06566144 -0.006494168 0.104645796 0.09701564
0.02369973 0.034816053 -0.06552026 -0.00525061 0.011739478 -0.09819088 0.011395608 0.0640237
0.0762589 0.05869828 0.055790793 0.09215647 -0.08368838 -0.15716468 0.01676848 0.03219896
0.022562156 0.0013897379 -0.046146605 -0.047170386 -0.051952723 -0.030982284 0.12121462 -0.028773108
0.0030933416 0.014160709 -0.07996951 0.066260904 0.04929672 -0.010363131 -0.0019866223 0.012356497
0.05105264 0.034951136 -0.07650922 0.026409192 -0.0064052916 -0.05668114 0.027728321 0.039829966
0.13862272 -0.033206325 0.012366281 0.1881774 0.005960722 -0.052029353 0.0055800197 0.09073988
0.11447107 0.021187196 0.0068051433 -0.085419945 0.0019540938 0.042355865 0.030468397 -0.03834643
0.055354565 0.049203318 0.03317818 0.0013709032 0.15982586 0.036039505 0.13407995 0.0076396354
-0.0071312864 0.009988542 0.03344914 -0.058453217 0.08018665 -0.031935282 0.039423343 0.0015410408
-0.010650809 0.005206187 -0.030655362 -0.011032005 0.06789449 0.023321692 0.05038747 0.021447774
-0.1168669 0.011925253 -0.019830668 -0.016036775 0.07598741 -0.09681422 -0.01610284 0.07810722
0.04678444 0.091191985 0.03600794 -0.08469862 -0.0397416 0.012229312 0.15790428 -0.12613143

1.df.df.fc2.weight_block_1.bias1 f4 [2, 76]
00000000: f9cd fa3c 88ef c83c bcfa cbbc fcbb 9f3d
00000010: 023d 363e 1f60 97bc d807 3fbe 928a 8fbb
00000020: 8ee4 1b3d faff b7bd 910b 623c dff6 fdbd
00000030: 1856 ce3c aa10 87bd 6134 e2bd 2292 69bd
00000040: dfab 53bc aafd 04bd aa6d 72be 962f 1b3d
00000050: 5148 c4bd e803 523c ed9c 0abe 6778 5fbd
00000060: 6c8e fcbd 9f44 bd3d 0556 08bd 2057 96bd
00000070: 052a 463e 3cd4 68bd 8184 86bc 2021 99bc
00000080: a552 ea3a eec2 2dbe 5f9d 86bd 1c98 bebd
00000090: 66c8 aa3c 7569 613e 1d8d 243d b08c d2bc
000000a0: 48b0 bf3d 35e4 4cbd bf95 823c a044 d43d
000000b0: f50f f1bc 62ba c43c aefe aabc 3a7f 5eba
000000c0: 211f 203e 2895 973c 115a eabc 653e ecbd
000000d0: eec9 0fbc 5fe5 58bb bb8d abbc 4f45 24be
000000e0: 0d36 353e d0e0 c13c 09b8 efbc 0942 00bd
000000f0: 8e15 963c 647e 38be 3b0b 9d3d e529 233d
00000100: 1698 3f3d 642a 283c 1cd1 6f3d c90b 81bd
00000110: 37ce 1e3c 8a9b 483c 1386 acbd bf80 04be
00000120: c4da 21be f083 e6bd c438 453d 6227 6abc
00000130: b905 c1bc a4d1 d7bc bd70 01bd 88c1 64bd
00000140: 90e5 863d 22dd 8cbc 88a8 ddbc 57c3 273c
00000150: 58b7 0c3d 8a30 93bd 0213 05bd 4a15 d73c
00000160: 32b6 003d a0b5 bb3c bcab e1bd 4e70 9c3c
00000170: 9df2 40bd 70dc 37bd e456 63bd 9a71 7abd
00000180: 6c58 7239 4042 c3bd 183c 38bc cf7c c8bd
00000190: 8814 1abd 54b8 a13a 1e50 cabc 1b52 0ebe
000001a0: f7ee 06bd 30b4 4fbd f512 ffbc 27d7 abbc
000001b0: 0040 2d3d 4321 5f3d 7baf 8ebb 467e 35bd
000001c0: 7644 b03c b780 a3bb a9cf 5abd f307 62bc
000001d0: 7ee8 313c d8ee 7dbd c70b 763b 0f3c 203d
000001e0: e29b 06bd 81b2 03bd 1a82 72bd 3ed8 2ebd
000001f0: 321e 6dbd 5f40 46bd 27a0 e5bc 356b e8bd
00000200: 9381 a6bd de6e 9bbd ea7b 63bd 7793 263d
00000210: 78ce eabc 513a dfbc 502c 81bd bff5 02bd
00000220: 29a4 16bd fc3d bfbd 8175 ddbc 8ade 59bb
00000230: 1a05 a4bc 6daa 4cbd d283 e1bd 7821 90bd
00000240: 224d 07bd 9a04 a8bd 30fd 61bd c8eb 2ebd
00000250: c31e 2abd 6fa1 80bd 8c33 89bd a694 66bd
0.030615794 0.02452828 -0.024899833 0.07799527 0.1779671 -0.018478451 -0.18655336 -0.0043805325
0.038059764 -0.089843705 0.013796703 -0.124006025 0.025187537 -0.06594975 -0.11045147 -0.05702413
-0.012919395 -0.032468475 -0.23674646 0.03788718 -0.09584106 0.012818314 -0.13536425 -0.054558184
-0.12331852 0.09241604 -0.03328516 -0.073408365 0.19351967 -0.056843027 -0.016420605 -0.018692553
0.0017877413 -0.16968891 -0.06572985 -0.09306356 0.02084751 0.22012885 0.04017364 -0.02570185
0.09359795 -0.050022323 0.015940545 0.10364652 -0.029426554 0.024014656 -0.020873394 -0.0008487586
0.15636875 0.01850374 -0.0286074 -0.11535338 -0.008776171 -0.00330957 -0.020941606 -0.16042064
0.176964 0.02366677 -0.02926256 -0.031312976 0.018320825 -0.18016964 0.07668158 0.039834876
0.0467759 0.010264013 0.05854903 -0.06301076 0.00969272 0.012244115 -0.0842401 -0.12939738
-0.15806109 -0.11255634 0.04814984 -0.014291616 -0.0235623 -0.026345082 -0.031601656 -0.05584863
0.06586754 -0.017195288 -0.027057901 0.010239444 0.034354538 -0.071869925 -0.03248883 0.026255269
0.031423755 0.022913754 -0.11019084 0.01909652 -0.047106374 -0.04488796 -0.055502787 -0.061143495
0.00023111858 -0.095341206 -0.011244796 -0.0978943 -0.037617236 0.0012338259 -0.024696406 -0.13898508
-0.03294274 -0.05070895 -0.03113697 -0.020976616 0.042297363 0.05447508 -0.004354415 -0.044309877
0.02151702 -0.0049897092 -0.053420696 -0.013795841 0.010858653 -0.061995357 0.003754364 0.039119776
-0.032863505 -0.032152656 -0.059206106 -0.042686693 -0.057890125 -0.048401233 -0.028030468 -0.11348573
-0.08130183 -0.075895056 -0.055538096 0.040667977 -0.028662905 -0.027249487 -0.0630728 -0.031972643
-0.03677765 -0.093379945 -0.02703357 -0.0033244216 -0.020021964 -0.04996722 -0.11011471 -0.07037634
-0.033032544 -0.08204003 -0.0551731 -0.042705327 -0.041533243 -0.06280791 -0.06699285 -0.056294106
