model/5.pt (torch, 694923 bytes, 30 tensors)

1.df.df.fc1.weight_block_1.weights1 f4 [2, 76, 76]
0.082367934 -0.024297722 -0.0037222297 -0.0047821784 -0.050092064 0.03456227 0.0053211413 0.08690411
0.06450483 0.009438793 5.5877936e-05 -0.06039327 -0.032271147 0.00064185506 0.020772947 0.048217937
0.04698762 -0.014550909 0.026780302 0.005034624 -0.0025277992 -0.044364385 -0.021340234 0.033581648
0.05657115 0.019354368 0.064301506 0.06067668 0.030958842 -0.15977482 0.006056313 0.07031676
0.080442116 0.007418845 0.017776016 0.028947214 -0.044234265 0.06915672 0.0135475015 -0.09560644
-0.010085781 -0.01819759 -0.0055477493 0.08138109 -0.07847426 0.009403151 0.021982387 -0.077082016
0.03667378 -0.13932446 -0.039997227 -0.019939795 -0.024269195 0.009800818 -0.14163414 -0.022887364
0.028059924 -0.05800804 -0.011501354 0.03589394 0.031372443 -0.0179039 0.055342 -0.039872542
0.0074041053 0.008009024 0.022887485 -0.10969853 0.03604654 0.03195806 -0.023828864 0.014485476
0.010102287 0.0388566 -0.020563157 -0.06270117 -0.038042326 0.059628855 0.025761198 0.030277206
-0.013838819 0.006527427 0.007950394 -0.057727803 -0.02413221 0.0043934463 0.009302729 0.03646612
0.008991932 0.0061842985 0.016108405 0.009985906 -0.00836134 0.025661232 0.017171172 0.004776493
0.010595429 0.05334308 0.019085376 0.016213467 -0.0069737458 0.02678882 0.008485844 -0.02319336
0.018764364 0.004078529 0.016818512 0.0063376264 0.012612536 -0.0097378 0.008763027 0.006059958
0.04888192 0.013735312 0.013946757 0.039533228 0.018146528 0.018207194 0.008970488 -0.049954273
0.06204706 0.0007521846 -0.01365168 -0.006439512 0.003197916 0.09565573 0.064353056 0.03481493
0.037454143 0.027497048 0.08615448 0.04807757 -0.007953184 0.061142873 0.04537061 -0.018754803
0.00407041 0.049317893 0.0031368486 0.062357225 0.028466785 0.042612746 0.0132912155 0.022106508
-0.0093557425 -0.014672155 0.030364309 -0.00110572 -0.0019918212 0.0018703295 0.034894075 0.048112847
0.015199769 0.1065201 0.05544051 0.016972052 0.00818971 0.010447432 -0.054319624 -0.17044032
0.0046656686 0.011711624 -0.009422853 -0.13762134 -0.027086142 0.02512911 0.04559298 -0.09466
0.007326591 0.037604276 0.10413985 0.041381136 0.06801364 0.028914528 0.0069169304 0.053478155
-0.16006973 0.11664281 0.004750726 -0.048155393 0.00019674283 0.06146561 -0.07621075 0.07235886
-0.05130887 -0.05144962 0.10761189 -0.0065970924 -0.06941658 -0.042111684 0.011787357 0.045829557
0.015487122 -0.050968982 0.013405606 0.0005156842 -0.033751186 0.041225445 -0.038503576 -0.06676505
0.011250896 0.082686305 0.0076120202 0.038381908 -0.01801745 -0.027919661 -0.006502979 0.0036862702
-0.029813908 -0.113442294 -0.020371484 0.03665499 0.056581326 0.036463093 0.04043975 -0.06289042
0.007668838 0.080321774 0.06981465 0.089403324 -0.061557263 -0.016512714 0.1199643 0.04314511
-0.0033950899 -0.032316208 0.002381041 -0.101145424 -0.07571258 -0.07484831 0.011050572 -0.009360326
0.16147496 -0.094992176 -0.040175635 -0.07575675 -0.057450015 0.031923115 0.03155536 -0.07203971
0.03749413 0.03503303 -0.048539147 -0.21665522 -0.0057533365 0.05337285 -0.03839071 0.04396357
0.007414044 0.012797192 0.0083342325 -0.014440796 -0.19870046 -0.027939629 -0.1470083 -0.0064999308
00000000: 85b0 a83d 040c c7bc a7f0 73bb d2b3 9cbb
00000010: 562d 4dbd 2b91 0d3d f85c ae3b c8fa b13d
00000020: 1c1b 843d 2ba5 1a3c 7a5e 6a38 ef5e 77bd
00000030: c02e 04bd 2a42 283a 072c aa3c 2c80 453d
00000040: 1776 403d f066 6ebc 5d62 db3c 7df9 a43b
00000050: 6fa9 25bb 6eb7 35bd b7d1 aebc e98c 093d
00000060: 26b7 673d 0d8d 9e3c 82b0 833d 1c88 783d
00000070: 669d fd3c 039c 23be 0974 c63b 3c02 903d
00000080: d6be a43d c819 f33b 029f 913c b522 ed3c
00000090: fd2e 35bd 0aa2 8d3d 57f6 5d3c 4fcd c3bd
000000a0: d53e 25bc 1d13 95bc e5c9 b5bb 21ab a63d
000000b0: 1db7 a0bd ad0f 1a3c 6814 b43c 2ddd 9dbd
000000c0: 3f37 163d 12ab 0ebe 22d4 23bd c858 a3bc
000000d0: 31d0 c6bc 9c93 203c 8a08 11be 487e bbbc
000000e0: eddd e53c d799 6dbd 2d70 3cbc 8605 133d
000000f0: 6480 003d 33ab 92bc 4bae 623d 6451 23bd
00000100: 239e f23b 4838 033c 897e bb3c 9fa9 e0bd
00000110: 89a5 133d 74e6 023d c034 c3bc 7d54 6d3c
00000120: 1084 253c 1928 1f3d 1174 a8bc 7969 80bd
00000130: 45d2 1bbd 633d 743d 2609 d33c e707 f83c
00000140: 37bc 62bc 07e4 d53b 5f42 023c fd73 6cbd
00000150: eab0 c5bc e6f6 8f3b 796a 183c 805d 153d
00000160: e552 133c a8a5 ca3b c6f5 833c ed9b 233c
00000170: 00fe 08bc 8137 d23c 8faa 8c3c 2184 9c3b
00000180: 7398 2d3c 467e 5a3d ef58 9c3c 1bd2 843c
00000190: 0584 e4bb 3a74 db3c 3608 0b3c 0000 bebc
000001a0: b9b7 993c 2ea5 853b fac6 893c ddab cf3b
000001b0: cfa4 4e3c 4b8b 1fbc cd92 0f3c 9d92 c63b
000001c0: 6838 483d 130a 613c f080 643c 98ed 213d
000001d0: 07a8 943c 4127 953c f4f8 123c da9c 4cbd
000001e0: 0f25 7e3d 412e 453a 4cab 5fbc 8b02 d3bb
000001f0: 2194 513b 27e7 c33d 89cb 833d 1a9a 0e3d
00000200: 8469 193d 7d41 e13c c371 b03d fcec 443d
00000210: 124e 02bc f370 7a3d 88d6 393d aca3 99bc
00000220: 1361 853b 8f01 4a3d 9693 4d3b 4a6a 7f3d
00000230: 2d33 e93c b48a 2e3d 66c3 593c b518 b53c
00000240: d448 19bc 7a63 70bc 92be f83c ceed 90ba
00000250: 3789 02bb d825 f53a 17ed 0e3d fa11 453d
00000260: 7408 793c 3627 da3d 9715 633d f908 8b3c
00000270: 222e 063c b52b 2b3c 417e 5ebd e887 2ebe
00000280: 77e2 983b 1de2 3f3c 4f62 1abc 9cec 0cbe
00000290: c2e3 ddbc 90db cd3c b4bf 3a3d 1add c1bd
000002a0: e613 f03b f106 1a3d 4647 d53d 447f 293d
000002b0: bc4a 8b3d 29de ec3c 6ba7 e23b e90b 5b3d
000002c0: 52e9 23be 6de2 ee3d faab 9b3b 973e 45bd
000002d0: c04c 4e39 5dc3 7b3d 6214 9cbd e230 943d
000002e0: 4029 52bd d6bc 52bd 9f63 dc3d 6c2c d8bb
000002f0: 482a 8ebd 4d7d 2cbd c21f 413c c6b7 3b3d
00000300: b3bd 7d3c dac4 50bd 30a3 5b3c fb2e 073a
00000310: af3e 0abd 03dc 283d edb5 1dbd 1dbc 88bd
00000320: ae55 383c 7057 a93d 416e f93b 5936 1d3d
00000330: 5599 93bc c6b7 e4bc f116 d5bb 5a95 713b
00000340: 4c3c f4bc 6f54 e8bd 19e2 a6bc 8b23 163d
00000350: d2c1 673d 535a 153d 27a4 253d b1cc 80bd
00000360: e04a fb3b be7f a43d fcfa 8e3d 1719 b73d
00000370: 7823 7cbd ac45 87bc d8af f53d edb8 303d
00000380: 2880 5ebb 005e 04bd 3d0b 1c3b 5525 cfbd
00000390: 320f 9bbd 124a 99bd 750d 353c 0e5c 19bc
000003a0: b159 253e 428b c2bd 358f 24bd 5b26 9bbd
000003b0: b550 6bbd d0c1 023d 3140 013d 8e89 93bd
000003c0: 7293 193d cb7e 0f3d fcd0 46bd deda 5dbe
000003d0: 7c86 bcbb 7d9d 5a3d 943f 1dbd 2513 343d
000003e0: 82f1 f23b 50ab 513c 4e8c 083c 1799 6cbc
000003f0: 2278 4bbe a6e1 e4bc 5889 16be 5ffd d4bb

1.df.df.fc1.weight_block_1.bias1 f4 [2, 76]
0.09786963 0.02990424 0.09487706 0.025880525 0.03509834 0.0420572 0.024100902 0.11745966
-0.028362598 0.03202385 0.07288753 -0.04800834 0.03660991 -0.049000997 -0.029441226 0.013697213
-0.3140668 0.08049347 0.044875022 0.099945985 0.010924231 0.097782046 0.09228917 -0.0099884095
0.104284436 -0.16214956 0.031255715 -0.03547916 0.025726195 -0.18005627 0.019404894 0.165531
0.050329916 0.076023914 0.028713508 0.07053563 0.08476706 -0.07323247 -0.07603956 -0.1370777
0.075667694 0.0016744635 0.031145716 0.016869407 0.046475697 -0.003372843 -0.013446181 0.027218921
0.012732166 -0.29306996 0.14813535 0.050687905 -0.024699524 0.06711048 -0.034148708 -0.0014090893
0.012312976 0.058782347 -0.0017205583 0.03424022 -0.17006165 0.1737463 0.038029127 0.026229877
-0.0011730988 0.11214814 -0.0073447987 -0.20739302 0.0908148 -0.017713053 -0.021979006 -0.00040033562
-0.10271944 0.041163515 0.021669567 0.060347065 0.0628149 -0.091408156 -0.10434865 0.060386978
0.025043352 -0.010583963 -0.026161708 -0.10503457 -0.11314038 -0.04118681 -0.09454492 0.09031076
-0.061419886 0.02258181 -0.031965837 -0.050550666 -0.24051876 -0.036466677 -0.013422337 -0.019098977
0.014899625 -0.100541756 0.0033965576 0.036330756 -0.0058583324 -0.14275727 0.008041588 -0.0106370505
-0.09144051 0.062942214 0.021940976 0.07670541 -0.08725608 -0.040264923 -0.046371784 -0.000731744
-0.011439671 0.04275572 -0.08100112 0.06583139 0.02057526 0.021204537 0.03098902 0.046692684
0.048540387 -0.018630305 0.029331023 -0.03177572 -0.03585244 -0.053705417 -0.008058694 0.029217225
-0.011637287 -0.06385886 0.058252893 0.019467663 -0.0018420124 0.06514101 0.0015723921 -0.028182019
0.022522688 0.053254984 0.057531208 0.07301603 0.014322509 0.01538686 0.030957486 0.009490399
-0.046718433 0.018726671 0.028044796 -0.11142389 -0.08071058 -0.018520141 -0.030672202 0.03380702
00000000: df6f c83d bdf9 f43c e74e c23d 6503 d43c
00000010: 47c3 0f3d 2c44 2c3d 416f c53c b18e f03d
00000020: ae58 e8bc 712b 033d 0f46 953d 65a4 44bd
00000030: 46f4 153d 45b5 48bd ba2e f1bc 466a 603c
00000040: 5dcd a0be c3d9 a43d dfce 373d 7bb0 cc3d
00000050: 8cfb 323c f441 c83d 1b02 bd3d 6da6 23bc
00000060: 1493 d53d 890a 26be fe05 003d 9852 11bd
00000070: bebf d23c ac60 38be 03f7 9e3c f580 293e
00000080: be26 4e3d 6db2 9b3d 9738 eb3c fc74 903d
00000090: 5a9a ad3d e8fa 95bd a1ba 9bbd 195e 0cbe
000000a0: aaf7 9a3d ac79 db3a 4d25 ff3c b631 8a3c
000000b0: 4d5d 3e3d ea0a 5dbb 5f4d 5cbc 37fa de3c
000000c0: 939a 503c 440d 96be cbb0 173e 1f9e 4f3d
000000d0: a856 cabc 3871 893d 84df 0bbd 31b1 b8ba
000000e0: 5dbc 493c c2c5 703d 5b84 e1ba 793f 0c3d
000000f0: a424 2ebe 8dea 313e 6ec4 1b3d 0ae0 d63c
00000100: aac2 99ba edad e53d a3ac f0bb d65e 54be
00000110: 1cfd b93d f71a 91bc 510d b4bc 23e4 d1b9
00000120: 925e d2bd 139b 283d 6084 b13c 7c2e 773d
00000130: 19a5 803d 3334 bbbd bfb4 d5bd 5658 773d
00000140: b727 cd3c 5c68 2dbc 1451 d6bc 5d1c d7bd
00000150: 25b6 e7bd 80b3 28bd c4a0 c1bd d9f4 b83d
00000160: 6b93 7bbd 7dfd b83c 9cee 02bd 370e 4fbd
00000170: 8d4a 76be 155e 15bd 5de9 5bbc 7575 9cbc
00000180: 8f1d 743c d6e8 cdbd c898 5e3b 8fcf 143d
00000190: 41f7 bfbb f62e 12be ddc0 033c 0647 2ebc
000001a0: 2945 bbbd d9e7 803d 90bd b33c ba17 9d3d
000001b0: 51b3 b2bd d5ec 24bd 57f0 3dbd 82d2 3fba
000001c0: 756d 3bbc 9f20 2f3d eae3 a5bd 9cd2 863d
000001d0: 738d a83c 23b5 ad3c afdc fd3c d440 3f3d
000001e0: 49d2 463d 959e 98bc 9d47 f03c 4227 02bd
000001f0: 02da 12bd 36fa 5bbd 9d08 04bc f658 ef3c
00000200: 52aa 3ebc 6fc8 82bd 969a 6e3d a67a 9f3c
00000210: ae6f f1ba a668 853d b918 ce3a fadd e6bc
00000220: 8081 b83c e621 5a3d d8a5 6b3d 6e89 953d
00000230: f5a8 6a3c 2b19 7c3c 8e9a fd3c 9e7d 1b3c
00000240: d45b 3fbd ad68 993c 33be e53c 3532 e4bd
00000250: 974b a5bd 8db7 97bc 4544 fbbc 3b79 0a3d

1.df.df.fc1.weight_block_2.weights1 f4 [2, 76, 76]
0.06965898 0.010127579 0.04853274 0.033719655 0.012794474 0.051736943 -0.015520569 0.024733374
-0.028788172 -0.03224516 -0.01954803 -0.006923319 -0.009154713 -0.0040137125 0.008802688 0.030631028
-0.02271598 0.0018499824 0.022627236 0.012959666 0.05379863 0.033363625 0.022818482 0.04444128
-0.023248663 -0.00919975 -0.016761515 0.011082661 -0.043167584 -0.014751086 -0.010488894 0.07176777
0.016484674 0.0013921728 -0.007805442 -0.0044447123 -0.045853984 0.048737843 0.024528077 -0.0047955625
0.02428892 -0.0014478242 -0.024152448 -0.055903908 0.06739541 0.06355174 0.0076430035 -0.041380543
0.088799685 -0.058307428 -0.0008875175 0.050280735 0.011286057 -0.044161845 0.002959874 -0.08325663
-0.03503038 0.008073981 -0.010185209 0.023869187 -0.009071876 0.0008836682 0.08670189 -0.009707483
-0.017300677 0.11512982 0.03387312 0.09502409 0.04582214 -0.022266086 -0.00462016 -0.015210167
-0.026573298 0.010089684 0.044978008 0.0040276265 0.0060088085 0.01668632 0.023548571 -0.0178479
0.032812573 -0.03831301 0.015681248 0.005941441 -0.0040895795 0.016187653 0.04766257 0.031206695
0.03892861 0.036893457 0.048171673 0.0059920456 0.044313777 0.030914804 -0.021436807 -0.010366993
-0.015177118 -0.024727674 -0.006514659 0.015350301 0.040249802 0.043828655 0.024969228 0.0063112252
0.03848418 0.047797505 -0.014126318 -0.007579197 -0.016395535 0.034197964 0.016548853 0.022102773
-0.026985204 0.0024213067 0.0122518 0.0218073 0.006176299 0.0066096704 0.033575356 0.047283307
-0.020897469 0.0045475676 0.037904944 0.03639039 -0.017660834 0.069738604 -0.0059569185 0.014066909
0.014689477 0.043808132 0.011865914 0.0798872 0.063669235 0.02753651 0.023595849 -0.00753062
-0.012206615 0.010643178 -0.03207175 0.018078003 0.037768964 0.0071461145 -0.00064209156 -0.037710648
0.025805691 0.032175507 0.03169923 -0.024435742 0.027945736 0.0075435247 0.02629966 0.023696233
0.15384236 0.014964726 0.025716558 -0.114259 0.037032563 -0.056929495 0.07653621 0.0028161323
-0.091284454 -0.008731532 -0.13871844 0.016614988 0.12842023 0.017391533 0.007869048 0.09637644
-0.0008433159 -0.01801705 0.068868786 -0.023557497 -0.073639154 0.07359925 -0.01853078 -0.003392098
0.021819675 -0.004966929 -0.013015376 -0.01804987 0.049650997 -0.040853716 0.14199378 0.065769985
-0.041863345 0.0047545605 -0.06518587 0.005319147 -0.023837134 0.059859164 0.06648844 -0.06891795
-0.009790509 -0.060286034 0.018097494 -0.0055648 -0.034647234 -0.013315533 0.050274055 -0.07039635
0.07407689 -0.0034295414 -0.076065056 0.051628314 -0.014587159 0.010378928 0.054081503 -0.029298317
0.049520403 0.054846596 0.01976394 -0.077409126 0.008125493 -0.013168082 -0.0169714 -0.009170915
0.06676159 -0.019234981 -0.0016021011 0.024236185 0.13049677 0.06625915 0.0047005005 0.07430684
-0.020435246 0.024356578 0.046225082 -0.008612968 -0.045549408 -0.007893468 -0.16202678 -0.11065376
-0.054318447 -0.024448289 0.14099818 -0.029671755 0.022717938 0.08621904 -0.13119455 0.02452928
-0.016580181 -0.05388523 -0.0968556 -0.0016328348 0.006562649 -0.03532943 0.082075536 0.016946822
-0.10345936 0.08101799 -0.012427591 -0.10423218 -0.022262597 -0.09551333 0.020084154 -0.009628798
00000000: 5ea9 8e3d 25ee 253c 44ca 463d 9f1d 0a3d
00000010: ea9f 513c 1eea 533d fc49 7ebc a59d ca3c
00000020: 2cd5 ebbc 8013 04bd 3123 a0bc 02dd e2bb
00000030: a6fd 15bc 7685 83bb 2639 103c eced fa3c
00000040: dd16 babc 1c7b f23a c15c b93c c754 543c
00000050: f45b 5c3d 4ca8 083d d3ed ba3c 0f08 363d
00000060: fb73 bebc 8cba 16bc 724f 89bc 0d94 353c
00000070: 7ed0 30bd 8aae 71bc 9cd9 2bbc fbfa 923d
00000080: de0a 873c 9179 b63a cbc4 ffbb f3a4 91bb
00000090: 63d1 3bbd 55a1 473d 1bef c83c 1824 9dbb
000000a0: 8ff9 c63c ebc4 bdba 5bdb c5bc 7ffb 64bd
000000b0: 9b06 8a3d 6a27 823d 2972 fa3b a57e 29bd
000000c0: 9cdc b53d c5d3 6ebd 4ba8 68ba 2cf3 4d3d
000000d0: 27e9 383c 0de3 34bd 72fa 413b 7482 aabd
000000e0: 047c 0fbd bb48 043c dddf 26bc 5089 c33c
000000f0: 35a2 14bc f8a5 673a c390 b13d 230c 1fbc
00000100: 26ba 8dbc 2fc9 eb3d 8abe 0a3d fd9b c23d
00000110: ffaf 3b3d 5e67 b6bc b664 97bb 1034 79bc
00000120: 3fb0 d9bc 344f 253c dc3a 383d 2efa 833b
00000130: 8ae5 c43b c0b1 883c efe8 c03c c235 92bc
00000140: 7a66 063d 1aee 1cbd f675 803c 6bb0 c23b
00000150: e101 86bb f89b 843c d439 433d 2fa5 ff3c
00000160: 9b73 1f3d 981d 173d a94f 453d ec58 c43b
00000170: 5d82 353d 0b41 fd3c 3e9c afbc 52da 29bc
00000180: 72a9 78bc b191 cabc ec78 d5bb d47f 7b3c
00000190: fadc 243d ad85 333d 448c cc3c 65ce ce3b
000001a0: 96a1 1d3d 51c7 433d 1272 67bc ea5a f8bb
000001b0: ee4f 86bc 2a13 0c3d 7691 873c e010 b53c
000001c0: 1310 ddbc c9ae 1e3b c6bb 483c 39a5 b23c
000001d0: 8d62 ca3b ef95 d83b 5086 093d 24ac 413d
000001e0: 2b31 abbc c303 953b 3742 1b3d 170e 153d
000001f0: 74ad 90bc 1dd3 8e3d 4132 c3bb e578 663c
00000200: 22ac 703c 2870 333d 4069 423c e69b a33d
00000210: 0465 823d 3f94 e13c 154c c13c 6bc3 f6bb
00000220: 41fe 47bc b960 2e3c ab5d 03bd 5218 943c
00000230: a1b3 1a3d f429 ea3b 0952 28ba 7b76 1abd
00000240: 7566 d33c 77ca 033d 0dd7 013d 772d c8bc
00000250: 75ee e43c ac2f f73b 6272 d73c 9a1e c23c
00000260: da88 1d3e 9c2e 753c 88ab d23c 9f00 eabd
00000270: 75af 173d e72e 69bd 04bf 9c3d dc8e 383b
00000280: 58f3 babd b30e 0fbc 350c 0ebe 281c 883c
00000290: 9880 033e b078 8e3c 2eed 003c 0361 c53d
000002a0: f911 5dba 7e98 93bc 140b 8d3d a7fb c0bc
000002b0: 20d0 96bd 34bb 963d ddcd 97bc f64d 5ebb
000002c0: 2dbf b23c 9fc1 a2bb 723e 55bc 52dd 93bc
000002d0: d85e 4b3d 3a56 27bd d166 113e 6ab2 863d
000002e0: e678 2bbd 25cc 9b3b 2b80 85bd 3d4c ae3b
000002f0: 1846 c3bc e22e 753d 172b 883d db24 8dbd
00000300: 5f68 20bc 7dee 76bd 3241 943c ed58 b6bb
00000310: 42ea 0dbd 6529 5abc 2bec 4d3d f62b 90bd
00000320: a0b5 973d 28c2 60bb ffc7 9bbd 3678 533d
00000330: fbfe 6ebc 610c 2a3c 9184 5d3d 0603 f0bc
00000340: e8d5 4a3d d3a6 603d fce7 a13c ad88 9ebd
00000350: ca20 053c f0be 57bc 9b07 8bbc 9b41 16bc
00000360: 4dba 883d ae92 9dbc 98fd d1ba f78a c63c
00000370: f2a0 053e e1b2 873d a806 9a3b 2f2e 983d
00000380: d167 a7bc 7287 c73c 8356 3d3d 681d 0dbc
00000390: 0492 3abd 9b53 01bc 59ea 25be 709e e2bd
000003a0: 057d 5ebd c747 c8bc d461 103e 2e12 f3bc
000003b0: f81a ba3c 9c93 b03d dd57 06be a1f1 c83c
000003c0: 29d3 87bc c2b6 5cbd 3b5c c6bd d804 d6ba
000003d0: 7d0b d73b 98b5 10bd 3817 a83d 10d4 8a3c
000003e0: 80e2 d3bd c3ec a53d 189d 4bbc ae77 d5bd
000003f0: 0d60 b6bc 7e9c c3bd 8687 a43c 1bc2 1dbc

1.df.df.fc1.weight_block_2.bias1 f4 [2, 76]
0.14020018 0.046084367 0.0487176 0.13291802 0.0442208 0.05229053 0.08461371 -0.025194565
-0.005919494 0.12653083 0.107797176 -0.15703441 -0.051447 0.026258325 0.1890968 0.025436511
0.047677223 -0.013263252 0.07141662 -0.10228198 0.09418797 0.09227285 0.028809015 0.10897296
0.12733613 0.025098661 0.0052080345 0.016296243 -0.00067088025 0.053699154 -0.06262894 0.22013596
-0.0030301688 0.055219263 0.048180938 0.03643188 0.015242233 0.04466815 0.13354115 0.032775886
0.02978051 0.082154945 -0.022196291 0.06474566 -0.01956581 0.08395875 0.077117324 -0.008864154
-0.30040655 0.15361726 -0.059824705 -0.081014045 0.0049516754 0.012102864 0.1258112 0.02750622
0.16440524 -0.08363679 -0.017082673 -0.063284785 0.04225775 0.05258926 0.21762355 0.06658425
-0.0357117 -0.0058669476 0.0022213822 -0.17879082 0.15291923 0.09562673 -0.079825334 0.047453787
0.006862424 -0.027553618 0.09246402 -0.043884806 0.042164505 0.021967862 0.042871423 0.04118191
-0.0924162 0.0002762216 -0.121790804 0.023043659 -0.081713766 -0.04902411 0.031198533 -0.112754166
0.022653056 -0.009917604 0.012934442 0.059901793 0.026612272 0.04329896 0.01422194 -0.04245568
-0.024901347 0.040895298 0.019279568 0.0184594 -0.032321442 0.011700172 -0.026294386 -0.006088628
-0.092081435 -0.029131863 0.03295857 0.058344685 -0.05659132 -0.076327525 0.035522297 -0.06564692
0.028462235 -0.04697886 0.013341554 -0.0035857465 -0.013346151 0.021610575 0.102639094 -0.071431845
-0.042763125 -0.19688125 -0.09658801 0.06024222 -0.06093077 0.045619197 -0.115993984 0.034109358
0.009707528 -0.03870104 0.0331094 -0.00565366 -0.09238472 -0.08034996 -0.0454421 -0.04783875
-0.05171722 0.03704599 -0.09056535 -0.0037800353 -0.11571437 0.04069439 -0.007412012 -0.0783821
-0.024067616 0.017073195 -0.09864866 -0.08091476 0.0481217 0.014002915 -0.06426363 0.003843421
00000000: a390 0f3e f6c2 3c3d 1b8c 473d a91b 083e
00000010: df20 353d 982e 563d f449 ad3d d564 cebc
00000020: 51f8 c1bb 4c91 013e c4c4 dc3d a1cd 20be
00000030: 17ba 52bd b31b d73c 97a2 413e 3b60 d03c
00000040: 3149 433d 1c4e 59bc e042 923d 3779 d1bd
00000050: 9fe5 c03d 8cf9 bc3d e200 ec3c 372d df3d
00000060: 6764 023e b59b cd3c 29a8 aa3b b37f 853c
00000070: 03de 2fba a5f3 5b3d 9a43 80bd 526b 613e
00000080: cc95 46bb 982d 623d 6059 453d 9839 153d
00000090: 8fba 793c f3f5 363d 03bf 083e 0240 063d
000000a0: 42f6 f33c da40 a83d ffd4 b5bc 5f99 843d
000000b0: 7a48 a0bc 91f2 ab3d b0ef 9d3d f53a 11bc
000000c0: e3ce 99be d84d 1d3e c00a 75bd b1ea a5bd
000000d0: aa41 a23b 174b 463c a7d4 003e b954 e13c
000000e0: d959 283e c449 abbd f6f0 8bbc 749b 81bd
000000f0: 7616 2d3d d667 573d b5d8 5e3e 535d 883d
00000100: 6e46 12bd 863f c0bb 9c94 113b f114 37be
00000110: dc96 1c3e f2d7 c33d 777b a3bd e75e 423d
00000120: 2fde e03b 20b8 e1bc c75d bd3d 8ec0 33bd
00000130: b0b4 2c3d f2f5 b33c f299 2f3d 5dae 283d
00000140: b444 bdbd d6d1 9039 756d f9bd 0ec6 bc3c
00000150: 8c59 a7bd 81cd 48bd 1194 ff3c a8eb e6bd
00000160: e792 b93c 727d 22bc fbea 533c 955b 753d
00000170: fb01 da3c 405a 313d 2403 693c 02e6 2dbd
00000180: e9fd cbbc d481 273d 2ff0 9d3c 2b38 973c
00000190: 7d63 04bd 14b2 3f3c 5367 d7bc 1d83 c7bb
000001a0: 3195 bcbd f2a5 eebc 91ff 063d d6fa 6e3d
000001b0: 4dcc 67bd 9b51 9cbd d47f 113d e471 86bd
000001c0: a229 e93c e86c 40bd 8996 5a3c d8fe 6abb
000001d0: d1a9 5abc a908 b13c 7234 d23d dc4a 92bd
000001e0: 6328 2fbd 3d9b 49be efcf c5bd 8cc0 763d
000001f0: 8b92 79bd 32db 3a3d 418e edbd 41b6 0b3d
00000200: 530c 1f3c fb84 1ebd b99d 073d 5642 b9bb
00000210: 3334 bdbd 858e a4bd 7f21 3abd 91f2 43bd
00000220: 70d5 53bd 89bd 173d 547a b9bd 78ba 77bb
00000230: a8fb ecbd 29af 263d 77e0 f2bb cb86 a0bd
00000240: 7329 c5bc 16dd 8b3c 4f08 cabd a3b6 a5bd
00000250: 421b 453d 7b6c 653c a69c 83bd e7e1 7b3b

1.df.df.fc1.concat_real_layer_1.weight f4 [76, 152]
0.019945588 0.023517879 0.053495318 -0.03001714 -0.040081 0.028316613 -0.081818014 0.057465054
0.026841031 -0.005615448 0.023785565 -0.03365081 0.16015254 0.01999249 0.0040678196 0.0378461
0.054085407 -0.012084459 0.06403226 -0.056740474 0.008442177 0.036743164 0.039225154 -0.009926543
-0.11846841 0.05610649 0.03613074 0.05056096 -0.0017184999 0.030651605 -0.090834014 0.05708801
-0.045174554 -0.046638303 0.111467734 -0.06465103 -0.12665018 0.0056294887 0.037751283 0.051504478
-0.057984274 0.027385766 0.027658008 0.049905527 -0.079181224 -0.04573335 -0.035570927 0.06923659
-0.062194534 0.04297703 -0.053335093 -0.107232034 0.033834413 0.013380053 -0.006113221 -0.115156226
0.013173174 -0.13188976 0.07928997 -0.027292043 -0.0022515494 -0.1367366 0.002743109 -0.030146241
-0.047137197 -0.0040979013 0.10254031 0.0068393424 -0.030179208 0.034314826 0.0025359234 -0.048195936
-0.005185337 -0.017844506 -0.027866805 -0.05851764 0.072801925 0.08290335 0.09037243 -0.048340604
0.13306437 -0.030605761 -0.032881916 -0.015662797 0.06620967 0.011421864 -0.10637518 -0.06256494
-0.05575724 -0.0073704957 -0.104812205 0.13430548 -0.09528132 -0.014504419 0.092106044 0.0011660205
0.028428704 0.009524455 -0.008388693 0.07383205 0.017413307 0.027224781 -0.05057569 0.07934464
0.09178198 -0.012411358 0.07206735 0.13141614 0.002723701 -0.104546785 -0.1407054 -0.06248167
0.02813666 0.037705623 0.049080573 -0.08757788 0.02710354 -0.022019839 -0.016973333 -0.020437902
0.14124201 -0.049075108 0.07015789 -0.08433697 -0.012591741 -0.13635284 -0.0023991056 -0.04126549
-0.1253722 -0.073568806 -0.038353268 -0.008743341 -0.07028175 -0.04994592 0.08132924 -0.031025402
-0.040524084 0.0013251771 0.10146117 -0.14066075 0.046896495 0.06619636 0.08625685 0.13476714
0.0003853078 -0.09026792 0.07315476 -0.029990604 0.031655688 -0.024120323 0.17381863 -0.058493327
0.06735482 0.0691953 -0.024634216 -0.09627044 0.049272828 -0.11278796 -0.16768649 -0.017840557
-0.012544613 -0.09576713 0.12305645 -0.036109895 -0.18431711 -0.13267866 0.08186412 -0.15055655
0.046213668 0.09257073 -0.061399825 0.07868816 -0.14425935 0.008853082 0.095734686 -0.003988499
-0.078553684 -0.14538239 0.025350735 0.017511759 0.009736277 -0.04099419 0.01863155 -0.055192553
0.07225709 -0.16837664 0.06967163 0.057730913 0.027941892 -0.20184582 0.08459591 -0.11621226
-0.0397109 0.03797145 -0.10157992 0.045724317 -0.029050674 -0.042800162 -0.16792452 -0.088846706
0.046063304 0.0735655 0.07341947 0.015719442 0.07401761 0.035931002 -0.020938206 0.087072074
-0.15185638 0.06121716 -0.1368162 0.05497378 0.15934378 0.15356225 -0.074035585 -0.062603705
-0.035598274 -0.08643233 -0.036146034 -0.10363201 -0.1803976 -0.021752413 -0.11083266 0.018304095
0.057263147 -0.13682704 -0.05009316 -0.11223964 -0.04844446 -0.18764725 -0.12472304 -0.20721598
-0.14635417 -0.02691672 -0.019719502 -0.17355378 -0.02618851 0.10873537 -0.008941937 -0.08156198
0.042045195 -0.20901681 0.115704134 -0.02011603 -0.046713065 0.04753154 -0.01408299 -0.06352321
-0.15568027 0.05609071 -0.1689276 -0.07122184 -0.17393753 -0.06268513 0.017138744 -0.22129387
00000000: ee64 a33c 91a8 c03c e81d 5b3d 81e6 f5bc
00000010: fa2b 24bd 3ef8 e73c 3490 a7bd 7a60 6b3d
00000020: b9e1 db3c cb01 b8bb f2d9 c23c 6fd5 09bd
00000030: 07ff 233e 4ac7 a33c 584b 853b 8304 1b3d
00000040: a988 5d3d e5fd 45bc 5823 833d b368 68bd
00000050: 0f51 0a3c 0080 163d 8eaa 203d f0a2 22bc
00000060: 919f f2bd ebcf 653d d4fd 133d 0219 4f3d
00000070: 4a3f e1ba 1319 fb3c 2f07 babd 1ed5 693d
00000080: f408 39bd ce07 3fbd 3249 e43d c267 84bd
00000090: 96b0 01be 9377 b83b 17a1 1a3d 5cf6 523d
000000a0: eb80 6dbd 1d58 e03c 0c93 e23c bd69 4c3d
000000b0: c429 a2bd e552 3bbd d2b2 11bd eacb 8d3d
000000c0: b2bf 7ebd af08 303d e675 5abd 789c dbbd
000000d0: f495 0a3d 0338 5b3c 6a51 c8bb 07d7 ebbd
000000e0: 4cd4 573c 1c0e 07be c862 a23d 9093 dfbc
000000f0: bb8e 13bb ae04 0cbe bbc5 333b 40f5 f6bc
00000100: ef12 41bd b047 86bb a700 d23d 901c e03b
00000110: 633a f7bc b48d 0c3d bc31 263b 1a69 45bd
00000120: c2e9 a9bb a42e 92bc ed48 e4bc 31b0 6fbd
00000130: 2d19 953d 3bc9 a93d 2e15 b93d cc00 46bd
00000140: 0742 083e efb8 fabc 30af 06bd 444f 80bc
00000150: ef98 873d c522 3b3c 3bdb d9bd 0c22 80bd
00000160: b461 64bd 3384 f1bb c8a7 d6bd 6087 093e
00000170: da22 c3bd f1a3 6dbc 18a2 bc3d 28d5 983a
00000180: 50e3 e83c 760c 1c3c bb70 09bc 4235 973d
00000190: 5aa6 8e3c 8106 df3c 7428 4fbd 717f a23d
000001a0: 31f8 bb3d 0259 4bbc 0c98 933d f491 063e
000001b0: 1f80 323b a01c d6bd 1415 10be c8ec 7fbd
000001c0: da7e e63c 3671 1a3d b608 493d 085c b3bd
000001d0: 3e08 de3c f362 b4bc a90b 8bbc 636d a7bc
000001e0: bfa1 103e fb02 49bd f1ae 8f3d dcb8 acbd
000001f0: 974d 4ebc 14a0 0bbe 503a 1dbb 0106 29bd
00000200: 9261 00be 3eab 96bd 5118 1dbd 3b40 0fbc
00000210: e1ef 8fbd 1894 4cbd f28f a63d fc28 febc
00000220: 95fc 25bd 91b1 ad3a e0ca cf3d 5f09 10be
00000230: 8a16 403d f591 873d 6ea7 b03d 6600 0a3e
00000240: 2303 ca39 63de b8bd 2ad2 953d dbae f5bc
00000250: 65a9 013d fc97 c5bc 83fd 313e b396 6fbd
00000260: 53f1 893d 44b6 8d3d b2cd c9bc 7029 c5bd
00000270: 4ed2 493d 60fd e6bd 02b6 2bbe 5c26 92bc
00000280: ec87 4dbc 8f21 c4bd 0505 fc3d f8e7 13bd
00000290: a0bd 3cbe eadc 07be 60a8 a73d 7f2b 1abe
000002a0: 8b4a 3d3d b995 bd3d 627e 7bbd 4227 a13d
000002b0: b9b8 13be 840c 113c 8c10 c43d f4b1 82bb
000002c0: c1e0 a0bd 1fdf 14be 58ac cf3c d274 8f3c
000002d0: e884 1f3c 86e9 27bd 31a1 983c 9611 62bd
000002e0: 86fb 933d ed6a 2cbe 00b0 8e3d 4077 6c3d
000002f0: 65e6 e43c acb0 4ebe 9f40 ad3d b200 eebd
00000300: e6a7 22bd f387 1b3d 2209 d0bd 6c49 3b3d
00000310: aefb edbc 394f 2fbd 68f4 2bbe 43f5 b5bd
00000320: e0ac 3c3d 82a9 963d f25c 963d 0fc6 803c
00000330: 8b96 973d 632c 133d 9a86 abbc d852 b23d
00000340: 3d80 1bbe d8be 7a3d 8c19 0cbe 302c 613d
00000350: 042b 233e 6c3f 1d3e f89f 97bd 5f36 80bd
00000360: 7fcf 11bd 6f03 b1bd dd0d 14bd 053d d4bd
00000370: 26ba 38be 1e32 b2bc 3cfc e2bd 78f2 953c
00000380: c38c 6a3d 631c 0cbe 7c2e 4dbd e5dd e5bd
00000390: b36d 46bd 9a26 40be cb6e ffbd 6d30 54be
000003a0: dedd 15be 7480 dcbc cb8a a1bc 15b8 31be
000003b0: 4989 d6bc a6b0 de3d 3481 12bc f809 a7bd
000003c0: 9537 2c3d 8108 56be 4af6 ec3d 5fca a4bc
000003d0: 3356 3fbd 6fb0 423d 57bc 66bc 7518 82bd
000003e0: a66a 1fbe 5fbf 653d 5bfb 2cbe c2dc 91bd
000003f0: ae1c 32be 1061 80bd 8d66 8c3c dc9a 62be

1.df.df.fc1.concat_real_layer_1.bias f4 [76]
-0.053877614 -0.06903292 0.003468283 -0.041915078 0.0027878867 -0.055689663 0.03112855 -0.04630448
0.051217295 -0.044507854 -0.01791009 -0.08160367 -0.025190344 -0.07501095 -0.010532316 -0.07816082
-0.04377275 -0.046114113 -0.060468048 -0.09361886 0.02232809 -0.14703183 -0.0026519853 0.0015909293
-0.052706253 0.03926929 0.047102172 0.06882817 -0.047598943 0.0074223257 -0.2123872 0.021498257
-0.2450144 0.033370785 -0.05075406 -0.12907124 -0.061525926 0.011507464 -0.15098837 -0.0042174477
-0.045718264 0.07739475 0.024956023 -0.05022307 -0.09438713 -0.0662787 -0.16629264 -0.09638177
-0.1707464 0.013547069 0.03707834 -0.01755172 -0.07555669 0.03549212 0.005613288 0.027867671
0.02421195 -0.002960437 -0.06943094 0.016603278 -0.07567364 -0.077386715 -0.013818638 -0.22339553
-0.10381161 0.08076256 0.04156744 -0.017820375 0.06621164 -0.06605201 -0.06346297 -0.008175991
-0.14853586 -0.013723273 -0.15211177 -0.27928665
00000000: c6ae 5cbd 2261 8dbd 224c 633b 25af 2bbd
00000010: fab4 363b d81a 64bd 4d01 ff3c c4a9 3dbd
00000020: 3ac9 513d de4d 36bd 2eb8 92bc d31f a7bd
00000030: fb5b cebc 579f 99bd bc8f 2cbc c812 a0bd
00000040: 0e4b 33bd 27e2 3cbd 58ad 77bd 3fbb bfbd
00000050: 66e9 b63c 838f 16be eecc 2dbb bb86 d03a
00000060: 83e2 57bd d6d8 203d 35ee 403d c9f5 8c3d
00000070: 1cf7 42bd fb36 f33b 087c 59be 1d1d b03c
00000080: 0ee5 7abe ceaf 083d 7de3 4fbd 402b 04be
00000090: 9c02 7cbd cd89 3c3c b29c 1abe 8432 8abb
000000a0: 1343 3bbd 2481 9e3d 9370 cc3c b5b6 4dbd
000000b0: 0a4e c1bd 21bd 87bd 9e48 2abe ce63 c5bd
000000c0: 25d8 2ebe 87f4 5d3c 75df 173d a0c8 8fbc
000000d0: 77bd 9abd 2f60 113d acef b73b be4a e43c
000000e0: 2458 c63c e403 42bb cf31 8ebd 9903 883c
000000f0: c8fa 9abd ed7c 9ebd 9267 62bc ccc1 64be
00000100: 2e9b d4bd d766 a53d 9f42 2a3d 09fc 91bc
00000110: f899 873d 4746 87bd e0f8 81bd 97f4 05bc
00000120: c919 18be 94d7 60bc 30c3 1bbe a9fe 8ebe

1.df.df.fc1.concat_imag_layer_1.weight f4 [76, 152]
0.14712596 -0.16705912 0.09332721 -0.11739231 -0.079545036 0.009552499 -0.048360016 -0.069013976
0.11270676 0.052176844 0.052837793 -0.066315636 -0.011672672 0.0066999607 -0.12061886 -0.14209464
-0.0130611975 0.020600652 0.009796757 -0.098868944 0.12489113 -0.042473543 -0.11023108 0.15202133
-0.09102884 -0.109608814 0.1360786 -0.028541036 0.06785877 0.0059091058 -0.034695756 0.007470382
-0.092184246 0.10523432 0.013801997 -0.0988072 -0.04743751 0.1471229 -0.20552546 -0.096410014
-0.048068743 -0.09254678 -0.01851101 0.096897654 -0.081169784 -0.04715874 0.049747035 -0.040157124
0.06174893 0.004295798 -0.04698311 -0.07702754 -0.047943722 -0.07551287 -0.15985855 -0.17499004
-0.07413353 -0.12729056 -0.07561361 0.15435064 0.076020285 -0.06560016 0.11994347 -0.09692745
-0.040309645 -0.1277811 -0.043970957 -0.035334587 -0.06631492 -0.09438907 -0.09533454 0.029093886
-0.075864255 0.06985758 0.09886818 0.08314627 -0.010920727 0.12161685 0.1839535 0.015105271
0.0048757847 -0.005751349 0.009360618 -0.011503588 -0.05336166 0.029346997 -0.048581555 -0.019395545
0.11840772 0.021157848 -0.034013636 0.0368701 -0.15776104 -0.058229804 0.101009384 -0.04156679
0.050090656 -0.10764227 0.05292605 0.11176005 0.071993835 0.12247319 0.02195779 0.14870347
-0.037775185 -0.030750798 -0.0015205048 0.020591835 0.07304405 -0.10120818 -0.104837544 0.030821145
0.03801373 0.010445041 0.10552343 -0.13935463 0.05094142 -0.007707317 -0.1088208 0.04060262
0.16487117 0.008434361 -0.13867003 0.017725904 -0.09377871 -0.13822956 0.13311128 0.10637935
-0.05070771 -0.09775673 -0.02737852 -0.098508686 -0.0994473 -0.00521512 -0.06929786 0.12612163
-0.007227742 -0.11750346 0.0007290811 -0.08936445 0.0071670217 0.14852078 -0.044459477 0.093936026
-0.0121335 0.024899298 0.024832953 0.095409326 -0.10208889 -0.105648875 -0.0490652 -0.05960733
-0.037621778 -0.080652945 -0.03216102 0.031748958 0.09911325 -0.07588276 -0.105681896 0.11453177
0.3127279 -0.17324306 0.19978684 -0.04997553 -0.14714324 -0.106041625 0.26992482 -0.022326631
0.028408136 0.067491464 -0.14382434 -0.07270825 -0.046379115 0.033489037 0.024304824 -0.13512772
-0.06591696 0.11837473 0.0313891 0.26666203 -0.016779127 -0.08490753 0.0023050695 0.06256454
0.15628777 -0.10569971 0.16066374 0.004913155 0.09130118 -0.084843606 0.1372871 -0.032411907
0.012395283 -0.021961374 -0.2407261 -0.04615214 -0.04237305 -0.010473723 -0.18336262 0.002190492
0.06646405 -0.07279418 -0.10132244 0.1277479 0.070675075 0.25534546 0.029262971 -0.0035749644
-0.08395286 -0.12418366 -0.10814803 -0.081481196 -0.06105232 -0.029291084 0.06500472 -0.025400195
-0.025641011 0.04401804 -0.026513956 0.018851591 0.033981547 0.06423008 0.12486919 -0.02845959
-0.008202264 -0.076280266 -0.059491135 -0.033740144 0.058308177 -0.1451499 -0.0639969 0.014528818
0.036241766 0.05790184 -0.14338247 -0.17491062 -0.04104258 0.14741261 -0.10398001 0.19320083
-0.09612681 -0.060904942 -0.082152635 0.015139905 -0.0018544147 0.082711875 -0.058354463 0.08644158
0.02810319 0.21089461 -0.12913768 -0.053256504 -0.03799427 0.004796713 0.031973984 -0.2183041
00000000: 30a8 163e 8c11 2bbe 5622 bf3d 616b f0bd
00000010: 82e8 a2bd 1682 1c3c 2715 46bd 3357 8dbd
00000020: cdd2 e63d 63b7 553d 716c 583d 7ed0 87bd
00000030: bc3e 3fbc 588b db3b 0507 f7bd 4281 11be
00000040: a2fe 55bc b3c2 a83c 9482 203c cd7b cabd
00000050: ecc6 ff3d bdf8 2dbd d5c0 e1bd 7bab 1b3e
00000060: 546d babd 967a e0bd 3058 0b3e e4ce e9bc
00000070: 8af9 8a3d 2ca1 c13b 231d 0ebd 1bca f43b
00000080: 18cb bcbd 1785 d73d c521 623c 6e5b cabd
00000090: d64d 42bd 63a7 163e 4475 52be 9d72 c5bd
000000a0: bbe3 44bd 2b89 bdbd 67a4 97bc 4772 c63d
000000b0: 583c a6bd 8629 41bd 8cc3 4b3d cc7b 24bd
000000c0: 72ec 7c3d c4c3 8c3b 5d71 40bd 9dc0 9dbd
000000d0: a360 44bd 7ea6 9abd f6b1 23be 9730 33be
000000e0: 52d3 97bd 7558 02be 4fdb 9abd 180e 1e3e
000000f0: 86b0 9b3d 6059 86bd eca4 f53d e681 c6bd
00000100: ba1b 25bd 0cd9 02be e41a 34bd 00bb 10bd
00000110: 1ed0 87bd 0f4f c1bd c13e c3bd 4d56 ee3c
00000120: b85e 9bbd 7e11 8f3d 667b ca3d 9748 aa3d
00000130: d9ec 32bc 4112 f93d 4e5e 3c3e 197c 773c
00000140: 0cc5 9f3b d075 bcbb 475d 193c 8c79 3cbc
00000150: c291 5abd 1d69 f03c 74fd 46bd 68e3 9ebc
00000160: bf7f f23d 3953 ad3c e251 0bbd 1a05 173d
00000170: 1c8c 21be 6082 6ebd 02de ce3d f041 2abd
00000180: dc2b 4d3d 8d73 dcbd fcc8 583d 74e2 e43d
00000190: 8171 933d 39d3 fa3d d3e0 b33c b945 183e
000001a0: 27ba 1abd 19e9 fbbc ad4b c7ba 35b0 a83c
000001b0: 1e98 953d 3c46 cfbd 11b5 d6bd a07c fc3c
000001c0: 49b4 1b3d ad21 2b3c ab1c d83d fbb2 0ebe
000001d0: f3a7 503d a98d fcbb 71dd debd ef4e 263d
000001e0: fdd3 283e 4630 0a3c 84ff 0dbe ea35 913c
000001f0: 0d0f c0bd 0d8c 0dbe 534e 083e 6bdd d93d
00000200: e3b2 4fbd ae34 c8bd eb48 e0bc ecbe c9bd
00000210: 07ab cbbd 99e3 aabb 09ec 8dbd 0726 013e
00000220: b2d6 ecbb a7a5 f0bd ce1f 3f3a b504 b7bd
00000230: 56d9 ea3b d515 183e 241b 36bd 8861 c03d
00000240: 96cb 46bc 9df9 cb3c 7a6e cb3c f765 c33d
00000250: fb13 d1bd 705e d8bd 97f8 48bd d126 74bd
00000260: 4b19 1abd 5f2d a5bd 46bb 03bd 320b 023d
00000270: e3fb ca3d 6c68 9bbd c06f d8bd a28f ea3d
00000280: df1d a03e a166 31be ec94 4c3e 24b3 4cbd
00000290: b8ac 16be 5a2c d9bd 9633 8a3e 57e6 b6bc
000002a0: 2eb8 e83c f738 8a3d b046 13be 10e8 94bd
000002b0: 07f8 3dbd cd2b 093d e91a c73c ec5e 0abe
000002c0: 79ff 86bd 736e f23d db91 003d ed87 883e
000002d0: 6174 89bc 00e4 adbd a610 173b d621 803d
000002e0: e709 203e 1779 d8bd 0985 243e 88fe a03b
000002f0: 1dfc ba3d 7cc2 adbd fd94 0c3e 59c2 04bd
00000300: 9615 4b3c 57e8 b3bc e780 76be 070a 3dbd
00000310: 5d8f 2dbd fa99 2bbc 69c3 3bbe 5c8e 0f3b
00000320: 4e1e 883d 1d15 95bd 2482 cfbd 58d0 023e
00000330: 18be 903d a4bc 823e e6b8 ef3c f349 6abb
00000340: 7aef abbd 0154 febd b77c ddbd 9ddf a6bd
00000350: ff11 7abd dbf3 efbc 3221 853d 1214 d0bc
00000360: 190d d2bc 434c 343d cc33 d9bc a76e 9a3c
00000370: 3c30 0b3d 0f8b 833d 6bbb ff3d 1624 e9bc
00000380: ca62 06bc d438 9cbd faac 73bd 1b33 0abd
00000390: 8ed4 6e3d 2da2 14be cf10 83bd 480a 6e3c
000003a0: 3f72 143d 7b2a 6d3d dbd2 12be c51b 33be
000003b0: 441c 28bd 55f3 163e 79f3 d4bd 70d6 453e
000003c0: 22de c4bd 7677 79bd a43f a8bd 5d0d 783c
000003d0: d50f f3ba d864 a93d 1705 6fbd 4808 b13d
000003e0: a938 e63c c2f4 573e ab3c 04be 7e23 5abd
000003f0: e19f 1bbd bf2d 9d3b 27f7 023d 1c8b 5fbe

1.df.df.fc1.concat_imag_layer_1.bias f4 [76]
0.046750765 0.038772605 0.049646646 -0.04890668 -0.03745132 0.027498687 0.11428003 -0.0025093316
-0.0132243065 0.067324996 -0.08035533 -0.01949187 -0.06554737 0.06828498 -0.1317471 -0.09855114
0.021334745 0.020205634 0.1283236 -0.057476666 0.015336986 -0.07852108 -0.033959746 0.008537754
-0.10322215 0.025118053 0.046797264 -0.06265013 0.13872364 0.04080581 -0.021168837 0.06822242
-0.035571374 -0.039450414 0.07457746 0.04392875 0.1094614 -0.007402108 0.10275031 -0.09372613
0.08103247 0.031494424 0.030805778 0.083839566 0.0342315 -0.034698606 -0.040863432 0.02131739
0.03192838 -0.052306417 -0.0916485 0.069471404 0.09149063 -0.058092777 0.13606042 -0.015814962
-0.01573016 -0.100514464 -0.039777264 0.090643704 0.0028031159 0.02763626 0.040113613 -0.020748245
0.019199274 0.055327266 0.05956659 -0.06780759 0.07525447 -0.01577575 0.124444924 0.044502843
0.089537606 0.023464458 0.053991515 0.01105845
00000000: bb7d 3f3d 06d0 1e3d 485a 4b3d 5f52 48bd
00000010: 8e66 19bd ed44 e13c a60b ea3d 9973 24bb
00000020: c3aa 58bc b0e1 893d 5691 a4bd 6aad 9fbc
00000030: b33d 86bd ffd8 8b3d b6e8 06be 2ed5 c9bd
00000040: 34c6 ae3c 4986 a53c 4367 033e a76c 6bbd
00000050: fb47 7b3c a9cf a0bd 6019 0bbd f0e1 0b3c
00000060: 2266 d3bd 60c4 cd3c 7dae 3f3d b64e 80bd
00000070: 920d 0e3e fe23 273d 456a adbc 32b8 8b3d
00000080: 4ab3 11bd c296 21bd 11bc 983d a2ee 333d
00000090: 4c2d e03d 628d f2bb c16e d23d 7cf3 bfbd
000000a0: 5af4 a53d 4c00 013d 665c fc3c 14b4 ab3d
000000b0: 5436 0c3d 2020 0ebd 6a60 27bd cfa1 ae3c
000000c0: 55c7 023d 413f 56bd 35b2 bbbd 0647 8e3d
000000d0: 705f bb3d b1f2 6dbd 6c53 0b3e 618e 81bc
000000e0: 89dc 80bc 87da cdbd 7ced 22bd 68a3 b93d
000000f0: 7bb4 373b 7065 e23c 2c4e 243d 39f8 a9bc
00000100: cc47 9d3c d89e 623d 19fc 733d b5de 8abd
00000110: 041f 9a3d 253c 81bc fbdc fe3d 9d48 363d
00000120: 7e5f b73d 8938 c03c 3526 5d3d 802e 353c

1.df.df.fc2.weight_block_1.weights1 f4 [2, 76, 76]
-0.06315078 -0.0095963795 0.023598291 0.004187663 0.06744639 -0.029023241 0.049864978 -0.010710801
0.010971799 -0.025666306 -0.00053852564 0.013847034 -0.0052282973 0.0672465 0.030074913 0.06946025
-0.020855948 0.110893294 0.0905706 -0.07218023 -0.022286126 -0.050545488 0.03109465 0.028636653
0.058008216 -0.049968798 -0.04476095 0.10539385 -0.036768608 -0.08379478 -0.053135637 0.0055981935
-0.08231373 0.03480017 -0.062356602 0.024823884 -0.04071181 0.007959939 0.053413868 -0.074850485
-0.017646195 0.046549566 0.00016420297 -0.047287174 0.0804091 0.034955516 0.0923696 -0.026444817
-0.02943258 -0.017783357 -0.0010632911 -0.006598781 0.030461047 0.03542601 -0.040212065 0.10340024
-0.042024072 -0.027963407 0.06520614 -0.063956834 0.012428434 0.098013096 -0.036198117 -0.09507727
0.048113473 0.011022729 0.008754212 0.028435756 0.008104092 0.045683596 0.08182331 0.05276576
-0.022639679 0.04122253 0.030086832 -0.04835514 0.088705204 0.10020067 -0.0483873 0.1427139
0.04795855 0.0019146259 -0.0363384 -0.043941703 -0.0400488 0.15292732 0.038833316 -0.04895735
-0.08152382 -0.0726178 0.02494451 0.09651806 0.054783735 0.14257403 0.043514494 -0.006240428
-0.076498106 -0.0345976 0.022500066 0.2399158 -0.10961243 0.11061662 0.010598118 -0.069610916
-0.007962051 0.037792366 0.060890272 0.058995098 0.0724048 -0.06023327 -0.04563277 0.06925866
-0.035369743 0.084465206 0.029987792 -0.087431364 0.022032177 0.0651507 -0.04461709 -0.0684613
0.06540801 0.029155454 -0.073947765 -0.04289173 0.026668418 -0.061530232 -0.09576849 -0.04603694
0.1897505 0.1313539 0.030236809 -0.09763633 0.015448633 -0.010277866 -0.054650094 -0.16075353
-0.0006820397 0.008916278 -0.034630917 -0.0793049 0.04844142 -0.10536147 0.023365116 0.100419044
-0.04468994 -0.0053504687 0.061111294 -0.055565357 0.07087693 -0.02966545 0.02918517 0.074686974
0.022835819 0.052834675 0.03838204 0.06786066 0.07749322 -0.03259659 0.1578101 0.104835264
0.06314283 0.025458392 -0.114140384 0.008450754 0.01914153 -0.08975724 0.06042396 0.07418924
0.11217993 0.07615233 0.035285316 0.12963203 -0.07281337 -0.15140581 0.02164964 0.0247563
0.043873757 -0.020286532 -0.06334089 -0.065639004 -0.04569763 -0.042697113 0.17031088 -0.00403447
-0.019151192 -0.0209637 -0.091665745 0.049490545 0.053919513 -0.014820786 0.017943094 0.008558032
0.04014253 0.023961404 -0.06692477 0.02001921 -0.030615939 -0.08359567 0.03956197 0.075927004
0.17185597 0.0045476547 0.021568358 0.20323862 0.016872754 -0.040085185 0.034559064 0.12408307
0.14046836 0.040736735 0.006633302 -0.09649387 0.01789741 0.06005115 0.06764347 -0.04468064
0.050045155 0.046887334 0.057910375 -0.009076291 0.14822885 0.021948516 0.16908208 0.033854593
0.031366713 0.032753095 0.016743703 -0.06420473 0.09390896 -0.032060266 0.04717626 0.0009010302
-0.0041512167 0.027086202 -0.042595524 -0.015881998 0.059998453 0.008041196 0.059586264 0.015911954
-0.12329331 0.009847778 -0.017275298 -0.021584842 0.0654493 -0.10898941 -0.02655891 0.09085449
0.060276575 0.09629823 0.03207781 -0.09267965 -0.03967881 0.0014560929 0.17725971 -0.13472027
00000000: 3255 81bd 223a 1dbc 3451 c13c aa38 893b
00000010: 5521 8a3d 26c2 edbc 383f 4c3d 5b7c 2fbc
00000020: 0fc3 333c 2542 d2bc d82b 0dba acde 623c
00000030: 2352 abbb 88b8 893d aa5f f63c 2d41 8e3d
00000040: 18da aabc 061c e33d 147d b93d 3ad3 93bd
00000050: 6591 b6bc c908 4fbd 35ba fe3c 6a97 ea3c
00000060: 069a 6d3d 15ac 4cbd 4257 37bd bbd8 d73d
00000070: ae9a 16bd 999c abbd c1a4 59bd 0d71 b73b
00000080: 1a94 a8bd a08a 0e3d a369 7fbd 755b cb3c
00000090: 6dc1 26bd 676a 023c 80c8 5a3d 364b 99bd
000000a0: c18e 90bc c2aa 3e3d e62d 2c39 32b0 41bd
000000b0: 87ad a43d 842d 0f3d 462c bd3d cda2 d8bc
000000c0: 981c f1bc 67ae 91bc 215e 8bba 963a d8bb
000000d0: 7289 f93c dd1a 113d 68b5 24bd 81c3 d33d
000000e0: 6f21 2cbd 8413 e5bc cc8a 853d cdfb 82bd
000000f0: a1a0 4b3c 17bb c83d 7a44 14bd dfb7 c2bd
00000100: a212 453d ad98 343c d46d 0f3c 1af2 e83c
00000110: 07c7 043c b91e 3b3d fb92 a73d e920 583d
00000120: d976 b9bc f5d8 283d a978 f63c 0a10 46bd
00000130: 13ab b53d 0236 cd3d c331 46bd 9823 123e
00000140: 2f70 443d 2ff4 fa3a 93d7 14bd 37fc 33bd
00000150: 360a 24bd fb98 1c3e af0f 1f3d 8187 48bd
00000160: f6f5 a6bd a4b8 94bd 6e58 cc3c 43ab c53d
00000170: e964 603d edfe 113e 413c 323d 817c ccbb
00000180: 0aab 9cbd 37b6 0dbd 0f52 b83c 7dac 753e
00000190: 7b7c e0bd f78a e23d bba3 2d3c 2b90 8ebd
000001a0: 4373 02bc 2bcc 1a3d 1468 793d d8a4 713d
000001b0: f848 943d 29b7 76bd 6de9 3abd 7cd7 8d3d
000001c0: dddf 10bd 18fc ac3d f5a8 f53c 370f b3bd
000001d0: d37c b43c bb6d 853d 69c0 36bd 7035 8cbd
000001e0: a2f4 853d 6bd7 ee3c ed71 97bd 3daf 2fbd
000001f0: ba77 da3c 2007 7cbd 4522 c4bd 3b91 3cbd
00000200: f44d 423e a381 063e 2fb3 f73c 8ef5 c7bd
00000210: 431c 7d3c 7f64 28bc c7d8 5fbd 939c 24be
00000220: e9ca 32ba 9515 123c 26d9 0dbd 9b6a a2bd
00000230: 836a 463d c1c7 d7bd 3368 bf3c 80a8 cd3d
00000240: cc0c 37bd fc52 afbb d64f 7a3d 8098 63bd
00000250: ed27 913d f504 f3bc bd15 ef3c 7cf5 983d
00000260: 2f12 bb3c 2c69 583d 7c36 1d3d 88fa 8a3d
00000270: c4b4 9e3d 0184 05bd f998 213e dfb3 d63d
00000280: 0751 813d 1e8e d03c 6fc2 e9bd 0875 0a3c
00000290: b3ce 9c3c a5d2 b7bd 1d7f 773d 87f0 973d
000002a0: 97be e53d c1f5 9b3d 5687 103d 42be 043e
000002b0: 2d1f 95bd 200a 1bbe 965a b13c b9cd ca3c
000002c0: f8b4 333d f12f a6bc deb8 81bd be6d 86bd
000002d0: 702d 3bbd 2be3 2ebd fa65 2e3e 9633 84bb
000002e0: f6e2 9cbc 11bc abbc 40bb bbbd 99b6 4a3d
000002f0: b5da 5c3d e2d2 72bc 65fd 923c fd36 0c3c
00000300: 7e6c 243d b54a c43c db0f 89bd 54ff a33c
00000310: 47ce fabc 3534 abbd bb0b 223d 9e7f 9b3d
00000320: 03fb 2f3e 7e04 953b 20b0 b03c c91d 503e
00000330: bb38 8a3c 5d30 24bd ce8d 0d3d 441f fe3d
00000340: f0d6 0f3e 90db 263d 2c5c d93b 949e c5bd
00000350: 979d 923c 32f8 753d a988 8a3d 0c03 37bd
00000360: 26fc 4c3d ef0c 403d 6e33 6d3d b9b4 14bc
00000370: 4ec9 173e 60cd b33c da23 2d3e 1dab 0a3d
00000380: 627a 003d 1c28 063d 172a 893c c57d 83bd
00000390: 5753 c03d a051 03bd e53b 413d 1d33 6c3a
000003a0: ee06 88bb e2e3 dd3c a578 2ebd f71a 82bc
000003b0: f0c0 753d 38bf 033c ba10 743d c959 823c
000003c0: 3481 fcbd 9358 213c ed84 8dbc b2d2 b0bc
000003d0: 480a 863d d735 dfbd 1292 d9bc eb11 ba3d
000003e0: 92e4 763d 0238 c53d 0664 033d d4ce bdbd
000003f0: 3f86 22bd 5fda be3a 9283 353e 1cf4 09be

1.df.df.fc2.weight_block_1.bias1 f4 [2, 76]
0.02632282 0.03740635 -0.0205376 0.07327725 0.1640602 -0.02713941 -0.20418069 -0.01219289
0.043673605 -0.114342414 0.01204817 -0.14648712 0.054071426 -0.066146694 -0.13603091 -0.066223815
-0.026434116 -0.034488138 -0.26271033 0.06325498 -0.119708024 -0.0008578503 -0.15231352 -0.026682692
-0.16196768 0.11411875 -0.027578022 -0.05457987 0.20468016 -0.06670618 -0.021132715 -0.015491147
-0.0036098633 -0.18724558 -0.0887893 -0.10665765 0.015810663 0.24132422 0.045754932 -0.027374297
0.072538055 -0.030377397 -0.0023990145 0.09642092 -0.039485205 0.005832449 -0.029078227 -0.019326035
0.17225929 -0.005723761 -0.037249982 -0.13638297 0.0020363166 -0.008614917 -0.016196141 -0.18282606
0.17697994 0.01688977 -0.018611021 -0.04413916 0.026520666 -0.21307068 0.09458451 0.03572926
0.023087308 0.0070624524 0.069279365 -0.061834488 0.0051242206 0.015784746 -0.101934634 -0.15173514
-0.18349834 -0.14280245 0.02823285 -0.029658506 -0.025281006 -0.011700792 -0.04517546 -0.05751705
0.06851256 -0.022180883 -0.020233102 0.00012992261 0.036947496 -0.079502046 -0.045108676 0.024293128
0.024040328 0.023194311 -0.12372603 0.015463406 -0.04711577 -0.044102192 -0.059511974 -0.06418835
-0.0066029597 -0.11133697 -0.02246268 -0.091821335 -0.03841267 -0.02208601 -0.036269203 -0.17619626
-0.050547164 -0.06035249 -0.028666472 -0.017542582 0.036408328 0.050176136 -0.00434062 -0.057032306
0.014836393 0.005291892 -0.04055097 -0.012829923 -0.011488321 -0.043981884 -0.0148004405 0.03358368
-0.03544235 -0.045734536 -0.0744172 -0.044884205 -0.07676636 -0.058983658 -0.04707172 -0.12689374
-0.09040208 -0.08260415 -0.07409945 0.035591614 -0.040146317 -0.011676011 -0.05328373 -0.027829919
-0.053265303 -0.11268732 -0.04693019 -0.03934617 -0.01690377 -0.024872681 -0.13526663 -0.07233492
-0.040289745 -0.09216698 -0.05050399 -0.05880949 -0.045307107 -0.07281072 -0.072299026 -0.086188845
00000000: f4a2 d73c 6737 193d 783e a8bc 6212 963d
00000010: 66ff 273e 7853 debc be14 51be b0c4 47bc
00000020: 18e3 323d 5b2c eabd b065 453c b800 16be
00000030: 007a 5d3d eb77 87bd b04b 0bbe 5aa0 87bd
00000040: 5c8c d8bc 6f43 0dbd f881 86be d48b 813d
00000050: 7b29 f5bd 5ce1 60ba 13f8 1bbe a995 dabc
00000060: dbda 25be 17b7 e93d 4eeb e1bc 248f 5fbd
00000070: ad97 513e 409d 88bd 841e adbc 94ce 7dbc
00000080: 7593 6cbb 4ebd 3fbe 2ad7 b5bd 536f dabd
00000090: 5d85 813c b21d 773e 8669 3b3d 1040 e0bc
000000a0: d58e 943d 05da f8bc c938 1dbb 5578 c53d
000000b0: 3dbb 21bd 211e bf3b 7635 eebc a251 9ebc
000000c0: bd64 303e 638e bbbb 7093 18bd faa7 0bbe
000000d0: b973 053b 9525 0dbc c5ad 84bc c136 3bbe
000000e0: 3b3a 353e 6a5c 8a3c 2476 98bc 44cb 34bd
000000f0: de41 d93c 332f 5abe 86b5 c13d d858 123d
00000100: 9821 bd3c 256c e73b 57e2 8d3d 2946 7dbd
00000110: 14e9 a73b 034f 813c 1bc3 d0bd 7560 1bbe
00000120: fde6 3bbe ce3a 12be 9448 e73c 65f6 f2bc
00000130: 1d1a cfbc aeb4 3fbc e709 39bd 0097 6bbd
00000140: 5050 8c3d afb4 b5bc e4bf a5bc d63b 0839
00000150: 4256 173d f8d1 a2bd e0c3 38bd 6202 c73c
00000160: 39f0 c43c ff01 be3c 1364 fdbd 3a5a 7d3c
00000170: 77fc 40bd 80a4 34bd d4c2 73bd 2f75 83bd
00000180: a45d d8bb a304 e4bd a703 b8bc d30c bcbd
00000190: 9b56 1dbd b8ed b4bc 048f 14bd cb6c 34be
000001a0: 8b0a 4fbd 2c34 77bd f3d5 eabc 76b5 8fbc
000001b0: e620 153d 7e85 4d3d c23b 8ebb b59a 69bd
000001c0: 5814 733c 9c67 ad3b c618 26bd 9934 52bc
000001d0: 8339 3cbc 5926 34bd 8c7d 72bc 0a8f 093d
000001e0: ff2b 11bd 2354 3bbd 0c68 98bd 80d8 37bd
000001f0: ae37 9dbd d998 71bd 47ce 40bd 6ff0 01be
00000200: ba24 b9bd 5d2c a9bd 74c1 97bd 83c8 113d
00000210: 7770 24bd bd4c 3fbc 0a40 5abd 92fb e3bc
00000220: b82c 5abd 9cc8 e6bd df39 40bd 7329 21bd
00000230: c679 8abc cbc1 cbbc 5683 0abe 5524 94bd
00000240: dc06 25bd 0bc2 bcbd 46dd 4ebd 38e2 70bd
00000250: f293 39bd c91d 95bd 8311 94bd c783 b0bd
