model/6.pt (torch, 694923 bytes, 30 tensors)

1.df.df.fc1.weight_block_1.weights1 f4 [2, 76, 76]
0.07055393 -0.0029775454 0.016933292 -0.013299277 -0.05182318 0.028938673 -0.0039072074 0.09258931
0.06724568 0.020553084 0.011390152 -0.070479855 -0.025317255 0.007961108 0.025002962 0.063449174
0.064319246 -0.0042807506 0.032173578 0.0049463343 0.0059921313 -0.04326911 -0.03423695 0.035811964
0.05419722 0.021472357 0.06325129 0.052464623 0.03053948 -0.16798346 0.010730754 0.07765167
0.0917391 0.0021409825 0.017874498 0.029044788 -0.04791322 0.060728174 0.0002740652 -0.08808867
-0.014909493 -0.032734465 -0.007815011 0.07983912 -0.079412185 0.012960952 0.026560023 -0.088965185
0.037135746 -0.13121164 -0.046145458 -0.015178152 -0.023342535 0.011973625 -0.14789905 -0.024177385
0.035718292 -0.0667126 -0.019752385 0.041366853 0.0441861 -0.023716306 0.05753238 -0.028404243
0.01812344 0.010958716 0.029487375 -0.10643003 0.04437371 0.034301855 -0.022280471 0.01789369
0.027884275 0.03240557 -0.014184983 -0.04992374 -0.015489844 0.051319044 0.004127327 0.033764623
-0.018706199 0.007063156 0.014120979 -0.06157599 -0.02620972 -0.0015468622 -0.007442819 0.047280658
0.0059199934 0.004890351 0.014323214 0.0046620327 -0.007596059 0.016194096 0.010612499 0.009218427
0.0062788515 0.046189472 0.02814165 0.011431281 -0.0032723167 0.02504363 0.010929808 -0.008149348
0.020033062 0.002770906 0.010833823 0.004949141 0.0069223354 -0.0029144504 0.010170788 0.009413775
0.044768654 0.022107992 0.019411942 0.037158724 0.018869549 0.02756948 0.0060681384 -0.043978456
0.054338574 0.0031401606 -0.009988201 -0.0018227565 0.0062186066 0.08575935 0.07256248 0.032379504
0.04996817 0.023659607 0.08510813 0.049211107 -0.007107264 0.065684736 0.050589472 -0.016819928
-0.003367338 0.05673541 -0.0014360548 0.051655777 0.023711227 0.04237864 0.0069436934 0.020519178
-0.024961725 -0.01454328 0.033431794 -0.0013247204 -0.013749644 0.010272924 0.022579763 0.04324198
0.031596683 0.121410005 0.05892508 0.0013073777 0.0009979806 0.010822409 -0.054027323 -0.18149927
-0.0027441925 0.007168808 -0.008157558 -0.13521631 -0.028049154 0.02979704 0.051347695 -0.09800429
0.043398567 0.037736617 0.100173675 0.03669635 0.076640785 0.018230088 0.014288572 0.04964401
-0.16079439 0.13688679 0.010842068 -0.025626874 0.00678035 0.060595047 -0.07543542 0.07670703
-0.058180258 -0.041167025 0.10636332 0.010903602 -0.08129612 -0.040142465 0.005099309 0.048349205
0.010572448 -0.057422258 0.0073710117 0.01713768 -0.05425865 0.03704583 -0.03240057 -0.062415987
0.006722086 0.08993537 0.019782512 0.039833672 -0.010486011 -0.024983322 -0.012725778 0.006662745
-0.01824404 -0.114579156 -0.017367184 0.03909286 0.06914052 0.044593815 0.030936541 -0.056503695
0.01701309 0.08207084 0.064304 0.092522606 -0.07092813 -0.015589583 0.12850057 0.03444807
0.009360607 -0.020060165 0.004100283 -0.0933175 -0.09510715 -0.07782653 0.030630581 -0.012357346
0.17105354 -0.095136955 -0.032664444 -0.076339185 -0.05896867 0.02276177 0.047667276 -0.07702825
0.034897495 0.028370714 -0.049697794 -0.22153196 -0.021697294 0.0521066 -0.033382412 0.03083437
0.008486197 0.019084455 0.006475422 -0.007706183 -0.20908357 -0.012347376 -0.14388953 -0.017262284
00000000: 947e 903d ec22 43bb b0b7 8a3c 36e5 59bc
00000010: 8b44 54bd cc10 ed3c 0808 80bb 779f bd3d
00000020: 1ab8 893d f15e a83c c39d 3a3c be57 90bd
00000030: 2266 cfbc 4f6f 023c 03d3 cc3c a4f1 813d
00000040: cfb9 833d 8a45 8cbb 71c8 033d dc14 a23b
00000050: a459 c43b f33a 31bd 0b3c 0cbd 91af 123d
00000060: e7fd 5d3d cce6 af3c e489 813d 25e5 563d
00000070: ee2d fa3c db03 2cbe 0bd0 2f3c d707 9f3d
00000080: b6e1 bb3d ba4f 0c3b 8a6d 923c 56ef ed3c
00000090: a740 44bd 1bbe 783d 69b0 8f39 d567 b4bd
000000a0: f246 74bc 9314 06bd 880a 00bc b182 a33d
000000b0: dba2 a2bd 2c5a 543c 6894 d93c 6133 b6bd
000000c0: a71b 183d 585c 06be 0503 3dbd c9ad 78bc
000000d0: d838 bfbc 062d 443c d972 17be a70f c6bc
000000e0: 584d 123d 9ea0 88bd c1cf a1bc 4a70 293d
000000f0: 7cfc 343d b348 c2bc 13a7 6b3d 04b0 e8bc
00000100: 9c77 943c 308c 333c 828f f13c fdf7 d9bd
00000110: 35c1 353d 1a80 0c3d 8985 b6bc ca95 923c
00000120: 906d e43c b4bb 043d 2268 68bc d67c 4cbd
00000130: 1dc9 7dbc eb33 523d 873e 873b c64c 0a3d
00000140: be3d 99bc 0c72 e73b ae5b 673c 1b37 7cbd
00000150: c4b5 d6bc 15c0 caba e4e2 f3bb 5da9 413d
00000160: 81fc c13b 3d3f a03b eaab 6a3c f7c3 983b
00000170: 5ce8 f8bb 7ba9 843c 0ce0 2d3c e308 173c
00000180: d3be cd3b 2c31 3d3d 5189 e63c 454a 3b3c
00000190: 5d74 56bb 4c28 cd3c f012 333c d884 05bc
000001a0: 601c a43c 1798 353b 5980 313c 672c a23b
000001b0: c2d4 e23b 5d00 3fbb 60a3 263c 3c3c 1a3c
000001c0: 565f 373d d21b b53c cb05 9f3c bf33 183d
000001d0: 5094 9a3c 64d9 e13c 3cd7 c63b c122 34bd
000001e0: 2092 5e3d 27cb 4d3b 8da5 23bc 8fe9 eeba
000001f0: 74c5 cb3b 99a2 af3d a39b 943d 5fa0 043d
00000200: 6cab 4c3d cbd1 c13c 2c4d ae3d 9691 493d
00000210: 0de4 e8bb b885 863d e836 4f3d f2c9 89bc
00000220: 8fae 5cbb 6463 683d 013a bcba 0295 533d
00000230: 0c3e c23c 3a95 2d3d ec87 e33b d617 a83c
00000240: 887c ccbc f046 6ebc c7ef 083d 3ea2 adba
00000250: 3046 61bc c44f 283c 32f9 b83c 811e 313d
00000260: 866b 013d cfa5 f83d 6d5b 713d 515c ab3a
00000270: acce 823a 7950 313c c14b 5dbd f2da 39be
00000280: e9d7 33bb 52e8 ea3b 47a7 05bc 2576 0abe
00000290: 57c7 e5bc ec18 f43c f651 523d 79b6 c8bd
000002a0: b2c2 313d b691 1a3d db27 cd3d e94e 163d
000002b0: d8f5 9c3d 4457 953c 9d1a 6a3c 8457 4b3d
000002c0: 49a7 24be 0d2c 0c3e eea2 313c 73ef d1bc
000002d0: b32d de3b 8332 783d e37d 9abd 9318 9d3d
000002e0: 6c4e 6ebd c19e 28bd 03d5 d93d 05a5 323c
000002f0: 957e a6bd 6d6c 24bd 1b18 a73b d109 463d
00000300: 1038 2d3c 9a33 6bbd 8788 f13b 5264 8c3c
00000310: 513e 5ebd 5ebd 173d 76b6 04bd e8a7 7fbd
00000320: f244 dc3b 0930 b83d ef0e a23c a228 233d
00000330: 85cd 2bbc d3a9 ccbc c87f 50bc 2853 da3b
00000340: 8674 95bc 7aa8 eabd a045 8ebc d61f 203d
00000350: 8c99 8d3d 01a8 363d a16e fd3c 6b70 67bd
00000360: 095f 8b3c c214 a83d d1b1 833d 7e7c bd3d
00000370: c442 91bd 736b 7fbc a795 033e 6b19 0d3d
00000380: 3b5d 193c 3755 a4bc ab5b 863b 3f1d bfbd
00000390: 8ac7 c2bd 8463 9fbd fcec fa3c 7776 4abc
000003a0: a928 2f3e 2ad7 c2bd 27cb 05bd b857 9cbd
000003b0: 2289 71bd e476 ba3c c33e 433d fdc0 9dbd
000003c0: adf0 0e3d b369 e83c ea8f 4bbd 46d9 62be
000003d0: 86be b1bc bb6d 553d ffbb 08bd 5c98 fc3c
000003e0: b109 0b3c 0157 9c3c c72f d43b 2684 fcbb
000003f0: 011a 56be a64c 4abc c757 13be a269 8dbc

1.df.df.fc1.weight_block_1.bias1 f4 [2, 76]
0.09728888 0.021029858 0.099385366 0.016276082 0.02083374 0.04044898 0.03367052 0.11748695
-0.043466054 0.0170653 0.066242956 -0.060593333 0.03193292 -0.07562625 -0.025830848 0.0062544486
-0.33594415 0.07356035 0.025395786 0.08799126 0.0044341884 0.10258154 0.08575113 -0.027906222
0.094580606 -0.15690482 0.040379316 -0.050766706 0.015586713 -0.16746926 0.005560745 0.16440979
0.05462231 0.1048835 0.022441022 0.059444323 0.065631725 -0.093744874 -0.09491511 -0.15265466
0.075574264 -0.0067668115 0.007979611 0.018015169 0.051574204 -0.008547024 -0.044411417 0.05665366
-0.0005696635 -0.30418283 0.1563497 0.048356503 -0.05469518 0.075069055 -0.04306996 -0.0011354733
0.013636791 0.058128674 0.011104791 0.03712164 -0.18967195 0.16349697 0.03580451 0.01979
0.0014248096 0.11482396 -0.01065085 -0.21933977 0.084735684 -0.004027153 -0.026320439 -0.0074605476
-0.1338752 0.034868114 -0.00033403034 0.05989946 0.06990368 -0.09088185 -0.102330096 0.049487215
0.015296418 -0.026046408 -0.038519405 -0.10267725 -0.10620772 -0.050867554 -0.10302396 0.09306425
-0.088215426 0.011312436 -0.054768495 -0.075856335 -0.26842976 -0.0430213 -0.032465708 -0.046308856
0.0006672866 -0.13355224 -1.3793373e-05 0.037506707 -0.009676501 -0.16607605 0.0047149793 0.002842561
-0.11046978 0.0653289 0.022127682 0.06207133 -0.107930414 -0.06095148 -0.05509137 -0.0051921345
-0.017848706 0.041523084 -0.0948554 0.058616616 0.0015407138 -0.00017796547 0.020147216 0.045068707
0.044236496 -0.030254496 0.021012506 -0.023842301 -0.045724202 -0.0811278 0.0003490303 0.033043835
-0.006887521 -0.054194666 0.054727912 0.018073123 -0.024448514 0.04538144 -0.008111701 -0.047082927
0.026575997 0.057152014 0.049062923 0.0626345 -0.00090695516 0.013404827 0.02299106 -0.0010531084
-0.03824962 0.018639805 0.049894217 -0.12667398 -0.07164526 -0.031753737 -0.040010776 0.04107635
00000000: 643f c73d cf46 ac3c 8e8a cb3d 6b55 853c
00000010: 85ab aa3c d4ad 253d 19ea 093d ff9c f03d
00000020: 7609 32bd 87cc 8b3c 63aa 873d b730 78bd
00000030: 18cc 023d efe1 9abd 379b d3bc 1ef2 cc3b
00000040: df00 acbe cfa6 963d d30a d03c c334 b43d
00000050: ab4c 913b 4516 d23d 4a9e af3d 979b e4bc
00000060: 7ab3 c13d a8ab 20be c864 253d c0f0 4fbd
00000070: 6a5f 7f3c 107d 2bbe e936 b63b 0a5b 283e
00000080: a5bb 5f3d 29cd d63d 3cd6 b73c e47b 733d
00000090: ed69 863d 50fd bfbd da62 c2bd 8151 1cbe
000000a0: aec6 9a3d 21bc ddbb eabc 023c 8c94 933c
000000b0: 793f 533d d108 0cbc bfe8 35bd ab0d 683d
000000c0: 7855 15ba dabd 9bbe 231a 203e 7811 463d
000000d0: 0e08 60bd cebd 993d 206a 30bd 29d4 94ba
000000e0: d96c 5f3c 5518 6e3d dff0 353c dc0c 183d
000000f0: 5d39 42be c06b 273e c0a7 123d a31e a23c
00000100: adc0 ba3a d328 eb3d e780 2ebc 9b9a 60be
00000110: e789 ad3d 35f6 83bb f69d d7bc 9c77 f4bb
00000120: 9516 09be ded1 0e3d cb20 afb9 2359 753d
00000130: a929 8f3d 4320 babd 7192 d1bd 1bb3 4a3d
00000140: d49d 7a3c 475f d5bc 86c6 1dbd 7348 d2bd
00000150: 6f83 d9bd 7f5a 50bd 3afe d2bd 7898 be3d
00000160: 4aaa b4bd cc57 393c ee54 60bd 915a 9bbd
00000170: a06f 89be 1a37 30bd c3fa 04bd 5bae 3dbd
00000180: d8ec 2e3a ebc1 08be 166a 67b7 a2a0 193d
00000190: 308a 1ebc d70f 2abe 1d80 9a3b 434a 3a3b
000001a0: fb3d e2bd 29cb 853d 1d45 b53c 823e 7e3d
000001b0: 9f0a ddbd 42a8 79bd 7da7 61bd c822 aabb
000001c0: 7337 92bc 1c14 2a3d 8c43 c2bd fa17 703d
000001d0: c7f1 c93a 3e9c 3ab9 c60b a53c f799 383d
000001e0: 5431 353d 47d8 f7bc 6b22 ac3c ee50 c3bc
000001f0: 4d49 3bbd 5526 a6bd 0efe b639 f958 073d
00000200: b7b0 e1bb 3afb 5dbd 602a 603d 160e 943c
00000210: 4048 c8bc e4e1 393d f1e6 04bc 07da 40bd
00000220: e8b5 d93c 3b18 6a3d 34f6 483d 8446 803d
00000230: bbc0 6dba eb9f 5b3c bf57 bc3c 7408 8aba
00000240: a2ab 1cbd 81b2 983c e15d 4c3d d3b6 01be
00000250: c0ba 92bd 3510 02bd 57e2 23bd ad3f 283d

1.df.df.fc1.weight_block_2.weights1 f4 [2, 76, 76]
0.07892359 0.019370323 0.04948505 0.029372742 0.020228868 0.056416966 -0.018813672 0.038432043
-0.049602088 -0.022820145 -0.029057445 -0.005504346 0.008673849 0.0075756004 0.0022560605 0.026352527
-0.02990422 -0.005491438 0.013051739 0.017487679 0.06559485 0.030659962 0.02825516 0.047695525
-0.01954113 -0.014711612 -0.023287259 0.016399054 -0.029006002 -0.017367082 -0.0049615423 0.083858185
0.015885921 -0.007528642 -0.011268842 -0.000519609 -0.0410605 0.05605492 0.02923821 -0.0016372913
0.0239048 0.0014804737 -0.03257657 -0.059973642 0.067355 0.060425613 0.0009709436 -0.04655754
0.09269039 -0.059824392 -0.005706054 0.04904733 0.023874132 -0.040006764 0.0049668113 -0.09765292
-0.043624826 0.011860516 0.015208273 0.03180226 -0.014372828 0.0058484613 0.095894076 -0.017181434
-0.017690953 0.12024873 0.03205096 0.09534817 0.048172984 -0.0284481 0.0028051385 -0.011933941
-0.03670759 0.019108579 0.05555289 0.008562355 -0.0011137053 0.0066187023 0.026078772 -0.01835654
0.025477858 -0.050186783 0.0155174695 -0.0025523969 0.016806409 0.0030411782 0.056853063 0.03267439
0.027247896 0.024996294 0.055622905 0.013223436 0.046676748 0.034860115 -0.006375365 -0.008520329
-0.025290804 -0.017697535 -0.0069785807 0.014864959 0.035291165 0.0512195 0.025931928 0.009300423
0.030260343 0.052368943 -0.01383903 -0.015190109 -0.015864383 0.043753073 0.018934665 0.017402554
-0.028513685 -0.0020054514 0.012303463 0.01590959 0.009145708 0.0013279737 0.0433491 0.04623967
-0.01852849 0.006112468 0.042674694 0.03848257 -0.01548712 0.06743735 -0.0025533596 0.018613495
0.007326269 0.04967001 0.012875673 0.08546276 0.072145425 0.02714294 0.007559383 -0.013155343
-0.00037186983 0.0077221505 -0.03353107 0.023414865 0.03757103 0.0068407557 -0.005812236 -0.03770337
0.024697958 0.026329316 0.017912153 -0.023556294 0.036242403 0.0027042842 0.018130755 0.022609826
0.15108386 0.014448952 0.039302416 -0.12650082 0.039175116 -0.068497084 0.06782916 0.0090650655
-0.073150404 -0.013586258 -0.1413357 0.016036317 0.14182284 0.028669892 0.011582527 0.09777814
0.0091818785 -0.033679754 0.08641833 -0.011959435 -0.07628318 0.09249389 -0.013455551 0.0045994567
0.017746886 0.00823213 -0.014891391 0.0018441239 0.048324484 -0.02408417 0.15395546 0.05812924
-0.039758854 0.013221931 -0.06159605 0.0065635457 -0.018472178 0.05358241 0.06722066 -0.064334095
0.0014822254 -0.06557188 0.011205454 -0.013366136 -0.028644854 -0.017262502 0.06138936 -0.06793861
0.06118236 -0.0077885687 -0.07463514 0.07572375 0.00047350235 0.026099415 0.053313654 -0.042212438
0.05791277 0.062379867 0.015637709 -0.07028112 0.014267896 -0.004126219 -0.00862 -0.0036089437
0.04421258 -0.010515381 -0.015309437 0.029372297 0.12291553 0.04843384 6.164846e-05 0.08914836
-0.025156565 0.031292073 0.049052447 -0.005485542 -0.04653551 0.0012964702 -0.15843226 -0.110856846
-0.05262035 -0.012277758 0.14241481 -0.031370375 0.009748993 0.09423481 -0.13804354 0.018647717
-0.014762494 -0.042333722 -0.100629255 -0.0049695405 0.025267528 -0.040939786 0.06872415 0.011984178
-0.10824492 0.07547346 -0.017740062 -0.099298164 -0.018860616 -0.09267243 0.028814645 -0.010620271
00000000: b1a2 a13d 83ae 9e3c d6b0 4a3d 1b9f f03c
00000010: 03b7 a53c 7a15 673d 211f 9abc eb6a 1d3d
00000020: 8f2b 4bbd 50f1 babc e109 eebc cd5d b4bb
00000030: c21c 0e3c be3c f83b 6ada 133b 41e1 d73c
00000040: b2f9 f4bc 85f1 b3bb f6d6 553c 5242 8f3c
00000050: 9856 863d 9a2a fb3c 5e77 e73c 625c 433d
00000060: b814 a0bc f908 71bc ecc4 bebc 4f57 863c
00000070: ff9d edbc 6945 8ebc 6f94 a2bb d7bd ab3d
00000080: 3123 823c d4b2 f6bb f3a0 38bc 5f36 08ba
00000090: 0e2f 28bd d899 653d f884 ef3c 619a d6ba
000000a0: 00d4 c33c 740c c23a 026f 05bd eca6 75bd
000000b0: 6bf1 893d d980 773d ec86 7e3a 1eb3 3ebd
000000c0: 76d4 bd3d 6c0a 75bd daf9 babb dae5 483d
000000d0: af93 c33c 22de 23bd a2c0 a23b 41fe c7bd
000000e0: f2af 32bd 9c52 423c 1f2c 793c 1643 023d
000000f0: 037c 6bbc 73a4 bf3b 1d64 c43d 14c0 8cbc
00000100: 9eec 90bc f744 f63d de47 033d e745 c33d
00000110: 0951 453d fd0b e9bc 6ad6 373b 9486 43bc
00000120: b35a 16bd 9889 9c3c 6d8b 633d 1f49 0c3c
00000130: c0f9 91ba b3e1 d83b 26a3 d53c 7460 96bc
00000140: f1b6 d03c a890 4dbd fc3c 7e3c 1d46 27bb
00000150: 98ad 893c 814e 473b c2de 683d 95d5 053d
00000160: fb36 df3c 07c5 cc3c d8d4 633d 1ca7 583c
00000170: 1e30 3f3d 7bc9 0e3d 70e8 d0bb da98 0bbc
00000180: a92e cfbc 6cfa 90bc 94ac e4bb 288c 733c
00000190: 788d 103d 8acb 513d 326f d43c cd60 183c
000001a0: 8ae4 f73c d180 563d 19bd 62bc efdf 78bc
000001b0: 06f6 81bc 6c36 333d df1c 9b3c cd8f 8e3c
000001c0: 8895 e9bc e46d 03bb 7794 493c d454 823c
000001d0: e1d7 153c 670f ae3a d38e 313d cf65 3d3d
000001e0: 0fc9 97bc 194b c83b a9cb 2e3d e69f 1d3d
000001f0: b0bd 7dbc 981c 8a3d 4456 27bb 547b 983c
00000200: 3311 f03b c872 4b3d 7df4 523c 1907 af3d
00000210: fbc0 933d df5a de3c b3b4 f73b 8289 57bc
00000220: 86f7 c2b9 180a fd3b e057 09bd 88d0 bf3c
00000230: 15e4 193d 6b28 e03b 9274 bebb d96e 1abd
00000240: 5f53 ca3c 94b0 d73c 82bc 923c 21f9 c0bc
00000250: ea72 143d 5c3a 313b f386 943c 3e38 b93c
00000260: bab5 1a3e 4cbb 6c3c 92fb 203d 6e89 01be
00000270: 1676 203d 3348 8cbd 04ea 8a3d a485 143c
00000280: e1cf 95bd e598 5ebc 4eba 10be 985e 833c
00000290: 023a 113e 1fdd ea3c a4c4 3d3c e83f c83d
000002a0: 976f 163c c8f3 09bd 18fc b03d 82f1 43bc
000002b0: 5b3a 9cbd 706d bd3d ac74 5cbc 0ab7 963b
000002c0: eb61 913c 0ee0 063c 05fb 73bc 88b6 f13a
000002d0: e5ef 453d 2a4c c5bc 80a6 1d3e ed18 6e3d
000002e0: 2eda 22bd cca0 583c 244c 7cbd 0313 d73b
000002f0: f752 97bc 3b79 5b3d fcaa 893d 98c1 83bd
00000300: 3b47 c23a 8d4a 86bd 1597 373c a3fd 5abc
00000310: 9da8 eabc 176a 8dbc 6973 7b3d 6623 8bbd
00000320: 5b9a 7a3d 4037 ffbb 4fda 98bd 0e15 9b3d
00000330: 6940 f839 71ce d53c 6b5f 5a3d f3e6 2cbd
00000340: f135 6d3d 0882 7f3d a71a 803c 8cef 8fbd
00000350: e5c3 693c 3c35 87bb e73a 0dbc 0784 6cbb
00000360: 4018 353d b448 2cbc 6fd4 7abc 2c9e f03c
00000370: 23bb fb3d 9062 463d 4449 8138 6a93 b63d
00000380: 2415 cebc 1e2c 003d 38eb 483d 10c0 b3bb
00000390: 059c 3ebd 52ee a93a 113c 22be ea08 e3bd
000003a0: 7088 57bd a628 49bc 30d5 113e 397e 00bd
000003b0: 3eba 1f3c 2efe c03d 495b 0dbe 19c3 983c
000003c0: 63de 71bc 2066 2dbd b616 cebd 87d7 a2bb
000003d0: d9fd ce3c 7ab0 27bd 3fbf 8c3d 4959 443c
000003e0: 83af ddbd d491 9a3d 9b53 91bc d65c cbbd
000003f0: 9481 9abc 0bcb bdbd b10c ec3c a500 2ebc

1.df.df.fc1.weight_block_2.bias1 f4 [2, 76]
0.12841484 0.037096452 0.05182093 0.12794393 0.038699724 0.066422395 0.086018205 -0.029672163
-0.026660597 0.1213735 0.093957014 -0.18691914 -0.06687898 0.022629434 0.188322 0.036534548
0.049799733 -0.012059822 0.07616959 -0.13101196 0.10015343 0.09608664 0.026547847 0.1043297
0.14079016 0.016922683 0.0025376717 -0.02856203 -0.019044166 0.046869986 -0.080065854 0.22170745
-0.02080361 0.044079542 0.059057087 0.0364959 0.01142771 0.06472195 0.12423798 0.031648234
0.039243575 0.06488505 -0.019672072 0.07079698 -0.04602105 0.09588197 0.071251415 -0.02092449
-0.32311302 0.1709777 -0.041270755 -0.098524615 0.0031471157 0.029505394 0.127939 0.016220685
0.16832052 -0.09544374 -0.039703038 -0.1019775 0.026671302 0.03684792 0.22116287 0.04244989
-0.038028132 -0.009958991 -0.009946346 -0.2068234 0.14661328 0.09712727 -0.10671242 0.050012797
0.019945491 -0.048339125 0.095208704 -0.05887592 0.047748707 0.017506786 0.040593337 0.032293886
-0.12469198 0.0049014273 -0.16656649 0.0155291855 -0.07549032 -0.057617772 0.030975573 -0.13416924
0.020738678 -0.02462635 0.009898378 0.05654844 0.030363725 0.043386105 0.01405052 -0.048188202
-0.02630049 0.039466225 0.020306058 0.01568907 -0.042491704 0.013219453 -0.042365383 -0.0092711635
-0.11507726 -0.03835771 0.012073536 0.05419626 -0.08280463 -0.05811 0.037797134 -0.08945462
0.030286575 -0.050970085 0.009592237 0.003915522 -0.034318928 0.013510229 0.09327466 -0.09007307
-0.05179992 -0.19181393 -0.100338764 0.05275679 -0.06582828 0.041310698 -0.13010484 0.022936773
0.009067221 -0.066408806 0.040397204 -0.026309889 -0.098001875 -0.116070025 -0.06331935 -0.057663314
-0.066394694 0.028698469 -0.10992052 -0.0019484651 -0.14223991 0.043568846 -0.0062645595 -0.07793994
-0.04308544 0.0038679556 -0.13123296 -0.09667965 0.038080566 0.0031209737 -0.072905526 -0.01723461
00000000: 2e7f 033e 73f2 173d 2f42 543d bc03 033e
00000010: 9a83 1e3d 7708 883d 502a b03d 0913 f3bc
00000020: 5367 dabc ab92 f83d 896c c03d bb67 3fbe
00000030: d9f7 88bd 5d61 b93c 7bd7 403e 40a5 153d
00000040: cefa 4b3d 8f96 45bc cdfe 9b3d 0028 06be
00000050: 3e1d cd3d 13c9 c43d df7a d93c cfaa d53d
00000060: 4c2b 103e 70a1 8a3c 114f 263b ebfa e9bc
00000070: 8302 9cbc befa 3f3d 91f9 a3bd 4707 633e
00000080: 556c aabc c08c 343d d8e5 713d ba7c 153d
00000090: 4a3b 3b3c f18c 843d 7b70 fe3d 94a1 013d
000000a0: dfbd 203d 74e2 843d 5327 a1bc 02fe 903d
000000b0: 9280 3cbd c45d c43d 43ec 913d d669 abbc
000000c0: 126f a5be c714 2f3e 860b 29bd 46c7 c9bd
000000d0: d73f 4e3b 4cb5 f13c 7102 033e 3ee1 843c
000000e0: 375c 2c3e 0278 c3bd a79f 22bd 94d9 d0bd
000000f0: c67d da3c d8ed 163d 8578 623e f0df 2d3d
00000100: 63c3 1bbd 092b 23bc 00f6 22bc 83c9 53be
00000110: cb21 163e aaea c63d 0b8c dabd 38da 4c3d
00000120: ba64 a33c 3fff 45bd c8fc c23d e027 71bd
00000130: 2694 433d 646a 8f3c 3345 263d 9846 043d
00000140: 825e ffbd 279c a03b 6890 2abe 206e 7e3c
00000150: ab9a 9abd 9d00 6cbd 7cc0 fd3c a963 09be
00000160: 29e4 a93c 33bd c9bc ce2c 223c 569f 673d
00000170: 59bd f83c a1b5 313d 2734 663c fe60 45bd
00000180: 2074 d7bc 56a7 213d e458 a63c 5d86 803c
00000190: c80b 2ebd 6896 583c 5387 2dbd 14e6 17bc
000001a0: a0ad ebbd f91c 1dbd 15d0 453c e6fc 5d3d
000001b0: 7995 a9bd c004 6ebd 2bd1 1a3d fc33 b7bd
000001c0: 8d1b f83c 02c6 50bd c228 1d3c c74d 803b
000001d0: 0192 0cbd 025a 5d3c c906 bf3d 3b78 b8bd
000001e0: 272c 54bd df6a 44be 697e cdbd 8117 583d
000001f0: fad0 86bd 6835 293d 343a 05be e6e5 bb3c
00000200: ae8e 143c 5701 88bd 8a77 253d d687 d7bc
00000210: 35b5 c8bd 1fb6 edbd 93ad 81bd 5e30 6cbd
00000220: f1f9 87bd 0d19 eb3c 021e e1bd a463 ffba
00000230: 57a7 11be 3f75 323d ef46 cdbb fa9e 9fbd
00000240: 5c7a 30bd 877d 7d3b ef61 06be fbff c5bd
00000250: 5efa 1b3d 4089 4c3b 7e4f 95bd 992f 8dbc

1.df.df.fc1.concat_real_layer_1.weight f4 [76, 152]
0.028082486 0.022087663 0.061038606 -0.024782943 -0.040982574 0.03220547 -0.0774765 0.06430752
0.026870027 -0.00919345 0.020798879 -0.025196007 0.16044353 0.009931043 0.006477873 0.04862441
0.04993606 -0.0070107705 0.07083253 -0.05552742 0.008419902 0.038046516 0.04086005 -0.0097972145
-0.11311337 0.06253613 0.042913478 0.05252706 0.0007630603 0.029865913 -0.085191675 0.055130403
-0.04185461 -0.042242885 0.11704283 -0.06882689 -0.12052842 0.010493735 0.041053023 0.042403307
-0.054407272 0.03433156 0.028536653 0.042420395 -0.07272507 -0.0519329 -0.04334148 0.067196324
-0.05521891 0.038359012 -0.05242882 -0.10098769 0.034826703 0.008033451 -0.0009561195 -0.11568928
0.015502423 -0.13262592 0.07711048 -0.024769891 0.0028083117 -0.1410984 0.008438844 -0.027098292
-0.045442056 -0.00903249 0.10318416 0.004354407 -0.020912945 0.040084086 0.005671389 -0.03767275
-0.0047935187 -0.013676786 -0.02158084 -0.056703176 0.06835477 0.085298926 0.091099314 -0.034317102
0.12907508 -0.033855513 -0.028955424 -0.010832801 0.06584924 0.009609173 -0.0969106 -0.07561204
-0.068270035 -0.0047230567 -0.10873452 0.13587643 -0.092920184 -0.008615674 0.099004254 -0.001968274
0.037225112 0.0021957858 -0.010296355 0.07771267 0.016601294 0.031464636 -0.04134676 0.07332749
0.08912307 -0.009884581 0.07498825 0.12544753 0.0057499367 -0.10551023 -0.13979456 -0.0466753
0.028420655 0.040029757 0.052724823 -0.079842515 0.037876904 -0.018362937 -0.011709613 -0.017164128
0.1365069 -0.039682742 0.06323103 -0.08035768 -0.01282913 -0.13219906 -0.001709139 -0.036274422
-0.114766546 -0.056798108 -0.034860253 -0.0015584606 -0.07118258 -0.04573744 0.07275758 -0.029108584
-0.038963582 0.0033513308 0.094877824 -0.13471408 0.04913152 0.06561883 0.08750761 0.12706292
-0.008578812 -0.08724004 0.064754486 -0.03050347 0.035488155 -0.012728096 0.16856736 -0.047477297
0.060620125 0.055977907 -0.06980722 -0.11571725 0.025938459 -0.119258985 -0.16371731 -0.014367861
-0.035436507 -0.093413964 0.12550752 -0.046243105 -0.18849057 -0.12984064 0.07855137 -0.15852779
0.06478545 0.09632344 -0.057286017 0.0746879 -0.14296399 -0.0071997494 0.070950486 -0.0038346201
-0.08376429 -0.18055831 0.034651488 0.0015732821 0.029630963 -0.06485386 0.01962975 -0.054905295
0.083409086 -0.17376454 0.06654328 0.047870483 0.027742991 -0.20343989 0.09375577 -0.14320241
-0.049232755 0.030944023 -0.10028428 0.030453306 -0.030168645 -0.0321524 -0.16404074 -0.116465926
0.020100936 0.042267814 0.058822855 -0.00076260784 0.081564054 0.05106565 -0.030665746 0.0852016
-0.1452538 0.05824782 -0.14531797 0.045814727 0.17055818 0.13165276 -0.0737265 -0.063809626
-0.040744685 -0.08270722 -0.031049754 -0.13714954 -0.16582613 -0.02935952 -0.12602015 0.0051018046
0.0331825 -0.13093452 -0.04882429 -0.10897265 -0.056010716 -0.18848307 -0.122984044 -0.1987279
-0.14790905 -0.031465422 -0.037161566 -0.17096725 -0.039765738 0.102948174 -0.004251236 -0.08403672
0.034996 -0.21473145 0.09546013 -0.016719079 -0.06243101 0.035267387 -0.01665945 -0.09347753
-0.14346415 0.04302547 -0.1748878 -0.061966155 -0.17555144 -0.061437182 0.012757721 -0.2180866
00000000: 3e0d e63c 30f1 b43c 9e03 7a3d 9905 cbbc
00000010: 58dd 27bd e2e9 033d 00ac 9ebd a9b3 833d
00000020: 881e dc3c 20a0 16bc 6962 aa3c db67 cebc
00000030: 4f4b 243e d0b5 223c 5644 d43b 642a 473d
00000040: c189 4c3d 9bba e5bb a510 913d b870 63bd
00000050: a1f3 093c aad6 1b3d de5c 273d 7f84 20bc
00000060: fca7 e7bd f112 803d 0bc6 2f3d 9d26 573d
00000070: 1c08 483a 5ca9 f43c f978 aebd 6bd0 613d
00000080: bd6f 2bbd e006 2dbd 27b4 ef3d 1df5 8cbd
00000090: 9bd7 f6bd eaed 2b3c 3727 283d 17af 2d3d
000000a0: 29da 5ebd 409f 0c3d b3c5 e93c 02c1 2d3d
000000b0: e2f0 94bd 98b7 54bd d686 31bd 3a9e 893d
000000c0: 392d 62bd 571e 1d3d 9abf 56bd a2d2 cebd
000000d0: 72a6 0e3d bc9e 033c 18a4 7aba 80ee ecbd
000000e0: e0fd 7d3c 17cf 07be 19ec 9d3d 3aea cabc
000000f0: a70b 383b 197c 10be 1443 0a3c 3dfd ddbc
00000100: 7321 3abd 02fd 13bc 3852 d33d 6aaf 8e3b
00000110: a051 abbc 362f 243d 0fd7 b93b be4e 1abd
00000120: f312 9dbb 9914 60bc 4dca b0bc 9741 68bd
00000130: 96fd 8b3d 34b1 ae3d 4792 ba3d 1790 0cbd
00000140: 422c 043e 14ac 0abd ed33 edbc 107c 31bc
00000150: f7db 863d cb6f 1d3c 1179 c6bd 7cda 9abd
00000160: 29d1 8bbd dfc3 9abb 34b0 debd 3123 0b3e
00000170: f04c bebd c228 0dbc bec2 ca3d 28fe 00bb
00000180: 5c79 183d 2ce7 0f3b 0bb2 28bc d227 9f3d
00000190: 70ff 873c 10e1 003d 385b 29bd b92c 963d
000001a0: 2886 b63d f0f2 21bc 7193 993d 5175 003e
000001b0: f769 bc3b bf15 d8bd 4e26 0fbe 992e 3fbd
000001c0: 6fd2 e83c 3ef6 233d fcf5 573d 7984 a3bd
000001d0: d024 1b3d df6d 96bc add9 3fbc c99b 8cbc
000001e0: 77c8 0b3e 5f8a 22bd 457f 813d 9192 a4bd
000001f0: 4531 52bc 315f 07be 3005 e0ba 7d94 14bd
00000200: b90a ebbd 22a5 68bd a0c9 0ebd 4345 ccba
00000210: 2cc8 91bd 2f57 3bbd ed01 953d 2075 eebc
00000220: 4798 1fbd 00a2 5b3b 4e4f c23d 7df2 09be
00000230: 223e 493d 2a63 863d 3137 b33d c81c 023e
00000240: 258e 0cbc e8aa b2bd 009e 843d 6ae2 f9bc
00000250: 075c 113d 8189 50bc ec9c 2c3e 8e77 42bd
00000260: cf4c 783d 1749 653d 16f7 8ebd 2afd ecbd
00000270: e47c d43c 0e3e f4bd 83a5 27be 2d67 6bbc
00000280: df25 11bd d24f bfbd 0b85 003e 6969 3dbd
00000290: ac03 41be f2f4 04be 8adf a03d 1c55 22be
000002a0: 3cae 843d 3945 c53d bea4 6abd f8f5 983d
000002b0: 2765 12be e0eb ebbb 7d4e 913d 404e 7bbb
000002c0: 9d8c abbd 47e4 38be b8ee 0d3d 9636 ce3a
000002d0: a2bc f23c 1ad2 84bd 92ce a03c 60e4 60bd
000002e0: 62d2 aa3d 55ef 31be d847 883d d713 443d
000002f0: 4545 e33c 8c52 50be 0603 c03d a7a3 12be
00000300: 49a8 49bd 527e fd3c d861 cdbd 3679 f93c
00000310: 3c24 f7bc 3cb2 03bd 4cfa 27be b085 eebd
00000320: b8aa a43c 0421 2d3d 3cf0 703d bfe9 47ba
00000330: 0e0b a73d 372a 513d bb36 fbbc 2d7e ae3d
00000340: 6abd 14be 4495 6e3d 3cce 14be 39a8 3b3d
00000350: cea6 2e3e fbcf 063e ebfd 96bd 9fae 82bd
00000360: e6e3 26bd 6762 a9bd 0e5c febc ee70 0cbe
00000370: 53ce 29be 6083 f0bc 6d0b 01be 0a2d a73b
00000380: 60ea 073d b313 06be fbfb 47bd 0d2d dfbd
00000390: 7e6b 65bd b501 41be 0fdf fbbd 547f 4bbe
000003a0: 7875 17be e3e1 00bd ba36 18bd 0a12 2fbe
000003b0: 66e1 22bd 7ed6 d23d f44d 8bbb 721b acbd
000003c0: f757 0f3d 90e2 5bbe 9a80 c33d 73f6 88bc
000003d0: a9b7 7fbd 8974 103d 6679 88bc 2671 bfbd
000003e0: 44e8 12be 7a3b 303d ca15 33be 39d0 7dbd
000003f0: c2c3 33be 8ea5 7bbd c305 513c 1852 5fbe

1.df.df.fc1.concat_real_layer_1.bias f4 [76]
-0.053781305 -0.069032975 0.007797886 -0.041950565 0.002787794 -0.05568862 0.02168009 -0.04629907
0.049103186 -0.044018965 -0.017909402 -0.08563405 -0.042331517 -0.076054014 -0.010541671 -0.07839427
-0.043772746 -0.042541478 -0.058353487 -0.078492425 0.00087001076 -0.14890549 -0.0026540605 -0.014838681
-0.052706365 0.027799357 0.047102515 0.06882817 -0.0542936 0.0074225403 -0.24457113 0.02149649
-0.2858868 0.054438084 -0.06620115 -0.13638414 -0.061525647 0.011507835 -0.16937177 -0.0042527155
-0.04666502 0.07739455 0.03204411 -0.05561163 -0.09836694 -0.07083322 -0.17941327 -0.096381694
-0.18243276 0.0135472 0.028852612 -0.030404985 -0.074602254 0.033694807 -0.004611013 0.027867965
0.024211781 -0.0038931682 -0.07433101 0.019221446 -0.07164225 -0.09556238 -0.008852843 -0.21541113
-0.11194556 0.08076256 0.04006367 -0.017877739 0.06406159 -0.065903634 -0.07290616 -0.015490931
-0.14853737 -0.017659273 -0.17572571 -0.2825709
00000000: c949 5cbd 2961 8dbd 6985 ff3b 5bd4 2bbd
00000010: 6cb3 363b c019 64bd 729a b13c 18a4 3dbd
00000020: 6c20 493d 3b4d 34bd bdb6 92bc e860 afbd
00000030: d063 2dbd 35c2 9bbd f9b6 2cbc 2d8d a0bd
00000040: 0d4b 33bd f93f 2ebd 1104 6fbd a3c0 a0bd
00000050: 6f11 643a ae7a 18be bfef 2dbb f01d 73bc
00000060: a1e2 57bd 7abb e33c 91ee 403d c9f5 8c3d
00000070: f762 5ebd c838 f33b db70 7abe 6819 b03c
00000080: c15f 92be 78fa 5e3d 7894 87bd 49a8 0bbe
00000090: 5102 7cbd 5c8b 3c3c cb6f 2dbe 5d5a 8bbb
000000a0: d223 3fbd 0981 9e3d af40 033d 05c9 63bd
000000b0: 9b74 c9bd 0211 91bd 1db8 37be c463 c5bd
000000c0: a7cf 3abe 13f5 5d3c 505c ec3c e013 f9bc
000000d0: 11c9 98bd 9103 0a3d fb17 97bb 5c4b e43c
000000e0: c957 c63c 8624 7fbb db3a 98bd 4b76 9d3c
000000f0: 2cb9 92bd 36b6 c3bd 840b 11bc bc94 5cbe
00000100: b743 e5bd d766 a53d ce19 243d 5674 92bc
00000110: b932 833d 7cf8 86bd d34f 95bd adcd 7dbc
00000120: 2e1a 18be 2eaa 90bc 71f1 33be 22ad 90be

1.df.df.fc1.concat_imag_layer_1.weight f4 [76, 152]
0.15122911 -0.15369618 0.109107524 -0.11352 -0.081968985 0.014733555 -0.046300136 -0.051061183
0.124115616 0.059180684 0.078912094 -0.06576972 -0.006775589 0.003390895 -0.10552704 -0.1323413
-0.030961895 0.020560445 0.0103597585 -0.0902119 0.13748457 -0.041684166 -0.11251857 0.15693636
-0.07784703 -0.09332242 0.14056708 -0.015518422 0.06795446 0.01139965 -0.038110167 0.009444973
-0.07859894 0.1086639 0.021233346 -0.10179433 -0.051121816 0.15581211 -0.19863647 -0.09862333
-0.051767774 -0.10174902 -0.010142578 0.09803515 -0.08991382 -0.0405981 0.05157211 -0.03520454
0.07439408 0.009706734 -0.041211262 -0.0752691 -0.042810112 -0.056282576 -0.16269638 -0.175851
-0.07625575 -0.13420528 -0.077217706 0.1410831 0.0724214 -0.05253848 0.12928854 -0.09006799
-0.02731053 -0.12341261 -0.041293804 -0.036457546 -0.062439334 -0.092810474 -0.08749909 0.028187905
-0.08010945 0.06391813 0.10988133 0.096977 -0.003156627 0.12962197 0.19537151 0.02208829
0.012818277 -0.004455352 0.02263519 -0.0074443375 -0.056352526 0.04075741 -0.048356984 -0.023593567
0.12363275 0.03922011 -0.019547358 0.048191953 -0.16011904 -0.05950207 0.097733095 -0.041978847
0.046481006 -0.09544947 0.05267959 0.120375045 0.07893346 0.13503961 0.021555709 0.14787288
-0.024308925 -0.03402653 0.0046223444 0.015847381 0.06293497 -0.08459728 -0.11094109 0.024817152
0.045592636 0.0020904995 0.10568585 -0.13416258 0.052510235 -0.0066128634 -0.11089536 0.040406846
0.16071907 0.014074691 -0.13026197 0.014824826 -0.08943249 -0.14213799 0.14509924 0.115028605
-0.050504167 -0.08496153 -0.023226878 -0.09805848 -0.08568942 0.01681203 -0.061665397 0.11485344
0.0021689006 -0.10340669 -0.0060021537 -0.089471 0.023391193 0.16803902 -0.03339106 0.1020639
-0.009236932 0.030049521 0.020048594 0.10500504 -0.10532299 -0.08267047 -0.048623726 -0.056747295
-0.029926404 -0.09766796 -0.029238813 0.03849931 0.10842124 -0.09219915 -0.105006 0.1469179
0.31998333 -0.15488349 0.20297794 -0.049335834 -0.13450894 -0.10039317 0.2667152 -0.060003474
0.05010809 0.08784526 -0.14647178 -0.05849287 -0.03614418 0.046519637 0.02200897 -0.13837883
-0.08979712 0.11202906 0.026713911 0.27984124 -0.009774605 -0.0709457 0.016287657 0.05310919
0.13375823 -0.11103408 0.16396675 0.0031205378 0.09740854 -0.090151615 0.14497812 -0.013996143
0.022502849 -0.02565155 -0.22929034 -0.044370383 -0.026937826 -0.004310712 -0.17351934 0.0029849522
0.0798949 -0.07421249 -0.10727841 0.13995576 0.08379842 0.2589368 0.048980575 -0.0024944374
-0.078514375 -0.12364254 -0.1065825 -0.07562077 -0.05689612 -0.04387382 0.0667164 -0.015489271
-0.041242775 0.043176882 -0.025058549 0.025724817 0.042246312 0.07311969 0.13758399 -0.0211056
0.009347219 -0.067707926 -0.04182434 -0.02284422 0.050722457 -0.14526032 -0.07872203 0.036031626
0.038769383 0.07404702 -0.14034477 -0.1763367 -0.050725948 0.15638329 -0.112898506 0.20278923
-0.099761516 -0.057204556 -0.11217572 0.0074176723 0.009314727 0.08448138 -0.052870415 0.101519525
0.040077318 0.21936384 -0.1209919 -0.0651041 -0.021396032 0.012673315 0.03770896 -0.20810004
00000000: cedb 1a3e 8862 1dbe c473 df3d 2c7d e8bd
00000010: 5bdf a7bd 0265 713c 36a5 3dbd 8825 51bd
00000020: 5430 fe3d 7267 723d aa9c a13d 46b2 86bd
00000030: c305 debb c739 5e3b 901e d8bd 7a84 07be
00000040: cda3 fdbc 616e a83c fabb 293c 04c1 b8bd
00000050: c1c8 0c3e 04bd 2abd 2370 e6bd edb3 203e
00000060: 436e 9fbd d31f bfbd d1f0 0f3e fb40 7ebc
00000070: b52b 8b3d 99c5 3a3c 6819 1cbd 17bf 1a3c
00000080: 7bf8 a0bd 2e8b de3d 8ef1 ad3c 8c79 d0bd
00000090: 1c65 51bd 368d 1f3e 5c67 4bbe 07fb c9bd
000000a0: 720a 54bd ca61 d0bd 0e2d 26bc a7c6 c83d
000000b0: bd24 b8bd 314a 26bd 473d 533d a332 10bd
000000c0: ec5b 983d fe08 1f3c 24cd 28bd b026 9abd
000000d0: a859 2fbd 8f88 66bd e199 26be 4912 34be
000000e0: fa2b 9cbd 1c6d 09be 5124 9ebd 1778 103e
000000f0: ac51 943d 9732 57bd 3764 043e 9175 b8bd
00000100: 55ba dfbc c0bf fcbd b123 29bd 8254 15bd
00000110: 63c0 7fbd 6b13 bebd b932 b3bd 52ea e63c
00000120: 6c10 a4bd 82e7 823d 7609 e13d e19b c63d
00000130: 6adf 4ebb 9fbb 043e 780f 483e 80f2 b43c
00000140: c003 523c 34fe 91bb 6f6d b93c a1ef f3bb
00000150: e8d1 66bd 3ef1 263d f911 46bd 4c47 c1bc
00000160: 2b33 fd3d 44a5 203d c821 a0bc ed64 453d
00000170: 3ff6 23be 71b8 73bd 4a28 c83d 03f2 2bbd
00000180: de62 3e3d 037b c3bd 8ec6 573d 3187 f63d
00000190: dea7 a13d d347 0a3e 9995 b03c fd6b 173e
000001a0: 8323 c7bc 675f 0bbd 0977 973b 5ed2 813c
000001b0: 0de4 803d 5741 adbd 1535 e3bd 574d cb3c
000001c0: 58bf 3a3d c300 093b d371 d83d ea61 09be
000001d0: f914 573d b8b0 d8bb 1b1d e3bd a681 253d
000001e0: 8a93 243e 8899 663c 6563 05be d4e3 723c
000001f0: 6228 b7bd 9f8c 11be e594 143e 1e94 eb3d
00000200: 75dd 4ebd 5000 aebd 4b46 bebc e2d2 c8bd
00000210: ef7d afbd 62b9 893c db94 7cbd 4838 eb3d
00000220: 1d24 0e3b e3c6 d3bd b7ad c4bb 923c b7bd
00000230: e39e bf3c 6c12 2c3e 10c5 08bd e106 d13d
00000240: 8056 17bc 6a2a f63c f33c a43c e20c d73d
00000250: 94b3 d7bd 234f a9bd ac29 47bd da6f 68bd
00000260: 3828 f5bc 2406 c8bd 3c86 efbc 74b1 1d3d
00000270: f40b de3d e8d2 bcbd 630d d7bd a571 163e
00000280: dbd4 a33e c799 1ebe 73d9 4f3e 5f14 4abd
00000290: b6bc 09be ef9a cdbd e58e 883e 34c6 75bd
000002a0: 243e 4d3d 37e8 b33d b3fc 15be 3896 6fbd
000002b0: eb0b 14bd 608b 3e3d 284c b43c 2eb3 0dbe
000002c0: 8de7 b7bd 7e6f e53d 22d7 da3c 5a47 8f3e
000002d0: aa25 20bc fb4b 91bd b16d 853c 0689 593d
000002e0: ebf7 083e d665 e3bd e6e6 273e f081 4c3b
000002f0: 217e c73d 69a1 b8bd 2575 143e 1450 65bc
00000300: e557 b83c 3323 d2bc 16cb 6abe b8bd 35bd
00000310: b7ac dcbc e040 8dbb 0eaf 31be 309f 433b
00000320: f09f a33d b8fc 97bd c8b4 dbbd 9050 0f3e
00000330: 829e ab3d 5d93 843e db9f 483d b779 23bb
00000340: 25cc a0bd 4d38 fdbd ed47 dabd 10df 9abd
00000350: e80b 69bd 09b5 33bd 9ca2 883d b6c6 7dbc
00000360: 2fee 28bd 3eda 303d 9647 cdbc dabc d23c
00000370: 780a 2d3d c7bf 953d d1e2 0c3e a7e5 acbc
00000380: 1425 193c 74aa 8abd 0050 2bbd cd23 bbbc
00000390: 5ac2 4f3d 1fbf 14be 0439 a1bd e695 133d
000003a0: a5cc 1e3d f7a5 973d 8ab6 0fbe 9c91 34be
000003b0: 03c6 4fbd f122 203e 5537 e7bd fba7 4f3e
000003c0: c44f ccbd 534f 6abd 62bc e5bd f20f f33b
000003d0: cc9c 183c 9304 ad3d a68e 58bd 78e9 cf3d
000003e0: 1d28 243d eaa0 603e 9aca f7bd 4c55 85bd
000003f0: bb46 afbc bca3 4f3c b674 1a3d 2d18 55be

1.df.df.fc1.concat_imag_layer_1.bias f4 [76]
0.054636516 0.042366847 0.026545579 -0.043351565 -0.032146774 0.04154942 0.10344866 -0.0165857
-0.008024755 0.091635846 -0.08265667 -0.019542824 -0.07066865 0.057874978 -0.13499948 -0.09427597
0.033720143 0.026444625 0.1377063 -0.060417797 0.015359125 -0.081043884 -0.038295574 -0.0024606343
-0.11105986 0.025368322 0.057591315 -0.052955024 0.13931617 0.056071337 -0.022855192 0.053366926
-0.030199539 -0.046752416 0.075251766 0.04359111 0.11220143 -0.0007538662 0.1003933 -0.09455753
0.071794696 0.03765453 0.035156194 0.07290358 0.037884504 -0.036623348 -0.037329722 0.013250356
0.02602305 -0.062093746 -0.092652 0.06285213 0.104280084 -0.059646416 0.13282683 0.007755674
-0.022703279 -0.09910904 -0.040702008 0.10197041 0.007035072 0.027627166 0.03638749 -0.010320995
0.03254166 0.06467274 0.06140637 -0.090552025 0.06442456 -0.014990081 0.1307712 0.04216375
0.09029854 0.03287251 0.053747777 0.01067589
00000000: 8aca 5f3d dc88 2d3d 1d76 d93c 6991 31bd
00000010: 56ac 03bd ba2f 2a3d e4dc d33d bcde 87bc
00000020: 437a 03bc 93ab bb3d e647 a9bd 4618 a0bc
00000030: baba 90bd 500e 6d3d 4e3d 0abe c213 c1bd
00000040: 221e 0a3d 66a2 d83c e102 0d3e a778 77bd
00000050: d7a4 7b3c 56fa a5bd d2db 1cbd 9842 21bb
00000060: 5a73 e3bd 3ad1 cf3c dfe4 6b3d 5ee7 58bd
00000070: e6a8 0e3e 0fab 653d d03a bbbc 4797 5a3d
00000080: 0665 f7bc 767f 3fbd 991d 9a3d 978c 323d
00000090: ddc9 e53d 1b9f 45ba 019b cd3d 61a7 c1bd
000000a0: 1909 933d a33b 1a3d f1ff 0f3d 794e 953d
000000b0: c82c 1b3d 5d02 16bd 0de7 18bd 0518 593c
000000c0: 4b2e d53c 0356 7ebd 55c0 bdbd 9eb8 803d
000000d0: cc90 d53d cd4f 74bd c203 083e 4f23 fe3b
000000e0: 3afc b9bc aef9 cabd 26b7 26bd ddd5 d03d
000000f0: 7686 e63b 5e52 e23c 0c0b 153d 6419 29bc
00000100: 674a 053d 2473 843d 3f85 7b3d 5773 b9bd
00000110: 06f1 833d f598 75bc e3e8 053e e5b3 2c3d
00000120: 71ee b83d 53a5 063d a126 5c3d eee9 2e3c

1.df.df.fc2.weight_block_1.weights1 f4 [2, 76, 76]
-0.074588425 0.0055874684 0.007856964 0.003058948 0.072932355 -0.034344267 0.06515911 -0.013282563
0.019174106 -0.026990263 0.006116658 0.029212141 -0.007834498 0.058078058 0.03518193 0.059241835
-0.0077300295 0.11882999 0.093598485 -0.06482536 -0.020927964 -0.05938005 0.03629304 0.020658221
0.07692048 -0.04019529 -0.06030967 0.11202396 -0.05034526 -0.08861294 -0.047988072 0.011226334
-0.07519004 0.053346764 -0.06278689 0.025863389 -0.05749693 0.013905596 0.05908843 -0.08450021
-0.024613267 0.039832268 0.012101048 -0.044307195 0.082644805 0.03662935 0.094821 -0.034139223
-0.04041935 -0.019539561 -0.013869455 -0.0004810822 0.046438623 0.032661535 -0.06371335 0.1004988
-0.045573514 -0.03795437 0.07353996 -0.07006643 0.001835075 0.10918859 -0.05605991 -0.110107526
0.058077358 0.02559961 0.0095545435 0.047902457 0.011884188 0.050991133 0.094202116 0.05885137
-0.019942183 0.05155523 0.02856643 -0.04813829 0.069752075 0.09477956 -0.06213258 0.14213446
0.051979728 0.0020126419 -0.037904423 -0.08453564 -0.024940958 0.16346055 0.06378814 -0.068616994
-0.076935425 -0.05410746 0.0323394 0.0939388 0.057607602 0.1332419 0.0406306 -0.023065327
-0.057143427 -0.023194078 0.009428453 0.24875005 -0.10558243 0.1365387 0.01024152 -0.06477616
-0.0045499112 0.041805815 0.082504466 0.059713565 0.037215203 -0.05380768 -0.060163237 0.06513178
-0.05918154 0.10001598 0.047282368 -0.04739819 -0.011106653 0.10105478 -0.023934873 -0.06222669
0.058319546 0.042714305 -0.09756969 -0.048381656 0.019538153 -0.040270526 -0.09600738 -0.06240223
0.2038517 0.13482608 0.043066114 -0.0883099 -0.01137382 -0.02255418 -0.055931628 -0.1713627
0.008253713 0.0060850508 -0.06662458 -0.076801024 0.04982663 -0.11071186 0.042981688 0.09289168
-0.054841354 0.0019085179 0.05458125 -0.044753116 0.0827568 0.0015220661 0.040330343 0.083822
0.021101298 0.03539525 0.02455152 0.0613166 0.08861518 -0.027813815 0.1928435 0.091138154
0.100938536 0.035936836 -0.12992352 0.0135299275 0.037791513 -0.08281705 0.07456786 0.039942116
0.11752811 0.074926525 0.03621213 0.16319172 -0.061461005 -0.14215854 0.012185381 -0.017830046
0.046089645 -0.023081526 -0.08828693 -0.06320954 -0.032618564 -0.029905077 0.2062522 -0.020902362
-0.02469792 -0.033917524 -0.14854322 0.06805809 0.07054974 -0.019255342 0.031797398 0.018123535
0.058516115 0.009097755 -0.065174066 -0.005494263 -0.05165307 -0.104636215 0.039529417 0.09850194
0.21653457 -0.012046876 0.007806282 0.17997497 0.029460302 -0.021647438 0.050485235 0.14967096
0.14301965 0.047214143 0.027781276 -0.090913214 0.012253347 0.046568334 0.08114505 -0.05151696
0.049300026 0.05114936 0.07068619 -0.02451917 0.16490532 0.022046728 0.18250315 0.05738305
0.05563642 0.05240061 0.03949997 -0.075660475 0.10052757 -0.040353104 0.06801549 -0.0022264707
-0.0012058357 0.0289187 -0.0374502 -0.027111905 0.06828629 0.024977352 0.06241535 -0.005970155
-0.13019815 0.024302503 -0.021576425 -0.030090427 0.079905435 -0.12985021 -0.021955907 0.09713221
0.059363764 0.09116505 0.02313176 -0.1025146 -0.03194697 0.002936629 0.17652138 -0.1367393
00000000: d1c1 98bd 1517 b73b 7fba 003c a278 483b
00000010: 8f5d 953d 93ac 0cbd 2472 853d 1b9f 59bc
00000020: 0413 9d3c af1a ddbc 3f6e c83b 4d4e ef3c
00000030: 445c 00bc 42e3 6d3d ed1a 103d 91a7 723d
00000040: 304c fdbb 235d f33d 90b0 bf3d 29c3 84bd
00000050: 1f71 abbc 7f38 73bd 03a8 143d 6e3b a93c
00000060: 7c88 9d3d d1a3 24bd 4607 77bd d16c e53d
00000070: d536 4ebd b37a b5bd 248f 44bd a8ee 373c
00000080: 3cfd 99bd 2382 5a3d 6a96 80bd 75df d33c
00000090: e781 6bbd 4cd4 633c b606 723d 720e adbd
000000a0: c3a1 c9bc 2927 233d 7943 463c 767b 35bd
000000b0: ae41 a93d a808 163d 8331 c23d 92d5 0bbd
000000c0: c38e 25bd 6e11 a0bc b63c 63bc c339 fcb9
000000d0: 6d36 3e3d 1ac8 053d 257c 82bd 51d2 cd3d
000000e0: 4bab 3abd 0b76 1bbd 1e9c 963d fd7e 8fbd
000000f0: e686 f03a 449e df3d 149f 65bd 0e80 e1bd
00000100: 86e2 6d3d 46b6 d13c a98a 1c3c 5e35 443d
00000110: e6b5 423c 14dc 503d 0aed c03d 220e 713d
00000120: ca5d a3bc 942b 533d 2504 ea3c a82c 45bd
00000130: 2dda 8e3d c91b c23d bb7e 7ebd b28b 113e
00000140: b2e8 543d 87e6 033b ab41 1bbd 0621 adbd
00000150: fb50 ccbc 3462 273e 5ba3 823d 1187 8cbd
00000160: 5290 9dbd c99f 5dbd 5276 043d fc62 c03d
00000170: f3f5 6b3d 9170 083e 466c 263d 7ff3 bcbc
00000180: 3a0f 6abd 8201 bebc cc79 1a3c 55b8 7e3e
00000190: 9a3b d8bd cdd0 0b3e 0ccc 273c 5da9 84bd
000001a0: 6c17 95bb 933c 2b3d 1af8 a83d 3696 743d
000001b0: f86e 183d 7165 5cbd ba6d 76bd d063 853d
000001c0: 5868 72bd 2ed5 cc3d 28ab 413d 9b24 42bd
000001d0: aef8 35bc cff5 ce3d 1113 c4bc 6ae1 7ebd
000001e0: 7ae0 6e3d 32f5 2e3d 9ed2 c7bd d82b 46bd
000001f0: 7a0e a03c b5f2 24bd 849f c4bd 7b99 7fbd
00000200: 80be 503e d90f 0a3e 1866 303d d2db b4bd
00000210: 4259 3abc 8bc3 b8bc 9018 65bd b479 2fbe
00000220: 953a 073c 1b65 c73b 7872 88bd db49 9dbd
00000230: 0217 4c3d e6bc e2bd 910d 303d fe3d be3d
00000240: 54a1 60bd 3c27 fa3a 9790 5f3d 0b4f 37bd
00000250: 667c a93d 1080 c73a 6e31 253d deaa ab3d
00000260: a1dc ac3c 9cfa 103d 4520 c93c 1d27 7b3d
00000270: e07b b53d ccd9 e3bc c478 453e a4a6 ba3d
00000280: ddb8 ce3d 8132 133d ac0a 05be a1ac 5d3c
00000290: 46cb 1a3d fc9b a9bd 09b7 983d 589a 233d
000002a0: 94b2 f03d 1473 993d 2c53 143d bb1b 273e
000002b0: 89be 7bbd 0292 11be 31a5 473c 5110 92bc
000002c0: 7fc8 3c3d 7815 bdbc c7cf b4bd 0174 81bd
000002d0: 0b9b 05bd 7efb f4bc c733 533e 6e3b abbc
000002e0: 4b53 cabc 1aed 0abd b71b 18be 0a62 8b3d
000002f0: 627c 903d 61bd 9dbc fd3d 023d cf77 943c
00000300: 98ae 6f3d c00e 153c fb79 85bd 3809 b4bb
00000310: 2b92 53bd 834b d6bd 99e9 213d 63bb c93d
00000320: 3dbb 5d3e 4360 45bc d7cb ff3b 5c4b 383e
00000330: bb56 f13c f855 b1bc 9bc9 4e3d 5843 193e
00000340: be73 123e 9e63 413d 8f95 e33c b530 babd
00000350: 43c2 483c 70be 3e3d 602f a63d 7303 53bd
00000360: d3ee 493d fe81 513d ecc3 903d 6ddc c8bc
00000370: f1dc 283e 579b b43c 1be2 3a3e 7d0a 6b3d
00000380: 04e3 633d 06a2 563d b8ca 213d e1f3 9abd
00000390: 66e1 cd3d 4c49 25bd b54b 8b3d fbe9 11bb
000003a0: 220d 9eba e9e6 ec3c 6265 19bd c919 debc
000003b0: afd9 8b3d 4e9d cc3c 3da7 7f3d 4aa1 c3bb
000003c0: aa52 05be 0b16 c73c 0bc1 b0bc 3380 f6bc
000003d0: 76a5 a33d 74f7 04be e0dc b3bc 41ed c63d
000003e0: 6b27 733d beb4 ba3d d17e bd3c 2df3 d1bd
000003f0: d3da 02bd 7674 403b 05c2 343e 6305 0cbe

1.df.df.fc2.weight_block_1.bias1 f4 [2, 76]
0.030120803 0.03513345 -0.016410057 0.069828175 0.16827634 -0.031378504 -0.23633292 -0.007400436
0.043461733 -0.124815665 -0.0036966123 -0.15249811 0.05290465 -0.06644658 -0.16230461 -0.072576426
-0.03159438 -0.037605297 -0.27800736 0.07292702 -0.14824623 -0.030954447 -0.169883 -0.052844662
-0.15305671 0.11646673 -0.03844446 -0.061727665 0.2116307 -0.052429114 -0.03889897 -0.020802166
-0.004407341 -0.20280339 -0.070728496 -0.119503446 0.022685451 0.24516784 0.06297173 -0.03429913
0.09139725 -0.057314232 -0.0009709409 0.088196844 -0.040091753 0.004400391 -0.03939935 -0.022412866
0.18887328 -0.034079306 -0.041088413 -0.15172184 -0.0050903223 -0.015002192 0.008724356 -0.20397078
0.16730136 0.030834021 -0.029091112 -0.04729011 0.00533462 -0.23135477 0.09817035 0.032995235
0.023829043 0.007867808 0.06364885 -0.07115717 0.008239013 -0.005614362 -0.11426362 -0.17742968
-0.20020434 -0.1712181 0.049601294 -0.036782697 -0.027419947 -0.039077025 -0.041690804 -0.062194977
0.06280324 -0.025467927 -0.0144344345 -0.021937726 0.03435962 -0.08896554 -0.0564057 0.03232751
0.039290745 0.01955308 -0.131651 0.040134054 -0.052379485 -0.053713944 -0.080224514 -0.08028627
-0.013235087 -0.10308198 -0.007277145 -0.12316022 -0.029679095 -0.010764984 -0.028080065 -0.19146936
-0.04742048 -0.07491689 -0.026822302 -0.021254174 0.033959735 0.04376997 -0.0066953353 -0.06336096
0.021934772 0.006162679 -0.047047142 -0.029938407 -0.007921989 -0.03838371 -0.010973591 0.04682932
-0.043900017 -0.043277483 -0.090361334 -0.04455718 -0.08695121 -0.041122228 -0.04126797 -0.15277943
-0.09893737 -0.1093874 -0.0872363 0.03612156 -0.06271769 -0.0030705256 -0.077897795 -0.025709625
-0.04961552 -0.121288195 -0.054966368 -0.032805488 -0.023441602 -0.023641462 -0.15332551 -0.0801264
-0.049347434 -0.0742391 -0.0661015 -0.027600646 -0.04721597 -0.08394831 -0.059983082 -0.08339448
00000000: e7bf f63c 18e8 0f3d 626e 86bc 1302 8f3d
00000010: a250 2c3e bf86 00bd 4201 72be 5b7f f2bb
00000020: ee04 323d 5b9f ffbd dd42 72bb 7728 1cbe
00000030: 8cb2 583d 2515 88bd 2e33 26be f3a2 94bd
00000040: 1c69 01bd 0308 1abd fb56 8ebe c35a 953d
00000050: dccd 17be 2e94 fdbc cff5 2dbe a573 58bd
00000060: e6ba 1cbe 1c86 ee3d f077 1dbd 26d6 7cbd
00000070: b8b5 583e e9bf 56bd 8754 1fbd 4e69 aabc
00000080: 756b 90bb b1ab 4fbe 1ada 90bd 39be f4bd
00000090: d7d6 b93c 470d 7b3e 53f7 803d 3f7d 0cbd
000000a0: 7b2e bb3d 54c2 6abd be86 7eba 8ca0 b43d
000000b0: 4037 24bd 2831 903b 3661 21bd 309b b7bc
000000c0: ff67 413e be96 0bbd 534c 28bd f85c 1bbe
000000d0: b8cc a6bb c1cb 75bc 9af0 0e3c b7dd 50be
000000e0: 0c51 2b3e a197 fc3c 7c50 eebc 46b3 41bd
000000f0: 09ce ae3b 44e8 6cbe 890d c93d 0326 073d
00000100: 2035 c33c fbe7 003c 545a 823d daba 91bd
00000110: edfc 063c aff8 b7bb 0b03 eabd 20b0 35be
00000120: 5e02 4dbe cc53 2fbe ba2a 4b3d 74a9 16bd
00000130: cc9f e0bc 3b0f 20bd fac3 2abd 29c0 7ebd
00000140: fc9e 803d 1da2 d0bc 687e 6cbc bfb6 b3bc
00000150: acbc 0c3d 9133 b6bd aa09 67bd da69 043d
00000160: 55ef 203d c82d a03c 85cf 06be 9b63 243d
00000170: df8b 56bd 2703 5cbd c04c a4bd 216d a4bd
00000180: fad7 58bc a51c d3bd 1e75 eebb 6d3b fcbd
00000190: 9321 f3bc 9e5f 30bc 2a08 e6bc 8b10 44be
000001a0: fa3b 42bd 076e 99bd 72ba dbbc 3c1d aebc
000001b0: 5d19 0b3d 2448 333d 8b64 dbbb 64c3 81bd
000001c0: 8db0 b33c 4cf0 c93b 81b4 40bd 6441 f5bc
000001d0: 3bcb 01bc 3d38 1dbd 94ca 33bc 1ad0 3f3d
000001e0: 81d0 33bd bb43 31bd 5d0f b9bd 9781 36bd
000001f0: 7a13 b2bd c86f 28bd 9a08 29bd 3672 1cbe
00000200: ad9f cabd 8006 e0bd f2a8 b2bd 33f4 133d
00000210: 2272 80bd df3a 49bb e188 9fbd fe9c d2bc
00000220: a539 4bbd f265 f8bd 6a24 61bd 0c5f 06bd
00000230: 9a08 c0bc bdab c1bc 5d01 1dbe 4f19 a4bd
00000240: 8920 4abd ab0a 98bd 3960 87bd c01a e2bc
00000250: 8865 41bd 17ed abbd d2b0 75bd baca aabd
