model/7.pt (torch, 694923 bytes, 30 tensors)

1.df.df.fc1.weight_block_1.weights1 f4 [2, 76, 76]
0	0x3da15f3e	0.07879494
1	0xbb4b5d2e	-0.0031030881
2	0x3d0f3264	0.034960166
3	0xbb071338	-0.002061082
4	0xbd4e492a	-0.050362743
5	0x3cd22a9a	0.02565508
6	0x3c28d1fd	0.010303971
7	0x3db3505f	0.08755564
8	0x3d638871	0.055550043
9	0x3c0bafdf	0.008525818
10	0x3aa78a82	0.0012782367
11	0xbd8eddaf	-0.069758765
12	0xbc9a4efe	-0.018836495
13	0x3b940a51	0.0045178314
14	0x3c87ea3d	0.016591186
15	0x3d8585fb	0.06519695
16	0x3d83517c	0.06412026
17	0xbc2de339	-0.010613256
18	0x3cfb697f	0.030689953
19	0x3a4238ab	0.0007408957
20	0x3b8a7104	0.0042248983
21	0xbd2bb896	-0.04192408
22	0xbcf54af0	-0.02994296
23	0x3d1afd04	0.03783895
24	0x3d6abe02	0.05731011
25	0x3c23a6ca	0.009988496
26	0x3d7a9c3e	0.06118416
27	0x3d414f72	0.047194906
28	0x3cf20687	0.029544128
29	0xbe2e7d67	-0.17040025
30	0x3c0ba1c8	0.008522458
31	0x3db137f9	0.08653254
32	0x3dca6df1	0.09884251
33	0xbb245304	-0.0025073895
34	0x3c8ae1d4	0.016953386
35	0x3cfd92fb	0.030953875
36	0xbd2520b2	-0.040314384
37	0x3d91fb4f	0.071280114
38	0x3c7c2819	0.015390419
39	0xbdafc4d5	-0.085824646
40	0xbc9c9ef3	-0.019118762
41	0xbd0a87c5	-0.033820886
42	0xbbf38886	-0.0074320463
43	0x3db43e64	0.088009626
44	0xbd99d2c4	-0.075109035
45	0x3b111599	0.0022138117
46	0x3c8f0986	0.017460596
47	0xbdb26101	-0.08709908
48	0x3d3af335	0.045642097
49	0xbe139e28	-0.144158
50	0xbd499c90	-0.049221575
51	0xbcef789d	-0.029232318
52	0xbcbd26c6	-0.023089778
53	0x3c09983e	0.008398114
54	0xbe16f38d	-0.14741345
55	0xbce12cbb	-0.02748715
56	0x3d273448	0.040821344
57	0xbd96d696	-0.07365148
58	0xbc9a0ec0	-0.018805861
59	0x3d1954e9	0.037434492
60	0x3d4351f8	0.047685593
61	0xbca55ca7	-0.020185782
62	0x3d6beb8f	0.057597693
63	0xbd11b724	-0.035575047
64	0x3c427a3f	0.011869966
65	0x3b20a41d	0.0024511882
66	0x3cd9ab9d	0.02657109
67	0xbdf85f51	-0.12127555
68	0x3cf3dace	0.02976742
69	0x3d2459d1	0.040124718
70	0xbcf8f9b0	-0.030392498
71	0x3cb36d66	0.021902751
72	0x3c8d15d5	0.017222324
73	0x3cf955fc	0.030436508
74	0xbc5bd57a	-0.013417596
75	0xbd44329d	-0.04789983
76	0xbcc3e922	-0.023914877
77	0x3d8f7cf2	0.07006253
78	0xbc26b9ea	-0.010176161
79	0x3cc60c76	0.024175864
80	0xbc656c3b	-0.014002855
81	0x3bf4aaaa	0.007466634
82	0x3c264065	0.010147189
83	0xbd77793d	-0.060418356
84	0xbc201281	-0.009770037
85	0xbb286748	-0.0025696326
86	0x3bd7f363	0.0065902933
87	0x3d256eb3	0.040388774
88	0x3bae8ea1	0.0053270613
89	0x3b1bf9a0	0.002379991
90	0x3cb862c4	0.022508033
91	0x3b4b77dd	0.0031046786
92	0xbb54b977	-0.0032459178
93	0x3cc4d4fc	0.02402734
94	0x3ca58c32	0.020208452
95	0x3c753bc2	0.014967861
96	0x3c49b1a0	0.0123104155
97	0x3d6446b7	0.0557315
98	0x3cc34c06	0.023839962
99	0x3c8b0a93	0.016972816
100	0xbb8aad6f	-0.0042321007
101	0x3cfb0025	0.030639717
102	0x3c713d6d	0.014724118
103	0xbabb3a85	-0.0014284408
104	0x3ccde0ad	0.025131548
105	0x3b8334e1	0.0040041064
106	0x3c0a5023	0.008441958
107	0xba7c20ef	-0.00096179446
108	0xbb7112c6	-0.0036784871
109	0xba23daf3	-0.00062505825
110	0x3b5cc9cd	0.0033689619
111	0x3bc8e53c	0.0061308425
112	0x3d3fd6f4	0.046835855
113	0x3cbb9018	0.022895858
114	0x3c0cae46	0.008586472
115	0x3d2fc1a6	0.042909287
116	0x3d04ef56	0.03245481
117	0x3cbea89a	0.023273755
118	0x3bad7124	0.0052930284
119	0xbd47a0ac	-0.048737213
120	0x3d54e44a	0.051975526
121	0x3c5e25b9	0.0135587985
122	0xbbae0ace	-0.0053113466
123	0xba885936	-0.0010402563
124	0x3b09a495	0.002100264
125	0x3dc73a60	0.09727931
126	0x3da03a47	0.078236155
127	0x3d25232a	0.04031674
128	0x3d212c72	0.039349027
129	0x3ce725fe	0.028216358
130	0x3dc3d428	0.0956195
131	0x3d3b64e0	0.0457505
132	0xbc84f87a	-0.016231764
133	0x3d958bd6	0.07302062
134	0x3d4b4482	0.04962588
135	0xbc972125	-0.018448422
136	0xbb965b13	-0.0045884936
137	0x3d5b4034	0.053528026
138	0x3b0cc1ab	0.002147774
139	0x3d80e521	0.06293703
140	0x3c488129	0.012237825
141	0x3d426dc1	0.04746795
142	0x3c6a2bbf	0.014292656
143	0x3cd7d54e	0.026346829
144	0xbc4c3050	-0.0124626905
145	0xbcb98daf	-0.022650568
146	0x3d2a1778	0.041526288
147	0xbc050b7a	-0.008120412
148	0xbc1a0e28	-0.009402789
149	0x3c2eaef4	0.010661829
150	0x3c9b2ea8	0.018943146
151	0x3d196d7c	0.037457928
152	0x3d124b0a	0.035716094
153	0x3e1b1895	0.15146096
154	0x3d9e9e95	0.07745091
155	0x3b90ffd0	0.0044250265
156	0x3c823db8	0.01589857
157	0x3b57545b	0.0032856676
158	0xbd39a990	-0.045327723
159	0xbe43110f	-0.19049476
160	0x3bdea561	0.006794617
161	0xbbf2094e	-0.007386363
162	0xbc6f47f0	-0.014604554
163	0xbe1720e7	-0.14758645
164	0xbcca0f58	-0.02466552
165	0x3c7767dc	0.015100446
166	0x3d604ed3	0.054762673
167	0xbdcc820d	-0.09985743
168	0x3d3d254c	0.046178147
169	0x3d32eed2	0.043684788
170	0x3dd678bd	0.10472248
171	0x3d2d47e6	0.042304896
172	0x3d82a3b6	0.06378882
173	0x3d1a9e7a	0.03774879
174	0x3c2891ca	0.010288665
175	0x3d66d26e	0.056353025
176	0xbe24e7a4	-0.16103989
177	0x3e0db23c	0.13837522
178	0x3cab4f6e	0.020911898
179	0xbd0087df	-0.031379577
180	0x3c06bea4	0.008224163
181	0x3d5c545e	0.053791396
182	0xbd94720e	-0.07248317
183	0x3da21b18	0.07915324
184	0xbd87357e	-0.06602
185	0xbd32bd47	-0.04363754
186	0x3de74e68	0.11294252
187	0x3aacc571	0.0013181401
188	0xbd962464	-0.0733116
189	0xbcd23363	-0.025659269
190	0x3c669dbd	0.014075694
191	0x3d7a0c7d	0.061047066
192	0x3cb49e34	0.022048093
193	0xbd414fa5	-0.047195096
194	0x3b935c47	0.0044970843
195	0x3c4cee8e	0.012508048
196	0xbd5a0053	-0.053222965
197	0x3d3005c9	0.042974267
198	0xbd1a9352	-0.03773815
199	0xbd718601	-0.058965687
200	0x3c8c2411	0.017107042
201	0x3dae235e	0.085028395
202	0x3ce7076b	0.02820178
203	0x3d18c24c	0.03729467
204	0xbc2a827c	-0.010407086
205	0xbcd5e338	-0.026109323
206	0xbba8bbd8	-0.005149346
207	0x3b96167d	0.0045803175
208	0xbca93d77	-0.020659192
209	0xbde930a5	-0.11386231
210	0xbc42a390	-0.011879817
211	0x3d2dc7af	0.04242676
212	0x3d91a8ce	0.07112275
213	0x3d476ea5	0.048689503
214	0x3d35b7b8	0.04436466
215	0xbd50b49c	-0.050953493
216	0xbbb7c1c4	-0.0056078155
217	0x3db22fa8	0.08700496
218	0x3d8f04d0	0.0698334
219	0x3dadbb3d	0.084829785
220	0xbd8fdc48	-0.07024437
221	0xbc49176b	-0.01227365
222	0x3e0e2b2b	0.13883655
223	0x3cf7b37b	0.03023695
224	0x3c227145	0.009914701
225	0xbcba3402	-0.022729877
226	0xbba905be	-0.005158155
227	0xbde317fd	-0.1108856
228	0xbdb9b144	-0.09067014
229	0xbdc1f6ed	-0.094709255
230	0x3d47cd15	0.048779566
231	0xbc4e23c1	-0.012581767
232	0x3e24b059	0.16082896
233	0xbdc94366	-0.09827308
234	0xbd469690	-0.04848343
235	0xbda28ed9	-0.07937402
236	0xbd8ac421	-0.0677569
237	0x3d137c61	0.03600729
238	0x3d07748e	0.03307014
239	0xbd9755cc	-0.07389411
240	0x3cc3d0c0	0.02390325
241	0x3cf1eb85	0.02953125
242	0xbd4af85b	-0.049553256
243	0xbe61fa05	-0.22068031
244	0xbcee2806	-0.029071819
245	0x3d55dc39	0.052211974
246	0xbd48f8a9	-0.049065266
247	0x3d013362	0.031543143
248	0xbbef88d5	-0.007310013
249	0x3c4962df	0.012291639
250	0x3c02fefb	0.007995362
251	0xbc93552e	-0.017984953
252	0xbe5946d6	-0.21218428
253	0x3b5072f0	0.003180679
254	0xbe0dcba8	-0.1384722
255	0xbce0480a	-0.0273781

1.df.df.fc1.weight_block_1.bias1 f4 [2, 76]
0	0x3dc14d1a	0.09438534
1	0x3c9eceef	0.019385783
2	0x3dcb2ed9	0.09921045
3	0x3c19185a	0.009344185
4	0x3ca0abbf	0.019613145
5	0x3d733a76	0.059381925
6	0x3cecea92	0.028920446
7	0x3dfa127f	0.12210559
8	0xbd2137f7	-0.039360013
9	0x3ca9659f	0.02067834
10	0x3d7c84a5	0.061649937
11	0xbdb3b204	-0.08774188
12	0x3d381b7b	0.044948082
13	0xbdb44cf1	-0.08803738
14	0xbd6f0db0	-0.058362663
15	0x3b93c33b	0.0045093573
16	0xbebc02b2	-0.36720806
17	0x3d854ec9	0.06509168
18	0x3d49be5d	0.04925381
19	0x3dc74650	0.09730208
20	0x3ce26467	0.027635766
21	0x3df05f26	0.11736898
22	0x3dcfd4b0	0.10147989
23	0xbca41d7d	-0.020033592
24	0x3db47dce	0.08813058
25	0xbe5e5cd6	-0.21715102
26	0x3d0ff240	0.035143137
27	0xbd6ce7de	-0.057838313
28	0x3c8d1b78	0.017225012
29	0xbe44055c	-0.1914267
30	0x3ab4fa52	0.0013807511
31	0x3e20a192	0.15686634
32	0x3d279bcb	0.04092006
33	0x3da337ad	0.07969604
34	0x3b64f116	0.0034933737
35	0x3d837ae2	0.064199224
36	0x3d879756	0.06620662
37	0xbdc76831	-0.0973667
38	0xbdec8ae9	-0.115499325
39	0xbe38ad74	-0.18034917
40	0x3d96e221	0.073673494
41	0xba3d724e	-0.00072268106
42	0x3cb50f3d	0.022101993
43	0x3cb10913	0.021610772
44	0x3d464e4d	0.048414517
45	0xbc5e2cf6	-0.013560524
46	0xbd082a9f	-0.03324377
47	0x3d5c5f69	0.053801928
48	0xbb715e06	-0.0036829724
49	0xbea4538c	-0.3209499
50	0x3e0d661a	0.1380848
51	0x3d3c33c5	0.04594781
52	0xbd24175a	-0.040061332
53	0x3d69d56e	0.057088308
54	0xbd71c3b1	-0.059024516
55	0xbcb2abd0	-0.021810442
56	0x3c3f94a0	0.01169315
57	0x3d3ebda4	0.046567574
58	0x3bc31d95	0.005954454
59	0x3d23f316	0.040026747
60	0xbe65bd7f	-0.22435568
61	0x3e2e1c22	0.1700292
62	0x3d3a1ff2	0.04544062
63	0x3cceff99	0.025268363
64	0x3c3667f6	0.011133185
65	0x3dd9a4f4	0.106271654
66	0x3b498a16	0.0030752472
67	0xbe758e1f	-0.23979996
68	0x3dcaf85a	0.099106506
69	0xbc37a020	-0.01120761
70	0xbc84dc20	-0.016218245
71	0xbad72cd0	-0.0016416553
72	0xbe17c83a	-0.14822474
73	0x3cc20b5d	0.023687059
74	0xbc98ca57	-0.01865117
75	0x3d8926e2	0.066968694
76	0x3d95be54	0.07311693
77	0xbd89ad90	-0.067225575
78	0xbdd67084	-0.104706794
79	0x3d46c86e	0.04853099
80	0x3c5cd001	0.013477326
81	0xbcceb2a9	-0.025231676
82	0xbd3efd89	-0.04662851
83	0xbde0725f	-0.109593146
84	0xbde26ee4	-0.11056307
85	0xbd554aa4	-0.052073136
86	0xbddddd38	-0.1083321
87	0x3db69867	0.08915787
88	0xbdc2bdbc	-0.09508845
89	0x3b7562b1	0.0037442858
90	0xbd461954	-0.048364
91	0xbda89511	-0.08231557
92	0xbe97c273	-0.2964054
93	0xbd6b56b3	-0.05745573
94	0xbd24b0a2	-0.040207513
95	0xbd4c2706	-0.049841903
96	0xbc301ff6	-0.010749808
97	0xbe159330	-0.14606929
98	0xbc5694c4	-0.013096992
99	0x3d1476bf	0.036246058
100	0xbcb20844	-0.021732457
101	0xbe3a021c	-0.18164867
102	0x3c75cbc5	0.015002196
103	0xbbb62b8e	-0.0055593913
104	0xbdfba517	-0.12287348
105	0x3da5142a	0.080604866
106	0x3c9b2bf9	0.018941866
107	0x3d83bd2d	0.06432567
108	0xbdfaa5a9	-0.122386284
109	0xbd98122a	-0.074253395
110	0xbd6e21e4	-0.05813779
111	0x3b3c9b02	0.0028778915
112	0xbc3f50ba	-0.011676962
113	0x3d63495d	0.055489887
114	0xbde2dfca	-0.110778406
115	0x3d808c45	0.06276754
116	0xbb98695f	-0.004651233
117	0xbc4fcdbc	-0.012683328
118	0x3cac713c	0.021050088
119	0x3d17fc4b	0.03710584
120	0x3d4d0146	0.050050043
121	0xbd31f23b	-0.0434439
122	0x3c91defd	0.017806524
123	0xbcd15638	-0.025553808
124	0xbd514146	-0.05108764
125	0xbda40924	-0.08009556
126	0xbb4b4154	-0.003101428
127	0x3c9c6f65	0.019096086
128	0xbb4ae689	-0.0030960164
129	0xbd3ab727	-0.045584824
130	0x3d9323e7	0.07184582
131	0x3b8d5863	0.004313515
132	0xbc97a4b4	-0.018511154
133	0x3d47f410	0.04881674
134	0xbb6c965c	-0.0036100363
135	0xbd79b6f9	-0.060965512
136	0x3d02f67a	0.03197334
137	0x3d670ed5	0.05641063
138	0x3d622b4e	0.05521708
139	0x3d9822b9	0.07428498
140	0x3bb3bf2f	0.0054854373
141	0x3b8ed1da	0.0043585123
142	0x3c9aafb3	0.018882608
143	0x3bb23eb6	0.0054396046
144	0xbd8631e7	-0.06552487
145	0x3c894404	0.016756065
146	0x3ce70a16	0.028203052
147	0xbdf800af	-0.121095054
148	0xbdd48069	-0.10376055
149	0xbd2fdddc	-0.04293619
150	0xbd508b94	-0.050914362
151	0x3d22cc4d	0.039745618

1.df.df.fc1.weight_block_2.weights1 f4 [2, 76, 76]
0	0x3dbb6b47	0.09151321
1	0x3ca6670f	0.020312814
2	0x3d7df73e	0.062003367
3	0x3cca78c2	0.024715785
4	0x3cafb4c0	0.021448493
5	0x3d4754aa	0.048664726
6	0xbcf2e622	-0.029650752
7	0x3d183320	0.03715813
8	0xbd3e2095	-0.04641779
9	0xbcef994d	-0.029247904
10	0xbd2642e2	-0.04059113
11	0xbcba8b9b	-0.022771647
12	0x3a643e74	0.0008706816
13	0x3b085e03	0.0020807988
14	0x3bd6d59f	0.0065562273
15	0x3cd75b08	0.026288524
16	0xbd086f71	-0.033309404
17	0x3a742139	0.0009312812
18	0x3c79defb	0.015250917
19	0x3cac3101	0.02101946
20	0x3d7b76c7	0.06139257
21	0x3d1a985c	0.037742957
22	0x3cf000ea	0.02929731
23	0x3d1fa814	0.03897865
24	0xbc8bb9b5	-0.017056325
25	0xbc90fdb0	-0.017699093
26	0xbc98c227	-0.018647267
27	0x37b00df7	2.0987338e-05
28	0xbce5eb10	-0.028066188
29	0xbcac0a65	-0.02100105
30	0xb99f79a6	-0.00030417478
31	0x3dd1b089	0.102387495
32	0x3cacabd1	0.021078022
33	0xbb8b3ea7	-0.004249412
34	0xbcb8fe6c	-0.022582255
35	0xbc284b72	-0.010271894
36	0xbd2baf30	-0.04191512
37	0x3d65a236	0.0560629
38	0x3cfb4390	0.030671865
39	0xbc1b20a4	-0.009468231
40	0x3c4516b2	0.012029337
41	0xba24c947	-0.0006286096
42	0xbcdf4ca5	-0.027258227
43	0xbd777772	-0.060416646
44	0x3d86eb05	0.06587795
45	0x3d77b61d	0.06047641
46	0x3b80d3df	0.003931507
47	0xbd2c3a1b	-0.0420476
48	0x3ddafc84	0.10692695
49	0xbd936de6	-0.07198696
50	0xbc244dab	-0.010028283
51	0x3d7bf8c8	0.061516553
52	0x3bb1d4a3	0.0054269596
53	0xbd10ffa7	-0.03540006
54	0x3bcb50e0	0.0062047094
55	0xbdb96033	-0.09051552
56	0xbd3d728b	-0.046251815
57	0x3b46cd72	0.0030334857
58	0x3bc3cef2	0.0059755975
59	0x3cd94826	0.02652366
60	0xbc83a1cb	-0.01606836
61	0xbac81860	-0.0015266053
62	0x3dcc0cc3	0.099633716
63	0xbc8e3a90	-0.01736191
64	0xbc8aeb1d	-0.016957814
65	0x3dfb6ac1	0.12276221
66	0x3d0aff56	0.033934914
67	0x3dd6fca4	0.10497406
68	0x3d399032	0.04530353
69	0xbcefbfae	-0.029266205
70	0xbbac3d20	-0.00525631
71	0xbc571947	-0.013128585
72	0xbcf98792	-0.030460153
73	0x3c7a8a05	0.0152916955
74	0x3d72d295	0.059282858
75	0x3c8916f8	0.016734585
76	0xbcb648ce	-0.022251513
77	0x3c1a2de6	0.009410357
78	0x3cb599a5	0.02216799
79	0xbc9d7c49	-0.019224303
80	0x3d0ba7bb	0.034095507
81	0xbd3a3352	-0.0454591
82	0x3c9b503c	0.018959157
83	0x3b47c85f	0.003048442
84	0x3c414518	0.011796258
85	0x3be1a93c	0.0068866294
86	0x3d832fca	0.064055994
87	0x3d480a5a	0.048837997
88	0x3d171f54	0.03689511
89	0x3d015aa5	0.031580586
90	0x3d6831b5	0.05668803
91	0x3c6da1e9	0.014503934
92	0x3d45e0fd	0.04831027
93	0x3ce555be	0.027994987
94	0xbc12e359	-0.008965337
95	0xbc3e1454	-0.011601526
96	0xbcf5a118	-0.029984042
97	0xbccf80cf	-0.025329975
98	0xbc5858fc	-0.013204809
99	0x3ccc05a6	0.024905037
100	0x3d062ece	0.03275948
101	0x3d64f492	0.055897303
102	0x3ce78b33	0.028264618
103	0x3c8c0fc1	0.017097356
104	0x3cf6d6df	0.030131755
105	0x3d80458c	0.06263265
106	0xbca58da2	-0.020209137
107	0xbd09ac7f	-0.03361177
108	0xbc8dc426	-0.017305445
109	0x3d324ff7	0.04353329
110	0x3d096710	0.033545554
111	0x3cccf992	0.025021348
112	0xbcf062ca	-0.029343981
113	0x3b504013	0.0031776472
114	0x3c4a9c56	0.012366375
115	0x3c823727	0.01589544
116	0x3c8e7ef1	0.017394515
117	0x3c112844	0.008859698
118	0x3d26eb5c	0.0407518
119	0x3d2e439e	0.042544954
120	0xbc8fdfd6	-0.017562788
121	0xbbde41c4	-0.006782742
122	0x3d24bb2e	0.04021757
123	0x3d0afa40	0.033930063
124	0xbcd34cf1	-0.025793524
125	0x3d9effba	0.0776362
126	0xbc30dc4b	-0.010794709
127	0x3c28e609	0.010308751
128	0x3c6be66a	0.014398197
129	0x3d451140	0.048112154
130	0x3c278168	0.010223724
131	0x3d9da67f	0.07697772
132	0x3d9a8c9e	0.07546352
133	0x3d0e18dd	0.03469168
134	0x3c78d378	0.015187137
135	0xbc538d34	-0.012912083
136	0xbbf7d1e1	-0.0075628613
137	0x3c73e685	0.014886503
138	0xbd1ccfb8	-0.038284034
139	0x3cad869c	0.02118235
140	0x3d041401	0.03224564
141	0x3c7d68f9	0.015466922
142	0x3b40f355	0.0029441912
143	0xbd2cfd9a	-0.04223404
144	0x3d071385	0.0329776
145	0x3cbfa977	0.023396237
146	0x3ce63a44	0.028103955
147	0xbcb7146f	-0.02234861
148	0x3d16feb7	0.03686401
149	0x3c177418	0.0092439875
150	0x3c6f91e3	0.014622184
151	0x3c996fec	0.018730126
152	0x3e1f9cbd	0.15587135
153	0x3bdcb9d9	0.006736022
154	0x3d3be7da	0.045875408
155	0xbe0b6457	-0.13612495
156	0x3d4e5961	0.050378207
157	0xbd9a9955	-0.07548777
158	0x3d874d75	0.06606571
159	0x3b9076b1	0.0044086804
160	0xbd99d511	-0.07511342
161	0xbbc55807	-0.0060224566
162	0xbe0de78b	-0.13857858
163	0x3b75c5ce	0.0037501934
164	0x3dee087f	0.11622714
165	0x3cc871fc	0.024468414
166	0x3cc08bae	0.023504104
167	0x3ddddaf1	0.108327754
168	0x3ac82878	0.001527085
169	0xbce6ba24	-0.02816493
170	0x3dae8011	0.085205205
171	0xbcd1bb8c	-0.025602125
172	0xbdaa9ce2	-0.08330704
173	0x3dbadcf1	0.091241725
174	0xbce4761f	-0.027888356
175	0xba06a2c7	-0.000513595
176	0x3cb4a2b9	0.022050248
177	0x3c0716bc	0.008245166
178	0x3b83eab8	0.0040257834
179	0xbbd35c40	-0.006450206
180	0x3d560a3b	0.05225585
181	0xbc732724	-0.014840875
182	0x3e2298b7	0.15878569
183	0x3d86fa66	0.065907285
184	0xbd41f08d	-0.047348548
185	0x3c846e50	0.016165882
186	0xbd5dcced	-0.05415051
187	0x3b9a8ee9	0.0047167432
188	0xbc8d935e	-0.017282184
189	0x3d7fc45f	0.062443133
190	0x3d9015a7	0.0703538
191	0xbd8c65c5	-0.068553485
192	0xbb65dc2e	-0.0035073864
193	0xbd650d93	-0.05592115
194	0x3c909bde	0.017652448
195	0xbbb3d584	-0.0054880995
196	0xbd096101	-0.033539776
197	0xbd194b3a	-0.037425257
198	0x3d5bb831	0.053642455
199	0xbd89c28f	-0.06726562
200	0x3d64b66c	0.055838034
201	0xbc0ee78a	-0.008722195
202	0xbd9d2ba0	-0.076743364
203	0x3d9b8cdc	0.07595226
204	0xbc80558e	-0.015665796
205	0x3cf8622e	0.030320253
206	0x3d54decf	0.0519703
207	0xbd4bacc1	-0.049725298
208	0x3d878ad9	0.0661828
209	0x3d6e125a	0.05812297
210	0x3c85d49b	0.01633673
211	0xbda899c2	-0.08232452
212	0x3b1a4bb3	0.0023543655
213	0xba9996ec	-0.0011717952
214	0xbbc94efb	-0.0061434484
215	0xbc551a90	-0.013006821
216	0x3d2a2fc4	0.04154946
217	0x3b006277	0.001958994
218	0x3ba058d4	0.0048934016
219	0x3ce0be12	0.027434383
220	0x3e0e86f7	0.13918673
221	0x3d496a67	0.04917374
222	0xba9fc565	-0.0012189565
223	0x3dca7712	0.09885992
224	0xbc9bb377	-0.019006474
225	0x3cdff192	0.02733687
226	0x3d4dca66	0.05024185
227	0x3a814a07	0.0009863981
228	0xbcbfcf36	-0.023414236
229	0xbc402737	-0.0117281
230	0xbe2ea1f2	-0.17053965
231	0xbde0c52b	-0.10975107
232	0xbd87d62f	-0.06632649
233	0xbc3077b5	-0.010770728
234	0x3e2123cd	0.15736313
235	0xbd3af92d	-0.04564779
236	0x3c777ad5	0.015104969
237	0x3dd7da4f	0.10539686
238	0xbe0b4ffd	-0.13604732
239	0x3c0eaf73	0.008708823
240	0xbd0e3fd1	-0.03472883
241	0xbd49c95d	-0.0492643
242	0xbdd74e69	-0.105130024
243	0xb7d0cd70	-2.4891197e-05
244	0x3cb59457	0.02216546
245	0xbd0e9d61	-0.034818057
246	0x3d989d4d	0.07451878
247	0x3bae1283	0.0053122654
248	0xbdc2733a	-0.09494634
249	0x3db00a14	0.08595672
250	0xbc79cc18	-0.015246414
251	0xbddc2b2b	-0.10750421
252	0xbc7d08f9	-0.015444034
253	0xbdc10fb6	-0.09426825
254	0x3ce1b0cc	0.027550124
255	0xbb057c97	-0.002036845

1.df.df.fc1.weight_block_2.bias1 f4 [2, 76]
0	0x3df58a58	0.119892776
1	0x3d7f9564	0.06239833
2	0x3ceae09a	0.028671551
3	0x3e0e160c	0.13875598
4	0x3d52a343	0.05142523
5	0x3d864ec3	0.06557991
6	0x3db22c9e	0.08699916
7	0xbca40eb6	-0.020026546
8	0xbcd02bbd	-0.025411481
9	0x3de9f0e2	0.11422898
10	0x3db6d9e9	0.08928282
11	0xbe4f68c5	-0.2025481
12	0xbd9238a4	-0.071397096
13	0x3d269e9e	0.040678613
14	0x3e450a0a	0.19242111
15	0x3d1fbebd	0.03900026
16	0x3d288912	0.041146345
17	0xbcaba330	-0.020951837
18	0x3d8f270c	0.069898695
19	0xbe20f269	-0.15717472
20	0x3ddc6650	0.10761702
21	0x3dbe3b69	0.09288675
22	0x3d153e24	0.036436215
23	0x3df23c71	0.118279345
24	0x3e169e3e	0.14708802
25	0x3d1f0302	0.038821228
26	0xba85eaa0	-0.0010217018
27	0xbcb7c70f	-0.022433786
28	0x3c1d8b08	0.009615667
29	0x3cd924ad	0.026506746
30	0xbdb8febe	-0.09032963
31	0x3e61416c	0.21997613
32	0xbc9512af	-0.018197386
33	0x3d4f1de5	0.05056562
34	0x3d67000d	0.056396533
35	0x3c73aa8a	0.014872203
36	0x3cf663e7	0.030076934
37	0x3d8817cb	0.06645163
38	0x3de80773	0.11329546
39	0x3d072283	0.032991897
40	0x3ce28add	0.027654106
41	0x3da07c8e	0.07836257
42	0xbcdd82b7	-0.027039869
43	0x3d49a646	0.049230836
44	0xbd462be1	-0.04838169
45	0x3ddbb442	0.10727741
46	0x3d92276a	0.07136424
47	0xbca61b5f	-0.020276723
48	0xbeb3194d	-0.3498024
49	0x3e2782cf	0.16358493
50	0xbd5d92d1	-0.054095093
51	0xbdc8fda6	-0.098140046
52	0xbb54c2b9	-0.0032464697
53	0x3c68501f	0.014179259
54	0x3e03c721	0.1286893
55	0x3c04e1c8	0.008110471
56	0x3e290eaa	0.165095
57	0xbe0456c7	-0.12923728
58	0xbd5f8e58	-0.05457911
59	0xbde1b836	-0.110214636
60	0x3c739542	0.014867129
61	0x3cc490c7	0.023994816
62	0x3e73d5bf	0.23812006
63	0x3d35c087	0.04437306
64	0xbcf4e890	-0.02989605
65	0xbba2c271	-0.004967027
66	0x3ab1805d	0.0013542284
67	0xbe5a7a46	-0.21335706
68	0x3e186436	0.14881977
69	0x3dbea478	0.09308714
70	0xbde1094e	-0.10988103
71	0x3d5f6b5a	0.054545738
72	0x3c1ec788	0.009691127
73	0xbd9a3f9f	-0.07531666
74	0x3dd5c1e8	0.10437375
75	0xbd80b159	-0.062838264
76	0x3d464ceb	0.0484132
77	0x3cc811e7	0.024422599
78	0x3d449962	0.04799784
79	0x3ccec48b	0.025240203
80	0xbdcd1c8f	-0.10015213
81	0x3bc48953	0.0059978156
82	0xbe32c8ae	-0.17459366
83	0x3c87b59c	0.01656609
84	0xbdad2bbc	-0.08455607
85	0xbd87b468	-0.06626207
86	0x3d0f476a	0.034980215
87	0xbe122f75	-0.14275916
88	0xbbbf6f6b	-0.0058421395
89	0xbd139a3f	-0.036035772
90	0x3c3c58be	0.011495767
91	0x3d62c0eb	0.055359762
92	0x3ce58bac	0.028020702
93	0x3cf56565	0.029955575
94	0x3ceb3be3	0.02871508
95	0xbd7aad27	-0.061200287
96	0xbd269937	-0.04067346
97	0x3d0b226d	0.033968378
98	0x3c583a52	0.013197498
99	0x3c616189	0.013756164
100	0xbd41aefd	-0.047286022
101	0x3a2b75c0	0.00065406784
102	0xbd5a7980	-0.053338528
103	0xbcc6e929	-0.024281101
104	0xbe050fde	-0.12994334
105	0xbd0fb393	-0.035083365
106	0x3ca35141	0.019936206
107	0x3d9d5dae	0.076838836
108	0xbdbc8018	-0.092041194
109	0xbd8424fe	-0.06452368
110	0x3d40e116	0.04708966
111	0xbddfc6be	-0.10926579
112	0x3ca4eb75	0.020131806
113	0xbd755c0c	-0.059902236
114	0x3bc182dc	0.005905492
115	0x3b82d136	0.003992225
116	0xbd445fdf	-0.047942992
117	0x3c83797e	0.016049143
118	0x3d9d9ec5	0.076962985
119	0xbdaeb26b	-0.08530124
120	0xbd926a4d	-0.071491815
121	0xbe524ae7	-0.20536385
122	0xbddcd640	-0.107830524
123	0x3d6c23f9	0.057651494
124	0xbd9b95bc	-0.07596919
125	0x3d655eb3	0.055998515
126	0xbe0c98eb	-0.13730209
127	0x3c0f1199	0.008732223
128	0x3b8242f9	0.003975269
129	0xbd8e66e0	-0.069532156
130	0x3d3cf24b	0.046129506
131	0xbd41b1df	-0.04728877
132	0xbddb74e4	-0.107156545
133	0xbe06e24a	-0.1317226
134	0xbd81cf57	-0.06338375
135	0xbdc14e66	-0.094387814
136	0xbd992337	-0.0747742
137	0x3d038473	0.032108735
138	0xbde7a859	-0.11311407
139	0xbc9cdddb	-0.019148758
140	0xbe1df01b	-0.15423624
141	0x3d5dadd5	0.054120857
142	0xbc4f49f3	-0.012651908
143	0xbda6015d	-0.08105729
144	0xbd078aa2	-0.033091195
145	0x39afff9a	0.0003356904
146	0xbe0c776a	-0.13717428
147	0xbde2f165	-0.110811986
148	0x3d218f07	0.039443042
149	0xbc2df628	-0.01061777
150	0xbd87e065	-0.06634597
151	0xbd2961fe	-0.04135322

1.df.df.fc1.concat_real_layer_1.weight f4 [76, 152]
0	0x3d02a6d6	0.03189739
1	0x3c9cc8ee	0.01913878
2	0x3d6ea252	0.05826027
3	0xbd2d9c4f	-0.042385396
4	0xbd23443a	-0.039859988
5	0x3d03bac9	0.032160554
6	0xbdb00170	-0.08594024
7	0x3d70d1d0	0.058793843
8	0x3c70b9b0	0.014692709
9	0xbbe8845d	-0.007095857
10	0x3c4d8713	0.012544411
11	0xbcfe5d91	-0.031050475
12	0x3e2c764c	0.16842002
13	0x3be9da8d	0.007136649
14	0x3a9660de	0.001147296
15	0x3d23e5c8	0.04001406
16	0x3d3c47be	0.045966856
17	0xbba14b41	-0.004922301
18	0x3d8f2bf4	0.06990805
19	0xbd7fe2e5	-0.062472243
20	0x3c188115	0.009308119
21	0x3d1b8f9c	0.037978753
22	0x3d17addd	0.037031043
23	0xbcadd056	-0.021217506
24	0xbdeb83b4	-0.1149973
25	0x3d7a1d21	0.061062936
26	0x3d064dcd	0.03278904
27	0x3d278a4b	0.04090337
28	0xbbb47078	-0.0055065714
29	0x3d0cddc1	0.03439117
30	0xbdcf1598	-0.101115406
31	0x3d57ee57	0.052717533
32	0xbd528cc4	-0.051403776
33	0xbd28c776	-0.041205846
34	0x3e037fd7	0.12841736
35	0xbda9936c	-0.082800716
36	0xbe098a04	-0.13431555
37	0x3bde6456	0.0067868633
38	0x3c8d9d64	0.017286964
39	0x3d13c7a4	0.036079064
40	0xbd8f9e9f	-0.070126764
41	0x3cd12b28	0.025533274
42	0x3d01c6e3	0.031683814
43	0x3d3d7375	0.046252687
44	0xbd96fca1	-0.07372404
45	0xbd54b7fe	-0.05193328
46	0xbd346afd	-0.044047344
47	0x3d8eec04	0.0697861
48	0xbd8a17f8	-0.06742853
49	0x3d1c2d22	0.03812898
50	0xbd3cdbd9	-0.0461081
51	0xbdd25b9f	-0.102713816
52	0x3c94db69	0.01817103
53	0xbb7e2728	-0.0038780663
54	0xbbcf762a	-0.006331225
55	0xbe03fa4b	-0.12888448
56	0x3c89109b	0.01673155
57	0xbe183512	-0.14863995
58	0x3d92285f	0.071366064
59	0xbcba7b49	-0.022763865
60	0xbba217e3	-0.004946695
61	0xbe12e45e	-0.14344928
62	0x3c3cf52d	0.011533064
63	0xbd2cf526	-0.04222598
64	0xbd444279	-0.047914956
65	0x3b1672df	0.0022956652
66	0x3ddf5030	0.109039664
67	0x3bafb59c	0.0053622257
68	0xbcf9b72a	-0.030482847
69	0x3ccc31d8	0.024926111
70	0x3c2f4627	0.010697878
71	0xbd271ed1	-0.040800873
72	0xbbc80f21	-0.006105319
73	0xbca816bb	-0.020518651
74	0xbcccc1f5	-0.02499483
75	0xbd802634	-0.06257287
76	0x3d8ab374	0.06772509
77	0x3db034a8	0.086037934
78	0x3daa49ae	0.083148345
79	0xbd2c6e7f	-0.042097565
80	0x3e03a315	0.1285518
81	0xbd0c5985	-0.03426506
82	0xbce44a65	-0.027867505
83	0xbc7460f7	-0.014915696
84	0x3d823ffb	0.063598596
85	0x3b1ded30	0.0024097674
86	0xbdec990f	-0.11552631
87	0xbdcf9b3d	-0.10137031
88	0xbdabc7b1	-0.083876975
89	0xbbe4ab87	-0.0069784555
90	0xbdd4f89d	-0.10398982
91	0x3e0cdb0f	0.13755439
92	0xbde08ad0	-0.109639764
93	0xbce69cfa	-0.028151024
94	0x3de6aa61	0.11262966
95	0xbc8228da	-0.01588862
96	0x3cf6da48	0.030133381
97	0x3b00dc11	0.001966242
98	0xbba449a0	-0.0050136596
99	0x3d9717df	0.073776
100	0x3c82eb51	0.015981348
101	0x3ce2c085	0.027679691
102	0xbd13c0a5	-0.036072392
103	0x3d98285b	0.07429572
104	0x3dc7a1c1	0.09747649
105	0xbcd43e69	-0.025908666
106	0x3daa1660	0.08305049
107	0x3df9bc22	0.121940866
108	0xbb81a083	-0.003955902
109	0xbde0db3b	-0.10979315
110	0xbe1fa162	-0.15588906
111	0xbd2107bd	-0.03931402
112	0x3d0ca8c1	0.034340624
113	0x3d20e08b	0.03927664
114	0x3d6bcc2b	0.057567757
115	0xbdba90b4	-0.09109631
116	0x3d10665a	0.03525386
117	0xbc9ae345	-0.018907199
118	0xbcf75d40	-0.030195832
119	0xbc8b58d0	-0.017010123
120	0x3dffade9	0.124843426
121	0xbd512fb6	-0.05107089
122	0x3d69cf1d	0.057082284
123	0xbdbd069c	-0.09229776
124	0xbd11c884	-0.035591617
125	0xbe0fb85d	-0.14035173
126	0xbbeb47cc	-0.0071801897
127	0xbd57ef8b	-0.05271868
128	0xbdff424e	-0.124638185
129	0xbd8412cf	-0.064489
130	0xbd2776e0	-0.040884852
131	0xba0da496	-0.00054032484
132	0xbd81e696	-0.06342809
133	0xbd26a45b	-0.040684085
134	0x3d973748	0.07383591
135	0xbd1b66cb	-0.037939828
136	0xbd18913d	-0.037247885
137	0xbc009c94	-0.007849831
138	0x3db5b443	0.08872273
139	0xbe1ad82b	-0.15121524
140	0x3d826d93	0.06368556
141	0x3d695d79	0.056973908
142	0x3d97b3de	0.07407354
143	0x3dfc6284	0.12323478
144	0xbc3787ec	-0.01120184
145	0xbdb1648d	-0.08661757
146	0x3d398120	0.04528916
147	0xbcea2ceb	-0.028585872
148	0x3cb97d6e	0.022642817
149	0xbcb2b2f4	-0.021813847
150	0x3e2bbd21	0.16771366
151	0xbd6f2b13	-0.05839069
152	0x3d4f2cf7	0.05057999
153	0x3d4ef82d	0.050529648
154	0xbdab01f7	-0.08349984
155	0xbdcdc8a1	-0.100480326
156	0x3d0f689e	0.03501188
157	0xbe0c9524	-0.13728768
158	0xbe30422f	-0.17212747
159	0xbcdd322b	-0.027001461
160	0xbd27d963	-0.0409788
161	0xbdc4b277	-0.09604352
162	0x3e14229f	0.14466332
163	0xbd35d657	-0.044393864
164	0xbe5163bc	-0.20448202
165	0xbdf0b535	-0.117533125
166	0x3da8b4c6	0.08237605
167	0xbe347b66	-0.17625198
168	0x3d917e3d	0.07104156
169	0x3e027f8b	0.12743966
170	0xbd31da73	-0.04342122
171	0x3dc5a52c	0.09650645
172	0xbe15d829	-0.1463324
173	0xbc141361	-0.009037823
174	0x3d908b91	0.0705787
175	0x3c41c336	0.011826327
176	0xbdd216d2	-0.10258259
177	0xbe2d6ae0	-0.16935301
178	0x3d196b9d	0.037456144
179	0xbb3e4878	-0.0029034894
180	0x3d00558c	0.031331584
181	0xbd724e2b	-0.059156578
182	0x3d10f20a	0.035387076
183	0xbd815b8d	-0.0631629
184	0x3dae2faa	0.08505185
185	0xbe26317a	-0.16229811
186	0x3db8cb5b	0.09023162
187	0x3d5f62cd	0.054537583
188	0x3d3bc00c	0.045837447
189	0xbe5ba6d7	-0.21450363
190	0x3dc4bb09	0.096059866
191	0xbe10c5c1	-0.14137937
192	0xbcdd1c92	-0.026991162
193	0x3cf0db8d	0.029401565
194	0xbdcaf046	-0.0990911
195	0x3c2904a5	0.010316049
196	0xbc0c520a	-0.0085644815
197	0xbc9114ff	-0.017710207
198	0xbe2bc65d	-0.16774888
199	0xbdf68876	-0.120377466
200	0x3c95ffc3	0.018310433
201	0x3d3a4c56	0.045482956
202	0x3d3689cb	0.044565003
203	0x3cd35579	0.025797592
204	0x3db1dc95	0.08684651
205	0x3d9a6cbd	0.075402714
206	0xbc7e422b	-0.015518705
207	0x3dc4f2fe	0.096166596
208	0xbe293340	-0.16523457
209	0x3d738021	0.059448365
210	0xbe2200ac	-0.15820569
211	0x3d590e62	0.052992232
212	0x3e4737f5	0.1945494
213	0x3e0b7736	0.13619694
214	0xbd899d5d	-0.06719468
215	0xbd9602db	-0.073247634
216	0xbd0d3205	-0.03447153
217	0xbd9d5479	-0.076821275
218	0xbcfed34e	-0.031106617
219	0xbe03366d	-0.1281373
220	0xbe2e5a5b	-0.17026655
221	0xbcfae34b	-0.03062596
222	0xbdc2a78b	-0.095046125
223	0x3cba0065	0.022705266
224	0x3d3b7331	0.045764152
225	0xbe0c6592	-0.13710621
226	0xbd2141ef	-0.03936952
227	0xbdd47ca3	-0.10375335
228	0xbd4a68d6	-0.049416386
229	0xbe4a3d63	-0.1974998
230	0xbe07bc54	-0.13255435
231	0xbe53f097	-0.20697246
232	0xbe22ab7c	-0.15885729
233	0xbd052ca8	-0.03251329
234	0xbb80706e	-0.0039196527
235	0xbe3bf2f8	-0.18354404
236	0xbd1d7ec6	-0.03845098
237	0x3e015ccf	0.1263306
238	0xbc7ef316	-0.015560886
239	0xbda12980	-0.078692436
240	0x3d53a0b2	0.051666923
241	0xbe6ebc07	-0.23313914
242	0x3dbc46cf	0.09193193
243	0xbbeda06c	-0.00725179
244	0xbd3cb320	-0.046069264
245	0x3d31532f	0.04329222
246	0xbb9c0a96	-0.004762004
247	0xbdbd4b34	-0.092428595
248	0xbe1bb8b3	-0.15207176
249	0x3d47333a	0.048632838
250	0xbe420086	-0.18945512
251	0xbd93e2b7	-0.07220977
252	0xbe34a980	-0.17642784
253	0xbd76e1fc	-0.06027411
254	0x3d22eaa1	0.03977454
255	0xbe5b6fad	-0.2142932

1.df.df.fc1.concat_real_layer_1.bias f4 [76]
0	0xbd52462b	-0.05133645
1	0xbd8d613a	-0.0690331
2	0xbbb687bf	-0.0055703814
3	0xbd2bd544	-0.041951433
4	0x3b36b758	0.0027880277
5	0xbd63e785	-0.055640716
6	0x3c749fb4	0.014930654
7	0xbd454c17	-0.048168268
8	0x3cc9859b	0.02459984
9	0xbd3b12da	-0.045672275
10	0xbc9643b6	-0.018342834
11	0xbdbb8372	-0.091559306
12	0xbd291e71	-0.041288797
13	0xbda45daa	-0.080256775
14	0xbc2cde48	-0.010551043
15	0xbd894bf8	-0.06703943
16	0xbd334b01	-0.0437727
17	0xbd3ae28f	-0.04562622
18	0xbd67922a	-0.056535877
19	0xbdb5625d	-0.08856652
20	0xbc6efdd7	-0.014586887
21	0xbe24c2ca	-0.16089931
22	0xbb2df806	-0.0026545539
23	0xbc610b7a	-0.013735646
24	0xbd57e36b	-0.052707117
25	0x3d25a789	0.040442977
26	0x3d40ee8d	0.0471025
27	0x3d8cf5c9	0.06882817
28	0xbd64dc70	-0.055874288
29	0x3bf468bf	0.007458776
30	0xbe7fed97	-0.24992977
31	0x3cb01bc4	0.021497615
32	0xbe9a99cb	-0.3019546
33	0x3d26da6f	0.04073566
34	0xbda602d6	-0.0810601
35	0xbe1dfbb4	-0.15428048
36	0xbd7c014e	-0.06152468
37	0x3c3c8aac	0.011507671
38	0xbe34382d	-0.17599554
39	0xbb8d5399	-0.004312944
40	0xbd4098b7	-0.04702064
41	0x3d9e80f1	0.07739437
42	0x3d0b1529	0.033955727
43	0xbd8eada2	-0.069667116
44	0xbdcb8d4b	-0.09939059
45	0xbd90d753	-0.0707232
46	0xbe41ce51	-0.1892636
47	0xbdc564fd	-0.096384026
48	0xbe374ca2	-0.17900327
49	0x3c5df480	0.013547063
50	0x3d05ba07	0.032648113
51	0xbcfa6e57	-0.030570192
52	0xbda11d90	-0.07866967
53	0x3cdcab45	0.026937136
54	0xbadebebc	-0.0016994099
55	0x3ce44c4a	0.027868409
56	0x3cc657d8	0.024211809
57	0xbbd9a518	-0.006641995
58	0xbda354a6	-0.0797513
59	0x3c421c13	0.011847514
60	0xbd9cf484	-0.07663825
61	0xbdec725e	-0.11545251
62	0xbc11223e	-0.008858262
63	0xbe7f9752	-0.24960068
64	0xbe00b3a6	-0.1256853
65	0x3da566d7	0.08076256
66	0x3d309ed7	0.04312023
67	0xbc91eb78	-0.017812476
68	0x3d799600	0.060934067
69	0xbd868c05	-0.06569675
70	0xbd9200eb	-0.07129081
71	0xbc770972	-0.0150779355
72	0xbe181a1c	-0.1485371
73	0xbced9737	-0.029002769
74	0xbe4524f1	-0.19252373
75	0xbe99a05d	-0.3000516

1.df.df.fc1.concat_imag_layer_1.weight f4 [76, 152]
0	0x3e1c78dd	0.1528048
1	0xbe2c13ba	-0.168044
2	0x3db8b201	0.090183266
3	0xbdf349ac	-0.11879286
4	0xbda42a97	-0.08015936
5	0x3c2439ed	0.010023576
6	0xbd352d63	-0.044232737
7	0xbd52e166	-0.051484488
8	0x3e0c16c3	0.13680558
9	0x3d8a383e	0.067490086
10	0x3da5dcf8	0.08098787
11	0xbd77d258	-0.060503334
12	0xbc20e4e4	-0.009820197
13	0x3b52cfb7	0.0032167265
14	0xbdd35883	-0.10319617
15	0xbdfd7055	-0.12374941
16	0xbcd38e83	-0.02582479
17	0x3caa4783	0.020786053
18	0xba9ff65d	-0.0012204159
19	0xbd95a2c1	-0.073064335
20	0x3e052bba	0.13004962
21	0xbd36e87c	-0.044655308
22	0xbded92e6	-0.11600284
23	0x3e131553	0.14363603
24	0xbdb855ab	-0.09000715
25	0xbdc2e451	-0.09516204
26	0x3e01c7e2	0.12673905
27	0xbc6bc7a1	-0.014390857
28	0x3d160bca	0.036632337
29	0x3b6e6b56	0.0036379895
30	0xbd60c6c0	-0.054877043
31	0x3c34b623	0.011029753
32	0xbd9efe52	-0.077633515
33	0x3de3e951	0.11128486
34	0x3bb976de	0.005659922
35	0xbdaaf07a	-0.083466485
36	0xbd8553bc	-0.06510112
37	0x3e264533	0.16237335
38	0xbe5a6052	-0.21325806
39	0xbdd8afa1	-0.105803736
40	0xbd681ef1	-0.056670133
41	0xbddf2396	-0.10895459
42	0xbc09b994	-0.008406062
43	0x3dba7700	0.09104729
44	0xbdbcf6d5	-0.09226767
45	0xbd573cf8	-0.05254838
46	0x3d7e9239	0.062151168
47	0xbd0b5c38	-0.034023494
48	0x3db4bfb2	0.088256255
49	0x3c179052	0.009250717
50	0xbd5a9efb	-0.05337427
51	0xbd963381	-0.07334042
52	0xbd1aa239	-0.037752364
53	0xbd79758b	-0.060903113
54	0xbe30f4e5	-0.1728092
55	0xbe369b95	-0.17832787
56	0xbd85c806	-0.06532292
57	0xbe0a6bc1	-0.13517667
58	0xbda29404	-0.07938388
59	0x3e0ee02b	0.13952701
60	0x3d9f1633	0.07767906
61	0xbd9a229d	-0.07526133
62	0x3dfbc137	0.12292712
63	0xbdd58b0e	-0.10426913
64	0xbd2a723f	-0.04161286
65	0xbe0b3ea9	-0.13598122
66	0xbd5cf5ca	-0.05394534
67	0xbd2b84aa	-0.041874565
68	0xbd67e0ed	-0.05661099
69	0xbdaee8a4	-0.085404664
70	0xbdb9b4e1	-0.09067703
71	0x3cf0ad77	0.02937959
72	0xbdae690f	-0.08516132
73	0x3d59efe9	0.05320731
74	0x3ddee60e	0.10883723
75	0x3dc5575c	0.09635803
76	0xbb9bf720	-0.004759684
77	0x3dee7e80	0.11645222
78	0x3e422d41	0.18962575
79	0x3c6e082c	0.0145283155
80	0xb9a76b1f	-0.00031932534
81	0xbc0d5e3a	-0.008628422
82	0x3ce0f9d1	0.027462872
83	0xbc4f6980	-0.0126594305
84	0xbd72e3d7	-0.059299316
85	0x3d4161c6	0.047212385
86	0xbd63f53c	-0.055653796
87	0xbd119e23	-0.0355512
88	0x3dde203f	0.10845994
89	0x3c9dac85	0.019247303
90	0xbd2fdfde	-0.042938106
91	0x3d112a6c	0.035440847
92	0xbe27e07b	-0.16394226
93	0xbd8c0d7c	-0.068385094
94	0x3db188e2	0.086686864
95	0xbd5d0c91	-0.053967062
96	0x3d511a89	0.051050697
97	0xbdc7f84f	-0.09764158
98	0x3d6589d2	0.05603964
99	0x3de00b46	0.1093965
100	0x3da2219c	0.07916567
101	0x3e09f116	0.13470873
102	0x3c6097bd	0.013708052
103	0x3e132209	0.14368452
104	0xbd00f2d6	-0.031481586
105	0xbd6df95a	-0.05809913
106	0x3c1238b5	0.008924653
107	0x3c9f8503	0.019472605
108	0x3da199c8	0.078906596
109	0xbde815d6	-0.1133229
110	0xbdd8cde4	-0.105861455
111	0x3d0f2531	0.034947578
112	0x3d0baaf0	0.034098566
113	0x3c00c911	0.007860438
114	0x3dc5e467	0.09662705
115	0xbdfe0d75	-0.124049105
116	0x3d2a0c64	0.041515723
117	0xbc0502b4	-0.00811832
118	0xbdeba955	-0.11506907
119	0x3d24d981	0.04024649
120	0x3e3a87a2	0.18215802
121	0xbb2031bf	-0.0024443713
122	0xbe140941	-0.14456655
123	0x3c4e4117	0.012588761
124	0xbdc32c6d	-0.09529958
125	0xbe16b1c7	-0.14716254
126	0x3e126c99	0.14299239
127	0x3dca0618	0.098644435
128	0xbd4da72f	-0.050208267
129	0xbdb20383	-0.08692076
130	0xbc65ac4a	-0.014018128
131	0xbdd3c81f	-0.103409044
132	0xbdc48d77	-0.09597295
133	0x3cb62800	0.02223587
134	0xbd72caf4	-0.059275582
135	0x3e080a83	0.1328526
136	0x3b9e05b9	0.0048224595
137	0xbdd7c966	-0.105364606
138	0x3a3deefb	0.00072453887
139	0xbdbd6f26	-0.092497155
140	0x3cc05e1b	0.023482373
141	0x3e29b8c1	0.16574384
142	0xbc9e8535	-0.019350627
143	0x3de93eaa	0.11388905
144	0xbc4fed29	-0.012690821
145	0x3cef3fb0	0.029205173
146	0x3cdff105	0.027336607
147	0x3ded7930	0.1159538
148	0xbde0b445	-0.10971884
149	0xbda232f0	-0.07919872
150	0xbd5ff066	-0.05467262
151	0xbd76074e	-0.06006556
152	0xbc925a3e	-0.017865296
153	0xbdb1d494	-0.08683124
154	0xbd480c3f	-0.048839804
155	0x3cd3d679	0.025859104
156	0x3dd84349	0.105597086
157	0xbd982d10	-0.0743047
158	0xbdd4218d	-0.10357962
159	0x3e1df07b	0.15423767
160	0x3ea800e5	0.32813182
161	0xbe1f3bbc	-0.1555013
162	0x3e6928c8	0.22769463
163	0xbd16f396	-0.036853395
164	0xbdfbd6d0	-0.122968316
165	0xbdfb1442	-0.12259723
166	0x3e8995e3	0.26872167
167	0xbd7c4b8e	-0.061595492
168	0x3d0f070e	0.034918837
169	0x3ddb2249	0.10699899
170	0xbe115046	-0.14190778
171	0xbd96c6b1	-0.07362116
172	0xbd1455f9	-0.036214802
173	0x3d65f11e	0.05613815
174	0x3d265a03	0.040613186
175	0xbe0506e0	-0.12990904
176	0xbdcfef6d	-0.10153089
177	0x3dfb830e	0.12280856
178	0x3c25b26d	0.010113341
179	0x3e924752	0.28570038
180	0xbcbdd8fe	-0.023174759
181	0xbd9eecea	-0.077600315
182	0x3c85f820	0.016353667
183	0x3d46a721	0.04849923
184	0x3e09c61f	0.13454483
185	0xbdf10577	-0.117686205
186	0x3e261ff4	0.16223127
187	0xbc044943	-0.008074108
188	0x3db20008	0.08691412
189	0xbd9a2c94	-0.07528034
190	0x3e1c2843	0.15249734
191	0xbc1e60e8	-0.009666659
192	0x3cefa3b3	0.029252863
193	0xbcbb0a92	-0.022832189
194	0xbe6ec6f7	-0.23318087
195	0xbd4b9a86	-0.049707912
196	0xbc9c91ac	-0.01911243
197	0x3ca65804	0.020305641
198	0xbe38c44d	-0.18043633
199	0x3c1d1339	0.009587103
200	0x3d98ccf9	0.074609704
201	0xbda27a8c	-0.0793353
202	0xbdb8fc4f	-0.09032499
203	0x3e0e0136	0.1386765
204	0x3dd825a4	0.105540544
205	0x3e9231e5	0.28553692
206	0x3d5cd892	0.053917475
207	0x3c9d5b5e	0.019208606
208	0xbdae5f8e	-0.08514319
209	0xbde53ed9	-0.11193628
210	0xbdb1e7fa	-0.08686824
211	0xbdbd5742	-0.09245159
212	0xbd93c76f	-0.07215773
213	0xbd860006	-0.06542973
214	0x3da32426	0.07965879
215	0xbcc25504	-0.02372218
216	0xbd948734	-0.072523504
217	0x3d67bd60	0.056577086
218	0xbd086c0f	-0.033306178
219	0x3c758184	0.014984492
220	0x3ce368fa	0.027760018
221	0x3d9f2f85	0.077727355
222	0x3e0ed825	0.1394964
223	0xbcee9ad4	-0.029126562
224	0xbca02ff8	-0.019554123
225	0xbd6da3c6	-0.058017515
226	0xbccccd56	-0.025000256
227	0xbbc86192	-0.006115147
228	0x3d489cb2	0.04897756
229	0xbe10d9e8	-0.14145625
230	0xbda37b02	-0.07982446
231	0x3d20f5c2	0.039296873
232	0x3d8462d4	0.064641625
233	0x3d593415	0.053028185
234	0xbe2e6197	-0.17029415
235	0xbe3a4e32	-0.18193892
236	0xbd21154a	-0.039326943
237	0x3e393ba6	0.1808916
238	0xbdd6c7a0	-0.10487294
239	0x3e6d987b	0.23202698
240	0xbdb24780	-0.08705044
241	0xbd38d8c6	-0.045128606
242	0xbe09eda2	-0.13469556
243	0x3c9dc7c5	0.019260297
244	0x3b902250	0.0043986216
245	0x3d9b4ddc	0.0758321
246	0xbd582356	-0.052768074
247	0x3dacc629	0.084362336
248	0x3ce82378	0.028337225
249	0x3e678aee	0.22611591
250	0xbe0f8515	-0.1401561
251	0xbd76102b	-0.060074013
252	0x3c34dbd3	0.011038738
253	0x3d040eeb	0.03224079
254	0x3d22f446	0.03978374
255	0xbe561659	-0.20906962

1.df.df.fc1.concat_imag_layer_1.bias f4 [76]
0	0x3d3e6a43	0.046488058
1	0x3d4ee8ca	0.050514974
2	0x3d646dd4	0.055768803
3	0xbd2232c8	-0.03959921
4	0xbc6ab04f	-0.014324262
5	0x3d20fe2d	0.0393049
6	0x3dd9b0f7	0.106294565
7	0xbc4e8931	-0.012605951
8	0xbc6900f1	-0.014221416
9	0x3df6208b	0.12017926
10	0xbdb616d5	-0.088910736
11	0xbcc8b702	-0.024501327
12	0xbd9f4e37	-0.0777859
13	0x3d894c6e	0.06704031
14	0xbe0624d0	-0.1309998
15	0xbdcf6d0e	-0.101282224
16	0x3cc44073	0.023956513
17	0x3ca1603e	0.019699212
18	0x3df6476d	0.12025342
19	0xbd5283cb	-0.05139522
20	0x3cb49e1a	0.022048045
21	0xbdb1c0df	-0.08679365
22	0xbd54d1a9	-0.05195776
23	0xbb66f2e7	-0.0035239996
24	0xbdd4a882	-0.10383703
25	0x3c9cdaf2	0.01914737
26	0x3d59579c	0.053062066
27	0xbd864ff3	-0.06558218
28	0x3e19ac35	0.15007098
29	0x3d464f33	0.048415374
30	0xbcbd6bc5	-0.023122678
31	0x3d95f133	0.07321396
32	0xbcdbf24f	-0.02684894
33	0xbd31addc	-0.043378696
34	0x3d9c7d7e	0.07641123
35	0x3d3c194f	0.045922574
36	0x3de99722	0.114057794
37	0xbba36871	-0.0049868156
38	0x3ddba006	0.107238814
39	0xbdcf398b	-0.10118397
40	0x3da0e2ee	0.078557834
41	0x3cf40fda	0.029792715
42	0x3d2f524c	0.042803094
43	0x3d7a4dde	0.061109416
44	0x3d15503c	0.03645347
45	0xbd07dfe8	-0.033172518
46	0xbcd91b1f	-0.02650219
47	0x3c376f23	0.011195931
48	0x3cc5e305	0.024156103
49	0xbd53a0e4	-0.05166711
50	0xbdc7a8fd	-0.09749029
51	0x3d7e9bdc	0.062160358
52	0x3dbf5b57	0.093435936
53	0xbd6cefd9	-0.057845924
54	0x3e178d46	0.14799985
55	0x3bb1900a	0.005418782
56	0xbd081c7c	-0.03323029
57	0xbde1c142	-0.11023189
58	0xbd212c90	-0.03934914
59	0x3de4af71	0.11166275
60	0x3c303d2c	0.010756772
61	0x3cebebd1	0.02879897
62	0x3d2a75d1	0.041616265
63	0xbc80a7d0	-0.01570502
64	0x3c9fe899	0.01952009
65	0x3d7f6dcb	0.062360566
66	0x3d4dd38f	0.050250586
67	0xbdb582f9	-0.08862872
68	0x3d8d6f48	0.06905991
69	0x3ca7f07d	0.020500416
70	0x3e14b53d	0.14522262
71	0x3d12ae81	0.03581095
72	0x3dba1fa7	0.090880685
73	0x3c8ed378	0.01743482
74	0x3d537063	0.051620852
75	0x3c9383e9	0.018007236

1.df.df.fc2.weight_block_1.weights1 f4 [2, 76, 76]
0	0xbda10366	-0.07861976
1	0x3c818162	0.015808765
2	0x3b3dc14d	0.0028954328
3	0x3af9e8b4	0.0019066543
4	0x3d9ff45b	0.07810279
5	0xbcf9410d	-0.030426526
6	0x3da10620	0.078624964
7	0xbc795a7e	-0.015219329
8	0x3cf81d39	0.030287372
9	0xbcd232ab	-0.025658926
10	0x3b4c7a02	0.0031200652
11	0x3d015cd7	0.03158268
12	0xbc819cc0	-0.015821815
13	0x3d679af7	0.05654427
14	0x3d213d68	0.039365202
15	0x3d8da828	0.06916839
16	0xbc8cc9bc	-0.017186038
17	0x3de61951	0.112352975
18	0x3dbdb636	0.092632696
19	0xbda543ec	-0.08069596
20	0xbc83f5f4	-0.01610849
21	0xbd786f54	-0.060653046
22	0x3ce48e37	0.027899845
23	0x3cca073f	0.024661658
24	0x3da5a0cd	0.08087311
25	0xbd2e2dda	-0.042524196
26	0xbd72b89e	-0.059258096
27	0x3ddd76e8	0.10813695
28	0xbd616dab	-0.05503623
29	0xbdd0947f	-0.101845734
30	0xbd7c80fa	-0.06164644
31	0x3cfa4ea8	0.030555084
32	0xbd8f7eae	-0.07006584
33	0x3d619567	0.05507412
34	0xbd7d8871	-0.0618977
35	0x3c870ece	0.016486552
36	0xbd90558c	-0.07047567
37	0x3c386bc7	0.011256165
38	0x3d8654b9	0.06559128
39	0xbd9e5461	-0.07730938
40	0xbd2515b3	-0.040303897
41	0x3d600123	0.054688584
42	0x3c1b1bc0	0.009467065
43	0xbd459d9d	-0.048246015
44	0x3d97b488	0.074074805
45	0x3d1ca0d7	0.038239326
46	0x3dbffc6f	0.0937432
47	0xbd2bcb7a	-0.041942097
48	0xbd209e6e	-0.03921359
49	0xbc1e4796	-0.009660622
50	0xbc7fcfc0	-0.015613496
51	0xbb27e3cf	-0.0025617962
52	0x3d4223bd	0.047397364
53	0x3caf8f7a	0.02143072
54	0xbd8026f6	-0.06257431
55	0x3de3c3b7	0.11121314
56	0xbd5ada00	-0.053430557
57	0xbd1ecbcc	-0.038768575
58	0x3d75187b	0.0598378
59	0xbd81e947	-0.06343322
60	0x3bfa076f	0.0076302807
61	0x3de79f56	0.11309688
62	0xbdaac9c1	-0.08339263
63	0xbdfbe36b	-0.12299236
64	0x3d594384	0.053042904
65	0x3d2bf6ba	0.041983344
66	0x3cd614ec	0.026133023
67	0x3d3f28d8	0.04666981
68	0x3c1e17de	0.009649245
69	0x3d50a9fb	0.050943356
70	0x3dda42dc	0.10657284
71	0x3d8abae1	0.067739256
72	0xbcbf97cb	-0.02338781
73	0x3d3a47a3	0.045478474
74	0x3cdcbd40	0.02694571
75	0xbd86f9bb	-0.06590601
76	0x3da14267	0.07873993
77	0x3dbcf054	0.092255265
78	0xbd778959	-0.06043372
79	0x3e0ffbd2	0.14060906
80	0x3d61287d	0.054970253
81	0xbcb15bd7	-0.021650238
82	0xbd25adb5	-0.040448863
83	0xbddd0c15	-0.1079332
84	0xbcca32ab	-0.024682363
85	0x3e2d9135	0.16949923
86	0x3d5414d0	0.05177766
87	0xbd9a947b	-0.07547852
88	0xbd96c423	-0.07361629
89	0xbd6874f2	-0.056752153
90	0x3ccbd89d	0.024883563
91	0x3d9a59e2	0.07536675
92	0x3d611fb1	0.054961864
93	0x3dfe1703	0.12406733
94	0x3d3455ff	0.044027325
95	0xbd63a7f8	-0.05558011
96	0xbd3b1412	-0.045673437
97	0xbcbcecef	-0.023062197
98	0x3c930189	0.017945068
99	0x3e875233	0.264299
100	0xbdfa0cbe	-0.12209462
101	0x3e1d2027	0.15344296
102	0x3c82d73e	0.015971776
103	0xbd60d3e3	-0.05488957
104	0xbb0edefa	-0.0021800385
105	0x3d38a5df	0.045080062
106	0x3d815471	0.06314934
107	0x3d77f755	0.06053861
108	0x3d20e96d	0.039285112
109	0xbd684b51	-0.056712452
110	0xbd9a5725	-0.07536153
111	0x3d6ec514	0.058293417
112	0xbd5a6fca	-0.053329267
113	0x3dda07cd	0.10646019
114	0x3d65d88f	0.05611473
115	0xbd794357	-0.060855236
116	0xbcdf25db	-0.02723973
117	0x3db64499	0.08899803
118	0xbcd517bb	-0.026012292
119	0xbd848cd1	-0.06472171
120	0x3d670c26	0.05640807
121	0x3d71d0aa	0.05903689
122	0xbdf0a46f	-0.11750113
123	0xbd87cdcf	-0.06631052
124	0x3cb717ac	0.022350155
125	0xbd298dc7	-0.041394975
126	0xbdd29651	-0.10282577
127	0xbdcde80e	-0.100540265
128	0x3e532777	0.20620523
129	0x3e1181f8	0.14209735
130	0x3ce583f8	0.02801703
131	0xbdba6b1c	-0.09102461
132	0xbb467180	-0.0030280054
133	0x3c6ee7b2	0.014581608
134	0xbd5f111c	-0.054459676
135	0xbe44b368	-0.19209063
136	0x3cc0b890	0.023525506
137	0xb9e87cb9	-0.00044343414
138	0xbd91dced	-0.071222164
139	0xbdb7a543	-0.08967068
140	0x3d6727e9	0.056434546
141	0xbdfc74e9	-0.12326986
142	0x3d3b82b8	0.04577896
143	0x3df0fdc0	0.11767149
144	0xbd8b058b	-0.067881666
145	0x3c85bd3f	0.016325591
146	0x3d5b4aaa	0.053538002
147	0xbd40dd36	-0.047085963
148	0x3d91759c	0.0710251
149	0x3b30c442	0.0026972448
150	0x3d206db7	0.039167132
151	0x3d91373d	0.07090614
152	0x3d08d3bf	0.03340506
153	0x3c1163f0	0.008873925
154	0x3cc5b7ce	0.024135496
155	0x3d8f3c8f	0.069939725
156	0x3dc46083	0.09588721
157	0xbd139b92	-0.036037035
158	0x3e6a44c0	0.22877789
159	0x3dd41032	0.103546515
160	0x3dc683a1	0.09693075
161	0x3d44ce41	0.04804826
162	0xbe0169b6	-0.12637982
163	0x3d05a094	0.032623842
164	0x3d551dcb	0.052030366
165	0xbdaf672a	-0.08564599
166	0x3d94d4f3	0.07267179
167	0x3cc88473	0.02447722
168	0x3e126b9e	0.14298865
169	0x3db739be	0.0894656
170	0x3d24d53d	0.040242422
171	0x3e332331	0.17493893
172	0xbd9a8379	-0.07544608
173	0xbe068f1a	-0.13140526
174	0x3c95ecf4	0.018301465
175	0xbd3b2912	-0.045693465
176	0x3d5eed23	0.05442537
177	0xbd020568	-0.031743437
178	0xbdb269e2	-0.08711602
179	0xbd63a335	-0.05557557
180	0xbcb18e76	-0.021674376
181	0xbd26acbb	-0.040692072
182	0x3e65fd8b	0.2246
183	0xbc72916f	-0.014805182
184	0xbc830ca7	-0.015997244
185	0xbd1226ed	-0.035681654
186	0xbe1d0f3a	-0.1533784
187	0x3d772c53	0.060345005
188	0x3dc61300	0.09671593
189	0xbcde915e	-0.027168926
190	0x3cbb4373	0.02285931
191	0xbb5d9e14	-0.0033816146
192	0x3d6077c9	0.054801736
193	0xbc6a4f8d	-0.014301193
194	0xbd93cc5c	-0.07216713
195	0xbd067c9c	-0.03283368
196	0xbd88d8e4	-0.066819936
197	0xbdf3e451	-0.11908782
198	0x3cfb2be0	0.03066057
199	0x3dc8b6e0	0.09800506
200	0x3e86b235	0.26307836
201	0xbcd3d785	-0.025859604
202	0xbb3a353a	-0.0028413073
203	0x3e3af699	0.18258132
204	0x3cf38a22	0.029728953
205	0xbcf5768a	-0.02996375
206	0x3d4e2dbf	0.050336596
207	0x3e0ab20b	0.1354448
208	0x3e1db49f	0.15400933
209	0x3d822586	0.06354813
210	0x3ccafe4c	0.024779461
211	0xbd9a0a2a	-0.0752147
212	0x3d0d2fce	0.03446942
213	0x3d634d1c	0.05549346
214	0x3dcea51c	0.10090086
215	0xbd8574ff	-0.06516456
216	0x3d3a4a1f	0.045480844
217	0x3d8a7ae4	0.06761721
218	0x3ddb413d	0.107058026
219	0xbc7f8861	-0.01559648
220	0x3e29f894	0.16598731
221	0x3d175fbc	0.036956534
222	0x3e3d0d33	0.18462066
223	0x3d72e65b	0.059301715
224	0x3d8e6149	0.069521494
225	0x3d4de710	0.050269186
226	0x3d4a93f6	0.049457513
227	0xbdb0ca4e	-0.086323366
228	0x3de06e47	0.10958534
229	0xbd6871ff	-0.05674934
230	0x3d914ec0	0.070950985
231	0xbca17892	-0.019710813
232	0xba9133b4	-0.0011078031
233	0x3cce6f82	0.025199655
234	0xbd38bc09	-0.0451012
235	0xbcb56d80	-0.02214694
236	0x3d6002c0	0.054690123
237	0x3d19798e	0.03746944
238	0x3d7f2136	0.06228753
239	0xbb6efa4a	-0.0036465102
240	0xbe03b508	-0.12862027
241	0x3cb14164	0.021637626
242	0xbce3a76d	-0.027789796
243	0xbd25ceaf	-0.040480312
244	0x3d9b133f	0.0757203
245	0xbe04fe75	-0.12987693
246	0xbc8be51d	-0.017077023
247	0x3dc5f4ea	0.09665854
248	0x3d58c56e	0.05292266
249	0x3db814b5	0.089883246
250	0x3c75fe20	0.015014201
251	0xbdd2df96	-0.10296552
252	0xbd101a60	-0.035181403
253	0xba3bd5e1	-0.00071653543
254	0x3e35b2f8	0.17744052
255	0xbe0ff321	-0.1405759
