model/8.pt (torch, 694923 bytes, 30 tensors)

1.df.df.fc1.weight_block_1.weights1 f4 [2, 76, 76]
0.08915144 -0.009908105 0.015576004 -0.011118241 -0.050928317 0.019859456 0.0072407317 0.08710602
0.05937698 0.0071682353 0.0064671533 -0.06117012 -0.027212163 -0.00071763806 0.027345298 0.064083226
0.044458285 -0.017322078 0.039325293 0.00018959572 0.013986229 -0.05478945 -0.0336677 0.044698074
0.0588324 0.007370131 0.06354823 0.056140684 0.029045103 -0.17681503 0.007857081 0.07408896
0.10783365 -0.0005321143 0.014397155 0.025871947 -0.046986397 0.06599154 0.026784264 -0.08857926
-0.0132762315 -0.03401714 0.004906158 0.09381309 -0.08470988 0.0028136212 0.029490769 -0.08938206
0.04149302 -0.12377124 -0.050935965 -0.023688892 -0.021610433 0.012242315 -0.14604959 -0.020693565
0.041632213 -0.0808663 -0.014005937 0.040236473 0.039237566 -0.024153303 0.06996969 -0.034355573
0.012063874 -0.0010209319 0.025388675 -0.1196306 0.03452186 0.034579538 -0.020594647 0.022169642
0.011043166 0.04295465 -0.0030887264 -0.058376666 -0.032225672 0.076862276 0.012463177 0.031948492
-0.016660875 0.012613579 0.009450505 -0.059498973 -0.012601261 0.008880072 -0.0012476215 0.04122862
0.013030324 0.0127388155 0.015417262 0.005110825 0.009287681 0.027406715 0.009270715 0.015681207
0.0044678785 0.07774139 0.02987933 0.006082077 0.0019204847 0.035560846 0.016942734 -0.005360973
0.024823437 0.010491139 0.0026015362 0.0130433785 -0.013188421 -0.01089229 0.0089108525 0.0037532107
0.051578354 0.023725284 0.0058800047 0.04695716 0.01987362 0.031222476 0.000393748 -0.04674396
0.055045385 0.016385842 -0.025485389 0.00263377 0.0062105046 0.09110851 0.0807254 0.03526753
0.03106308 0.024323916 0.09545356 0.046014696 -0.016223773 0.081726275 0.054287795 -0.016389802
0.0009959054 0.058248136 -0.0033508458 0.06350903 0.014804146 0.051892575 0.022888822 0.029192757
-0.026083974 -0.014478594 0.034691103 -0.009051274 0.001977411 -0.0017432984 0.017465984 0.044167783
0.029626189 0.15771967 0.08827633 0.00516778 0.012557498 0.0019062954 -0.03844716 -0.20260984
0.0018738224 -0.0005706881 -0.020031665 -0.14404114 -0.028657822 0.028239144 0.046585966 -0.10580549
0.05196932 0.039437745 0.0949824 0.050854053 0.065545596 0.048726745 0.020963198 0.042854548
-0.1515138 0.14063932 0.015264956 -0.03494757 0.009449925 0.05871655 -0.07072125 0.08895354
-0.07394502 -0.054493938 0.118611686 -0.014665871 -0.07148415 -0.040640425 0.017856834 0.059546527
0.018559905 -0.04962231 0.0076760747 0.011697479 -0.049962528 0.048484966 -0.050995402 -0.060793612
0.0074690324 0.11177678 0.018295264 0.033455927 -0.018048923 -0.019636685 -0.0006836017 -0.008338092
-0.030170804 -0.11297977 -0.00696626 0.051253628 0.072244205 0.04928516 0.043169428 -0.044799857
-0.007670484 0.08690215 0.08318953 0.092133 -0.075206146 -0.008404406 0.14100483 0.023258185
0.022129938 -0.027347237 0.005651446 -0.11233632 -0.09250624 -0.090256505 0.034896825 -0.01230729
0.1681667 -0.098999 -0.032162514 -0.08680764 -0.07209886 0.019995479 0.033180825 -0.08159274
0.019695252 0.026095916 -0.059979606 -0.2244462 -0.014417584 0.055024944 -0.04651846 0.039441563
-0.006463086 0.0039095264 0.0070212632 -0.016205216 -0.22107017 0.0005849819 -0.15386106 -0.03666462
00000000: 0895 b63d 9b55 22bc 7f32 7f3c 4829 36bc
00000010: 369a 50bd 4cb0 a23c a943 ed3b a464 b23d
00000020: 4735 733d 84e3 ea3b 6aea d33b 858d 7abd
00000030: 0bec debc e01f 3cba 3f03 e03c 113e 833d
00000040: e419 363d 08e7 8dbc 8f13 213d 37ce 4639
00000050: 7f26 653c e76a 60bd 24e7 09bd 5415 373d
00000060: 3efa 703d 2481 f13b 9325 823d c6f3 653d
00000070: ffef ed3c 000f 35be fcba 003c f4bb 973d
00000080: e4d7 dc3d 967d 0bba 0be2 6b3c 68f1 d33c
00000090: cf74 40bd 9326 873d ac6a db3c 0b69 b5bd
000000a0: 8d84 59bc 8e55 0bbd d6c3 a03b 1421 c03d
000000b0: 607c adbd bb64 383b a096 f13c f10d b7bd
000000c0: 96f4 293d c77b fdbd 3ba2 50bd 350f c2bc
000000d0: 5d08 b1bc fe93 483c 068e 15be 8d85 a9bc
000000e0: 8a86 2a3d 3b9d a5bd 2879 65bc 00cf 243d
000000f0: 92b7 203d 26dd c5bc 454c 8f3d 6eb8 0cbd
00000100: 8ea7 453c cad0 85ba e9fb cf3c e300 f5bd
00000110: cb66 0d3d 46a3 0d3d 1bb6 a8bc 1c9d b53c
00000120: 65ee 343c 37f1 2f3d 3b6c 4abb 5f1c 6fbd
00000130: 11ff 03bd f869 9d3d 5a32 4c3c 6cdc 023d
00000140: 637c 88bc 2fa9 4e3c 4ad6 1a3c 32b5 73bd
00000150: 8575 4ebc b97d 113c 3b87 a3ba 57df 283d
00000160: 247d 553c 77b6 503c af98 7c3c b578 a73b
00000170: 5c2b 183c 0c84 e03c 32e4 173c e075 803c
00000180: 4867 923b e136 9f3d 7fc5 f43c 294c c73b
00000190: c6b8 fb3a 40a8 113d 7dcb 8a3c 1aab afbb
000001a0: 855a cb3c 07e3 2b3c 897e 2a3b e5b3 553c
000001b0: 3f14 58bc 9375 32bc d3fe 113c 6df8 753b
000001c0: d343 533d 875b c23c 0ead c03b 2756 403d
000001d0: 00ce a23c 47c6 ff3c f66f ce39 9876 3fbd
000001e0: 4577 613d 9a3b 863c bcc6 d0bc 549b 2c3b
000001f0: 7d81 cb3b 1997 ba3d 5c53 a53d af74 103d
00000200: 0078 fe3c f342 c73c 287d c33d e879 3c3d
00000210: b8e7 84bc 1b60 a73d e15c 5e3d e843 86bc
00000220: 0a89 823a 9995 6e3d dd99 5bbb 0611 823d
00000230: 178d 723c 4f8d 543d 5781 bb3c a625 ef3c
00000240: 0fae d5bc a037 6dbc 4218 0e3d cb4b 14bc
00000250: 7497 013b 637f e4ba d314 8f3c 47e9 343d
00000260: 9fb2 f23c 4481 213e 38ca b43d 7b56 a93b
00000270: f7bd 4d3c a9dc f93a c57a 1dbd f478 4fbe
00000280: 0c9b f53a 3b9a 15ba 7219 a4bc 857f 13be
00000290: cfc3 eabc c755 e73c edd0 3e3d 8cb0 d8bd
000002a0: c8dd 543d 7989 213d 2286 c23d 574c 503d
000002b0: c53c 863d b295 473d 03bb ab3c 4088 2f3d
000002c0: 6f26 1bbe c103 103e de19 7a3c 2f25 0fbd
000002d0: dcd3 1a3c c480 703d 4dd6 90bd 462d b63d
000002e0: 7d70 97bd 0935 5fbd afea f23d 1f49 70bc
000002f0: 4866 92bd 9376 26bd 7f48 923c 0fe7 733d
00000300: f10a 983c c340 4bbd 9587 fb3b c8a6 3f3c
00000310: 82a5 4cbd 2c98 463d 8ee0 50bd b902 79bd
00000320: c9be f43b 39eb e43d f3df 953c 1509 093d
00000330: 56db 93bc 1ddd a0bc bc33 33ba 7e9c 08bc
00000340: c328 f7bc f061 e7bd 3945 e4bb 53ef 513d
00000350: c5f4 933d 3cdf 493d 6dd2 303d 0e80 37bd
00000360: af58 fbbb c1f9 b13d 465f aa3d 3ab0 bc3d
00000370: ae05 9abd a2b2 09bc 9263 103e f387 be3c
00000380: d849 b53c 5007 e0bc c42f b93b 9610 e6bd
00000390: e973 bdbd 67d8 b8bd f9ef 0e3d 84a4 49bc
000003a0: e433 2c3e fdbf cabd d7bc 03bd 34c8 b1bd
000003b0: 91a8 93bd 8fcd a33c 9ee8 073d 181a a7bd
000003c0: f057 a13c 1ac7 d53c 2dad 75bd 3ad5 65be
000003d0: bb37 6cbc d661 613d 248a 3ebd 7a8d 213d
000003e0: 4cc8 d3bb 7c1b 803b a012 e63b cdc0 84bc
000003f0: 3860 62be 7959 193a c18d 1dbe a42d 16bd

1.df.df.fc1.weight_block_1.bias1 f4 [2, 76]
0.0893236 0.008038746 0.105617076 0.004123824 0.024202436 0.04711352 0.02659963 0.12503462
-0.034134235 0.030002171 0.056469373 -0.09671493 0.04494834 -0.09803253 -0.06224098 -0.019895785
-0.38788322 0.076225474 0.038892005 0.087403744 0.03226241 0.10686406 0.106033914 -0.013301562
0.08168761 -0.21385176 0.027428523 -0.0722651 0.02820821 -0.2002262 0.008165292 0.17114013
0.037810713 0.07546436 0.0029477726 0.06717168 0.06504289 -0.1130681 -0.12045975 -0.19250228
0.08633927 0.008516638 0.023252599 0.033805624 0.053576067 -0.024100967 -0.02927537 0.07330712
-0.008460411 -0.3495155 0.13089386 0.04754815 -0.050265063 0.050037734 -0.06554866 -0.02941592
0.015287703 0.047969926 0.015937846 0.04040999 -0.25161564 0.16376255 0.04079111 0.033187002
-0.006023265 0.092804916 -0.009729476 -0.2748552 0.10619116 -0.0065309755 -0.012333357 -0.0042824
-0.17427365 0.03590958 -0.03054715 0.05322152 0.0697299 -0.081270784 -0.089135386 0.04123232
0.014507633 -0.038689006 -0.064345755 -0.09167534 -0.11946121 -0.058256034 -0.10701582 0.10046777
-0.10211385 -1.3145658e-05 -0.086495936 -0.08241253 -0.31967697 -0.05864276 -0.041842803 -0.0496726
-0.024071783 -0.1606773 -0.017677844 0.026642432 -0.021981431 -0.20043156 0.021575991 0.0026502847
-0.14839043 0.07845045 0.015899373 0.06385946 -0.1258438 -0.07985429 -0.06366634 -0.00088811707
-0.015715279 0.04984657 -0.1156426 0.061498478 -0.03166585 -0.01514835 0.015397577 0.0313463
0.05370672 -0.022778852 0.0061277742 -0.03374603 -0.06962737 -0.087443 0.006847357 0.016770761
-0.014357024 -0.054764982 0.071839795 0.011589194 -0.017526532 0.049221847 -0.010248226 -0.065336235
0.033309955 0.06007496 0.05491422 0.07855001 0.00031079372 -0.004793192 0.012945261 -0.010514931
-0.06229121 0.029303154 0.034736935 -0.13370664 -0.12513992 -0.049614597 -0.055831 0.029940035
00000000: 4bef b63d f2b4 033c c44d d83d 2521 873b
00000010: 3044 c63c 1bfa 403d 78e7 d93c 1309 003e
00000020: 57d0 0bbd 1dc7 f53c 6e4c 673d 7a12 c6bd
00000030: c01b 383d 47c5 c8bd 66f0 7ebd 7cfc a2bc
00000040: a198 c6be 1a1c 9c3d 394d 1f3d bc00 b33d
00000050: 9725 043d 8bdb da3d 4f28 d93d cbee 59bc
00000060: d54b a73d f5fb 5abe c8b1 e03c baff 93bd
00000070: e714 e73c 1908 4dbe b8c7 053c 5c3f 2f3e
00000080: 68df 1a3d 0f8d 9a3d 6b2f 413b 4e91 893d
00000090: 3535 853d 3f90 e7bd 9ab3 f6bd 511f 45be
000000a0: a5d2 b03d 5e89 0b3c 3c7c be3c c477 0a3d
000000b0: 9472 5b3d 646f c5bc e7d2 efbc 0b22 963d
000000c0: 899d 0abc b2f3 b2be 0a09 063e d9c1 423d
000000d0: bde2 4dbd 5ef4 4c3d 603e 86bd a8f9 f0bc
000000e0: 4679 7a3c 1d7c 443d 1690 823c f284 253d
000000f0: c4d3 80be 5fb1 273e 9414 273d 18ef 073d
00000100: cf5e c5bb 8110 be3d 6168 1fbc d2b9 8cbe
00000110: c07a d93d cb01 d6bb d911 4abc 6053 8cbb
00000120: cb74 32be ec15 133d 043e fabc cffe 593d
00000130: 8dce 8e3d 4c71 a6bd 9d8c b6bd 39e3 283d
00000140: 6cb1 6d3c 5d78 1ebd b5c7 83bd 48c0 bbbd
00000150: 14a8 f4bd e19d 6ebd 1c2b dbbd 0cc2 cd3d
00000160: 1121 d1bd 2c8c 5cb7 c824 b1bd e7c7 a8bd
00000170: b3ac a3be 6433 70bd 5c63 2bbd 7f75 4bbd
00000180: 3032 c5bc 9788 24be 20d1 90bc 3b41 da3c
00000190: 6712 b4bc ee3d 4dbe 22c0 b03c 66b0 2d3b
000001a0: a9f3 17be a1aa a03d 673f 823c c0c8 823d
000001b0: 32dd 00be a58a a3bd 8063 82bd 87d0 68ba
000001c0: 54bd 80bc eb2b 4c3d 07d6 ecbd d4e5 7b3d
000001d0: 0db4 01bd c930 78bc 1e46 7c3c fa64 003d
000001e0: 94fb 5b3d b79a babc 7fcb c83b 4739 0abd
000001f0: cb98 8ebd 5115 b3bd cb5f e03b d662 893c
00000200: b939 6bbc 3f51 60bd be20 933d 9ae0 3d3c
00000210: cd93 8fbc d99c 493d 2de8 27bc 01cf 85bd
00000220: 0570 083d 2911 763d bced 603d d4de a03d
00000230: 07f2 a239 3510 9dbb 5c18 543c d146 2cbc
00000240: 1125 7fbd 2b0d f03c 5148 0e3d 65ea 08be
00000250: ae24 00be ad38 4bbd 0caf 64bd ce44 f53c

1.df.df.fc1.weight_block_2.weights1 f4 [2, 76, 76]
0.0905742 0.023650214 0.07692945 0.024306964 0.018321838 0.053325005 -0.018899914 0.03442664
-0.047443535 -0.029960888 -0.03952304 -0.0009902754 0.01702089 -0.00077058934 0.004547464 0.025920395
-0.03714185 -0.0018947347 0.031893894 0.01775893 0.06647832 0.039079923 0.028287027 0.044547807
-0.02708434 -0.026771324 -0.011191402 0.014006706 -0.03464365 -0.022384185 0.016977202 0.09278196
0.0055681937 0.0018285979 -0.01930684 -0.005845013 -0.03588127 0.060519744 0.03053758 -0.0040537966
0.012892067 0.00826716 -0.036746815 -0.07135581 0.078177445 0.067639865 0.011706473 -0.041226376
0.09727775 -0.07896069 0.00011940773 0.058734126 0.017081536 -0.04171626 0.006157086 -0.0940743
-0.047556404 0.015100374 0.009775876 0.042673957 0.0040970654 0.0062739523 0.098810546 -0.019449051
-0.017558718 0.123968765 0.03126152 0.10564818 0.045283407 -0.034327976 0.0062143863 -0.010005259
-0.03664492 0.021470767 0.06376628 0.018994858 -0.017072609 0.0072508636 0.0051786304 -0.018899424
0.038977027 -0.052125648 0.0195497 0.011185899 0.010725435 0.0039416626 0.057947706 0.040137652
0.026979037 0.032450803 0.061097927 0.020424768 0.047402374 0.027921174 -0.017527094 -0.00092442485
-0.03806104 -0.026231324 -0.012564085 0.017180279 0.036794662 0.06759817 0.022647224 0.010788049
0.03619565 0.06474315 -0.030149296 -0.02412096 -0.0052502 0.03043133 0.031597424 0.018330574
-0.026678914 -0.006260163 0.011587392 0.0155334715 0.011415931 -0.009190593 0.042946868 0.048241887
-0.037503153 -0.012619411 0.038391072 0.03286856 -0.01099584 0.08358296 -0.015769472 0.010892001
0.016476212 0.04464098 0.011114855 0.089972824 0.074010335 0.025811136 0.014502258 -0.029966665
-0.009668261 0.004883248 -0.029701585 0.018997636 0.034737963 0.016073119 0.001133312 -0.04243804
0.03199183 0.03160472 0.02003536 -0.023349311 0.03500032 0.005537946 0.012047832 0.017455732
0.16433205 0.006168973 0.040109225 -0.13153104 0.053227127 -0.08001152 0.09010335 0.013506085
-0.08190515 -0.019087601 -0.14880691 0.014089388 0.12614545 0.02604173 0.020170284 0.11986865
-0.0125426315 -0.02058859 0.08000213 -0.0047189896 -0.082880415 0.09350737 -0.025865149 0.000644477
0.012772847 0.010645973 0.0056678527 -0.011739519 0.051979218 -0.017941173 0.14391635 0.066661
-0.049425308 0.017489599 -0.059901726 0.015678719 -0.014686293 0.060466196 0.074177906 -0.073538676
-0.005915153 -0.068318784 0.0042825895 -0.008861625 -0.04731516 -0.031191397 0.06522366 -0.075129725
0.07522454 -0.011551876 -0.08960814 0.08179766 -0.01175182 0.015672397 0.06274109 -0.035096962
0.055293627 0.050243504 0.021815317 -0.09202232 0.02194459 -0.016634826 0.0027008927 -0.014178273
0.049559638 -0.00064195937 -0.0016185041 0.025712155 0.13953955 0.05669834 -0.0007437797 0.1027477
-0.02632647 0.028557863 0.053633638 0.005112164 -0.026240665 -0.010728572 -0.16447654 -0.1054221
-0.06632641 -0.006139323 0.15266153 -0.04673585 0.015409947 0.101845406 -0.13256958 -0.0065062144
-0.036707256 -0.044228166 -0.11583481 -0.001008765 0.019567117 -0.023560345 0.071179144 -0.0036404575
-0.08009729 0.08731327 -0.01113376 -0.098160736 -0.010774838 -0.10064924 0.026148295 -0.017707344
00000000: f77e b93d 18be c13c 308d 9d3d 661f c73c
00000010: ae17 963c 526b 5a3d fed3 9abc f302 0d3d
00000020: 2754 42bd 8970 f5bc e9e2 21bd 21cc 81ba
00000030: 656f 8b3c 6001 4aba e502 953b 0257 d43c
00000040: 0d22 18bd bf58 f8ba 2ca3 023d 2d7b 913c
00000050: c925 883d 4512 203d 32ba e73c c377 363d
00000060: fadf ddbc 894f dbbc 245c 37bc 627c 653c
00000070: 80e6 0dbd 0a5f b7bc c613 8b3c 7804 be3d
00000080: 6575 b63b 90ad ef3a 6129 9ebc 8687 bfbb
00000090: 3df8 12bd 8de3 773d f229 fa3c b6d5 84bb
000000a0: 4039 533c fb72 073c d483 16bd ff22 92bd
000000b0: 7f1b a03d c586 8a3d 82cc 3f3c fddc 28bd
000000c0: 8f39 c73d 24b6 a1bd 896a fa38 3293 703d
000000d0: 94ee 8b3c abde 2abd 62c1 c93b 07aa c0bd
000000e0: 81ca 42bd 8f67 773c ff2a 203c e3ca 2e3d
000000f0: ad40 863b ba95 cd3b 2f5d ca3d 9e53 9fbc
00000100: 4dd7 8fbc 56e3 fd3d 140c 003d 135e d83d
00000110: 187b 393d 7e9b 0cbd 0da2 cb3b 19ed 23bc
00000120: fc18 16bd 76e3 af3c e597 823d 1b9b 9b3c
00000130: dbdb 8bbc a798 ed3b 80b1 a93b f7d2 9abc
00000140: 60a6 1f3d b481 55bd b126 a03c 1045 373c
00000150: bcb9 2f3c 1029 813b 935a 6d3d 6167 243d
00000160: 2403 dd3c 22eb 043d d241 7a3d d851 a73c
00000170: fe28 423d f2ba e43c fb94 8fbc 1a55 72ba
00000180: e5e5 1bbd 13e3 d6bc 98d9 4dbc a8bd 8c3c
00000190: 00b6 163d e970 8a3d ac86 b93c 5bc0 303c
000001a0: e441 143d 0e98 843d a8fb f6bc 5299 c5bc
000001b0: df09 acbb 204b f93c 4d6c 013d 002a 963c
000001c0: bd8d dabc 0e22 cdbb 0bd9 3d3c 1a80 7e3c
000001d0: e309 3b3c 2494 16bc 0ee9 2f3d 4999 453d
000001e0: e89c 19bd a5c1 4ebc f53f 1d3d 2fa1 063d
000001f0: e527 34bc 8b2d ab3d fb2e 81bc 5d74 323c
00000200: 1ff9 863c 76d9 363d 151b 363c ac43 b83d
00000210: bb92 973d e071 d33c e19a 6d3c a77c f5bc
00000220: a067 1ebc a703 a03b bd50 f3bc eea0 9b3c
00000230: 6549 0e3d c6ab 833c a48b 943a 83d3 2dbd
00000240: dd09 033d f373 013d 3221 a43c 0e47 bfbc
00000250: 7f5c 0f3d a877 b53b 4564 453c 53ff 8e3c
00000260: a946 283e 1925 ca3b 9249 243d 13b0 06be
00000270: b004 5a3d 14dd a3bd 1b88 b83d a048 5d3c
00000280: e3bd a7bd 9a5d 9cbc d760 18be 2dd7 663c
00000290: 462c 013e 7755 d53c 273c a53c b27d f53d
000002a0: 9c7f 4dbc 67a9 a8bc 28d8 a33d c1a1 9abb
000002b0: 35bd a9bd cb80 bf3d 26e3 d3bc 1ff2 283a
000002c0: 3445 513c 726c 2e3c 65b9 b93b 1d57 40bc
000002d0: 29e8 543d 5ef9 92bc cf5e 133e 9085 883d
000002e0: 3172 4abd 5946 8f3c 835b 75bd a870 803c
000002f0: c79e 70bc 67ab 773d 96ea 973d 729b 96bd
00000300: e6d3 c1bb b8ea 8bbd f754 8c3b 5930 11bc
00000310: 8bcd 41bd 1a85 ffbc fb93 853d 9ddd 99bd
00000320: 530f 9a3d 1444 3dbc 7984 b7bd 8885 a73d
00000330: b58a 40bc 6663 803c 677e 803d d5c1 0fbd
00000340: 927b 623d 22cc 4d3d 09b6 b23c 3376 bcbd
00000350: 24c5 b33c c245 88bc 7601 313b fd4b 68bc
00000360: 0cff 4a3d 2a49 28ba fc23 d4ba 4ca2 d23c
00000370: 75e3 0e3e 853c 683d 36fa 42ba 636d d23d
00000380: 9caa d7bc 2ef2 e93c f2ae 5b3d f183 a73b
00000390: aaf6 d6bc e4c6 2fbc 8a6c 28be 8be7 d7bd
000003a0: 24d6 87bd 602c c9bb 4e53 1c3e 176e 3fbd
000003b0: 017a 7c3c 5394 d03d 52c0 07be 1532 d5bb
000003c0: 595a 16bd 9828 35bd cd3a edbd 8938 84ba
000003d0: 384b a03c a001 c1bc 5fc6 913d be94 6ebb
000003e0: 0c0a a4bd 4dd1 b23d 606a 36bc 7f08 c9bd
000003f0: f288 30bc 3021 cebd f334 d63c fe0e 91bc

1.df.df.fc1.weight_block_2.bias1 f4 [2, 76]
0.10547207 0.056217205 0.005607116 0.16017425 0.037348904 0.086731166 0.091578245 -0.013801185
-0.023931233 0.11724004 0.08698833 -0.22641389 -0.06905828 0.029344972 0.1848947 0.043112792
0.034783676 -0.034164876 0.07030306 -0.17035921 0.12197928 0.09618663 0.034208465 0.11226312
0.15195577 0.031872027 -0.0045139208 -0.029005213 0.00773514 0.021651844 -0.10083598 0.24393362
-0.031401623 0.05267957 0.056542862 -0.027952012 0.059328835 0.069316156 0.105422325 0.017800834
0.0267916 0.07743171 -0.030194785 0.04274801 -0.07209083 0.106087625 0.08250862 -0.007139936
-0.37863135 0.16858333 -0.05847973 -0.12073838 0.008706616 -0.00789815 0.12324992 -0.0011401677
0.17264193 -0.13568054 -0.053132582 -0.11953314 0.00095276284 0.020984858 0.26096097 0.039855648
-0.045270316 -0.0064895563 0.0050035734 -0.22791117 0.15479593 0.09253983 -0.12635086 0.040955774
0.007103687 -0.078875706 0.10796114 -0.09215674 0.035991684 0.013886369 0.049065605 0.019311832
-0.12475943 0.008481196 -0.18593207 -0.0012535115 -0.07946841 -0.050792105 0.04341206 -0.16344425
0.014031415 -0.060129505 0.012874215 0.05271905 0.028028056 0.028311525 0.035464656 -0.06261771
-0.03671038 0.036144473 0.0083573405 0.0060126767 -0.05549761 0.011049148 -0.07062648 -0.03243848
-0.14578873 -0.051207095 0.013890344 0.07679146 -0.099204905 -0.080140404 0.046220187 -0.11449933
0.015723055 -0.07248915 0.0068499395 0.005680842 -0.033447213 0.0030124523 0.06559321 -0.08598583
-0.07646966 -0.20378684 -0.12023262 0.050310448 -0.082239285 0.05544086 -0.14447154 0.016475338
0.0030910498 -0.08532573 0.038753293 -0.05446126 -0.12316363 -0.15438263 -0.07868562 -0.10287391
-0.0765796 0.018053092 -0.11801569 -0.022376813 -0.16065599 0.040671807 -0.020721463 -0.085608825
-0.017422518 0.004076831 -0.15110032 -0.10621649 0.038397133 -0.007248176 -0.04673229 -0.056711335
00000000: be01 d83d 0344 663d e6bb b73b b804 243e
00000010: 2afb 183d 1ca0 b13d 608d bb3d 5e1e 62bc
00000020: 6f0b c4bc 8c1b f03d f026 b23d 0bd9 67be
00000030: 6d6e 8dbd de64 f03c 0955 3d3e 0a97 303d
00000040: 5479 0e3d 78f0 0bbd 0dfb 8f3d a572 2ebe
00000050: 46d0 f93d 7ffd c43d 2d1e 0c3d 35ea e53d
00000060: 4b9a 1b3e 3e8c 023d 83e9 93bb 579c edbc
00000070: 0f77 fd3b 355f b13c 1883 cebd bcc9 793e
00000080: fd9e 00bd 88c6 573d 7d99 673d 9efb e4bc
00000090: cb02 733d a1f5 8d3d a9e7 d73d 0ed3 913c
000000a0: 0f7a db3c 8494 9e3d 0e5b f7bc 8a18 2f3d
000000b0: 5ba4 93bd 7844 d93d 48fa a83d 20f6 e9bb
000000c0: f8db c1be 1ca1 2c3e 7188 6fbd af45 f7bd
000000d0: 32a6 0e3c 3e67 01bc 746a fc3d ae71 95ba
000000e0: 0cc9 303e d7ef 0abe 8da1 59bd cacd f4bd
000000f0: d5c2 793a 70e8 ab3c ad9c 853e ad3f 233d
00000100: 5e6d 39bd 58a6 d4bb 04f5 a33b 8c61 69be
00000110: d382 1e3e 8685 bd3d 1f62 01be 3ec1 273d
00000120: 0cc6 e83b 9689 a1bd bb1a dd3d acbc bcbd
00000130: 046c 133d a783 633c 04f9 483d d933 9e3c
00000140: df81 ffbd b7f4 0a3c fa64 3ebe de4c a4ba
00000150: 55c0 a2bd 620b 50bd d8d0 313d ee5d 27be
00000160: 05e4 653c 5b4a 76bd 5fee 523c eeef 573d
00000170: 189b e53c 92ed e73c 6343 113d b73d 80bd
00000180: a05d 16bd 3a0c 143d 3aed 083c fd05 c53b
00000190: 7651 63bd 7c07 353c 9ea4 90bd 36de 04bd
000001a0: a449 15be 88be 51bd 5394 633c d744 9d3d
000001b0: f12b cbbd a720 a4bd 6151 3d3d a07e eabd
000001c0: a3cd 803c 3175 94bd 7575 e03b 5b26 ba3b
000001d0: f2ff 08bd 906c 453b bc55 863d 5719 b0bd
000001e0: 209c 9cbd 7fad 50be 853c f6bd 5412 4e3d
000001f0: 126d a8bd f515 633d 59f0 13be 4af7 863c
00000200: 3693 4a3b 42bf aebd c6bb 1e3d c512 5fbd
00000210: 373d fcbd 7b16 1ebe ed25 a1bd 8eaf d2bd
00000220: c4d5 9cbd 14e4 933c 36b2 f1bd 944f b7bc
00000230: 0183 24be 7b97 263d 0fc0 a9bc ae53 afbd
00000240: abb9 8ebc f096 853b 0bba 1abe 0888 d9bd
00000250: 5046 1d3d 1b82 edbb 5c6a 3fbd 254a 68bd

1.df.df.fc1.concat_real_layer_1.weight f4 [76, 152]
0.039774828 0.019049374 0.06525769 -0.03880634 -0.04429218 0.03682779 -0.07868896 0.068459965
0.022347566 -0.02238206 0.010255659 -0.026747832 0.170055 0.0038411408 0.001374976 0.053748358
0.03220487 -0.005490442 0.06121042 -0.057125986 0.0017267537 0.042119693 0.03823075 -0.032001
-0.104082994 0.05174134 0.035945896 0.04464731 -0.006146436 0.027981782 -0.09490251 0.04640667
-0.041978985 -0.033263218 0.12053178 -0.08030757 -0.1377337 0.011753032 0.006083093 0.028008107
-0.06303365 0.027428217 0.019732496 0.046408918 -0.06334882 -0.05481774 -0.0545576 0.06763322
-0.052410297 0.036794167 -0.04067894 -0.09091313 0.02282801 -0.010410974 -0.006520097 -0.11878124
0.006732492 -0.14777958 0.0804942 -0.017216902 -0.0052078688 -0.14342041 0.012962909 -0.03677738
-0.046218503 -0.008521665 0.102543 -0.0012097391 -0.021666447 0.027940812 0.0041417526 -0.029157856
-0.00029403597 -0.022690257 -0.015923925 -0.055602938 0.057178862 0.08457457 0.08015615 -0.038349394
0.13319558 -0.02608374 -0.029857619 -0.019059042 0.06218229 0.009308467 -0.11449026 -0.09500406
-0.09076697 -0.009107507 -0.102053285 0.13056684 -0.104846805 -0.020471765 0.10500347 -0.018329661
0.04002549 -0.014066779 -0.008015002 0.07376669 0.017987484 0.03262703 -0.024970686 0.072972
0.10361676 -0.019112837 0.07910362 0.11695533 0.00089300255 -0.1030063 -0.15763734 -0.030613977
0.033472773 0.04317164 0.04860879 -0.09636125 0.03335658 -0.01817464 -0.025262546 -0.005526762
0.1314085 -0.042023223 0.05280223 -0.08472047 -0.041490644 -0.13674498 -0.00540106 -0.05756258
-0.11770754 -0.05694988 -0.031027095 0.0044748657 -0.06143982 -0.044859618 0.061072268 -0.03526791
-0.02967997 -0.009745992 0.096047655 -0.14493631 0.07287643 0.06383015 0.07999063 0.12448073
-0.020752536 -0.08029716 0.047604024 -0.036354695 0.023764122 -0.02559594 0.15958762 -0.062431242
0.053083874 0.041229773 -0.093151815 -0.122576006 0.023562219 -0.14505808 -0.16125913 -0.029272329
-0.051295564 -0.11262396 0.16466558 -0.062953204 -0.21143027 -0.12820362 0.05999644 -0.1826082
0.07005991 0.14009893 -0.037116677 0.08591744 -0.14368905 -0.008698837 0.055124562 0.027170215
-0.10470402 -0.18470667 0.048671037 -0.013427084 0.0398208 -0.07015448 0.024726784 -0.078884125
0.099216074 -0.15145029 0.08556244 0.040974982 0.033213247 -0.22282451 0.0955805 -0.1603383
-0.034311105 0.020094529 -0.10919698 3.9751776e-05 -0.0039077257 0.0074916543 -0.18193553 -0.13023956
-0.005584333 0.023954907 0.024915397 0.025745612 0.106451064 0.09703876 -0.033369906 0.08725058
-0.17549883 0.05385738 -0.16266309 0.050551552 0.18797965 0.11641838 -0.05764664 -0.082054906
-0.033817936 -0.08831975 -0.035866916 -0.13513644 -0.15728496 -0.04676077 -0.09904185 0.017066402
0.030598652 -0.13421805 -0.02547481 -0.09702782 -0.061896317 -0.19908065 -0.13192521 -0.19561344
-0.16690265 -0.02004291 -0.008377137 -0.1886393 -0.04733532 0.1381385 -0.019188002 -0.06922157
0.046215452 -0.23726207 0.07158446 -0.0059318915 -0.06344486 0.018728876 0.009152314 -0.09999693
-0.14169486 0.0432214 -0.19389874 -0.06889885 -0.17375225 -0.056878913 0.038642537 -0.21680379
00000000: eeea 223d 6f0d 9c3c d3a5 853d 66f3 1ebd
00000010: b86b 35bd bdd8 163d ad27 a1bd bd34 8c3d
00000020: 3e12 b73c 955a b7bc 5a07 283c 451e dbbc
00000030: e622 2e3e a6bb 7b3b 8a38 b43a 3d27 5c3d
00000040: 41e9 033d 2ae9 b3bb c7b7 7a3d f0fc 69bd
00000050: 3d54 e23a b385 2c3d d997 1c3d 7b13 03bd
00000060: 7729 d5bd baee 533d 013c 133d 19e0 363d
00000070: 0b68 c9bb 0d3a e53c 3f5c c2bd ec14 3e3d
00000080: 28f2 2bbd 033f 08bd 5ed9 f63d 4c78 a4bd
00000090: 100a 0dbe ca8f 403c af54 c73b 4271 e53c
000000a0: c917 81bd 24b1 e03c 0ba6 a13c 4717 3e3d
000000b0: 07bd 81bd 9188 60bd ca77 5fbd 4983 8a3d
000000c0: 2eac 56bd 7bb5 163d f69e 26bd aa30 babd
000000d0: cf01 bb3c ca92 2abc 8aa6 d5bb 9443 f3bd
000000e0: 3c9c dc3b 8853 17be 25da a43d 760a 8dbc
000000f0: c5a6 aabb cddc 12be 6262 543c e1a3 16bd
00000100: 9d4f 3dbd 749e 0bbc 1002 d23d 1c90 9eba
00000110: d57d b1bc 21e4 e43c 8ab7 873b 75dc eebc
00000120: d728 9ab9 ebe0 b9bc e472 82bc e8bf 63bd
00000130: 6234 6a3d 6f35 ad3d e828 a43d 4114 1dbd
00000140: 6c64 083e 91ad d5bc f797 f4bc b521 9cbc
00000150: dbb2 7e3d 8a82 183c df79 eabd 7d91 c2bd
00000160: 08e4 b9bd a737 15bc 5001 d1bd 50b3 053e
00000170: ecb9 d6bd 67b4 a7bc 0f0c d73d 1628 96bc
00000180: c5f1 233d 5978 66bc 5b51 03bc fe12 973d
00000190: 7d5a 933c eca3 053d 538f ccbc 5872 953d
000001a0: 0635 d43d 8692 9cbc 1401 a23d 4786 ef3d
000001b0: 6318 6a3a f8f4 d2bd af6b 21be 2aca fabc
000001c0: bf1a 093d bfd4 303d 031a 473d 0c59 c5bd
000001d0: e9a0 083d fce2 94bc 66f3 cebc d719 b5bb
000001e0: f38f 063e 8b20 2cbd 2747 583d ed81 adbd
000001f0: 18f2 29bd e006 0cbe 60fb b0bb bdc6 6bbd
00000200: a710 f1bd 4744 69bd 892c febc e5a1 923b
00000210: 52a8 7bbd b8be 37bd ea26 7a3d 1675 10bd
00000220: 6923 f3bc a7ad 1fbc a2b4 c43d 2f6a 14be
00000230: 3d40 953d 62b9 823d 21d2 a33d c1ef fe3d
00000240: 3901 aabc d672 a4bd 70fc 423d a9e8 14bd
00000250: faac c23c 94ae d1bc f06a 233e e7b7 7fbd
00000260: 7a6e 593d 8de0 283d 61c6 bebd 2109 fbbd
00000270: 8e05 c13c 1b8a 14be 1d21 25be 86cc efbc
00000280: 4c1b 52bd 64a7 e6bd 189e 283e 9ced 80bd
00000290: 2d81 58be cf47 03be d4be 753d a5fd 3abe
000002a0: 927b 8f3d 1876 0f3e a807 18bd 7cf5 af3d
000002b0: 3923 13be 9185 0ebc 4bca 613d 1294 de3c
000002c0: 106f d6bd bf23 3dbe 485b 473d 46fd 5bbc
000002d0: 231b 233d 27ad 8fbd d38f ca3c 008e a1bd
000002e0: cc31 cb3d c915 1bbe 5c3b af3d 62d5 273d
000002f0: 9d0a 083d 1c2c 64be b6bf c33d b92f 24be
00000300: cd89 0cbd 489d a43c aba2 dfbd 25bb 2638
00000310: 610c 80bb 8d7c f53b 4f4d 3abe 855d 05be
00000320: c8fc b6bb 153d c43c 601b cc3c 76e8 d23c
00000330: 0403 da3d 42bc c63d e2ae 08bd 6fb0 b23d
00000340: f7b5 33be 8e99 5c3d 2791 26be 250f 4f3d
00000350: bd7d 403e c26c ee3d e21e 6cbd 670c a8bd
00000360: ad84 0abd fce0 b4bd 30e9 12bd 3561 0abe
00000370: 4f0f 21be 3988 3fbd 74d6 cabd d7ce 8b3c
00000380: 06aa fa3c 7570 09be 8cb0 d0bc 86b6 c6bd
00000390: fe86 7dbd ccdb 4bbe 6717 07be e44e 48be
000003a0: 87e8 2abe 0731 a4bc 4240 09bc a92a 41be
000003b0: aee2 41bd 2e74 0d3e 2830 9dbc 0ac4 8dbd
000003c0: 6a4c 3d3d d4f4 72be e09a 923d 5060 c2bb
000003d0: 61ef 81bd 4d6d 993c 96f3 153c 31cb ccbd
000003e0: 7518 11be ec08 313d 648d 46be d71a 8dbd
000003f0: 1cec 31be ddf9 68bd a347 1e3d d001 5ebe

1.df.df.fc1.concat_real_layer_1.bias f4 [76]
-0.058117867 -0.069032766 -0.0054084845 -0.042256597 0.0027881481 -0.055554796 0.025762001 -0.043022946
0.0206528 -0.04475865 -0.032824643 -0.11956171 -0.039934255 -0.08027283 -0.010570706 -0.0691671
-0.04377295 -0.05051061 -0.0523716 -0.074300274 -0.02050042 -0.13917215 -0.0026616843 -0.0039029496
-0.052707855 0.04860303 0.047101032 0.068827905 -0.058546435 0.007458972 -0.2810129 0.021503305
-0.30690128 0.042601123 -0.09717882 -0.16743326 -0.061525147 0.011506357 -0.17735067 -0.0042817746
-0.07665919 0.07739329 0.021251978 -0.07408948 -0.10619248 -0.067914166 -0.19215043 -0.09639423
-0.1931885 0.013546422 0.03244993 -0.017516488 -0.07774695 0.026678156 -0.01946401 0.02786725
0.024211805 -0.0069786874 -0.08679653 0.010073529 -0.06977003 -0.1154525 0.03280448 -0.24495976
-0.12654667 0.08076256 0.03894785 -0.017721744 0.060251713 -0.06557252 -0.08100419 -0.022080587
-0.14853598 -0.028845586 -0.20623314 -0.30111504
00000000: 000d 6ebd 0d61 8dbd a839 b1bb 4115 2dbd
00000010: 5db9 363b 6d8d 63bd d50a d33c d438 30bd
00000020: 1030 a93c d954 37bd 2273 06bd c5dc f4bd
00000030: 1a92 23bd 1566 a4bd c130 2dbc 7ba7 8dbd
00000040: 444b 33bd 37e4 4ebd 9a83 56bd be2a 98bd
00000050: 7ff0 a7bc 2583 0ebe a76f 2ebb a1c8 7fbb
00000060: 31e4 57bd f913 473d 03ed 403d a5f5 8c3d
00000070: 63ce 6fbd 646a f43b ece0 8fbe b327 b03c
00000080: 2a22 9dbe 847e 2e3d b005 c7bd a073 2bbe
00000090: cb01 7cbd 2985 3c3c 6a9b 35be 214e 8cbb
000000a0: 7eff 9cbd 6080 9e3d a118 ae3c 3abc 97bd
000000b0: 717b d9bd 9516 8bbd 15c3 44be 576a c5bd
000000c0: 35d3 45be d0f1 5d3c 38ea 043d bd7e 8fbc
000000d0: cb39 9fbd 268c da3c fd72 9fbc dc49 e43c
000000e0: d657 c63c 79ad e4bb 61c2 b1bd 710b 253c
000000f0: 97e3 8ebd 5c72 ecbd fe5d 063d bbd6 7abe
00000100: 7395 01be d766 a53d c887 1f3d 312d 91bc
00000110: 80ca 763d e34a 86bd 86e5 a5bd 59e2 b4bc
00000120: d119 18be 944d ecbc c82e 53be c02b 9abe

1.df.df.fc1.concat_imag_layer_1.weight f4 [76, 152]
0.14537965 -0.18802562 0.07342889 -0.12072208 -0.08326229 0.0015943559 -0.052709546 -0.05132069
0.12901433 0.078736514 0.08089025 -0.06552802 -0.017647218 0.002656696 -0.10747334 -0.1257548
-0.025660658 0.01379306 -0.008380417 -0.06565884 0.14373054 -0.05189559 -0.120041534 0.13722304
-0.08841697 -0.0943853 0.12096842 -0.017891617 0.045801107 0.0034751357 -0.06103642 0.008513785
-0.08343995 0.10371584 0.0030181734 -0.08561748 -0.06447407 0.17396025 -0.21715014 -0.110866345
-0.04807116 -0.11015119 0.007251669 0.09301916 -0.096825585 -0.0605126 0.06986307 -0.03112446
0.06917235 0.012926198 -0.061925482 -0.071817525 -0.036463033 -0.06257666 -0.1765029 -0.17674959
-0.07074153 -0.13792373 -0.088275224 0.13173406 0.07931646 -0.07693595 0.12403032 -0.10282467
-0.037957978 -0.13778709 -0.05217798 -0.04685663 -0.061689626 -0.081588954 -0.08501466 0.022176048
-0.09144326 0.057052176 0.10931168 0.10472422 0.00014017192 0.11996109 0.19527903 0.021704612
-0.025970284 -0.01035932 0.025129704 -0.012609393 -0.06305715 0.04612174 -0.05636624 -0.049877916
0.09848935 0.021368258 -0.048305023 0.03822144 -0.15881638 -0.074055634 0.087494016 -0.05948215
0.04443691 -0.09198156 0.06480084 0.10521357 0.073149815 0.13383566 0.01728277 0.1550424
-0.041787524 -0.056530975 0.0114418045 0.015656536 0.07367615 -0.10454236 -0.10439621 0.043580983
0.03572771 -0.00806177 0.09510903 -0.119517 0.036838688 -0.001299244 -0.117478065 0.040865008
0.17730834 -0.012228338 -0.15710999 0.0066816816 -0.107826956 -0.15283057 0.1349807 0.09330144
-0.04184226 -0.08889463 -0.013581228 -0.097208895 -0.098046646 0.010272016 -0.056887455 0.12966064
0.009827852 -0.0968646 -0.009938124 -0.08338093 0.015280119 0.16253836 -0.017307164 0.10190008
-0.019524176 0.035629623 0.012797554 0.1172789 -0.110428564 -0.077324145 -0.06553566 -0.07318636
-0.022517063 -0.10453748 -0.051023725 0.037710153 0.115980275 -0.09118297 -0.11711467 0.17594062
0.32662022 -0.16396977 0.24206868 -0.025080873 -0.13186862 -0.12329902 0.26840168 -0.07185265
0.026065348 0.09973975 -0.16384651 -0.07099347 -0.056437 0.0632614 0.059729338 -0.15127148
-0.10973765 0.1174014 0.0033456816 0.29569724 -0.026901206 -0.066560715 0.032671176 0.043845676
0.1460456 -0.11497338 0.1652368 -0.0112276655 0.1049743 -0.08823214 0.15956573 -0.0077090706
0.027131232 -0.034680292 -0.23828891 -0.054285064 -0.007679819 0.019138115 -0.20097287 0.0074797566
0.0751557 -0.076282464 -0.09546813 0.14273033 0.10035507 0.30234158 0.076652765 0.02693325
-0.10796854 -0.10970059 -0.096557856 -0.092827015 -0.062665686 -0.07592641 0.0745441 -0.021094458
-0.08204698 0.054331142 -0.03771934 0.01692096 0.031101067 0.08434588 0.13989651 -0.038870152
-0.014198368 -0.07968257 -0.04308921 -0.013580146 0.051732358 -0.16178635 -0.10065806 0.041072372
0.05698378 0.044053756 -0.16912669 -0.19332169 -0.04299563 0.19241656 -0.09942568 0.23924917
-0.09922311 -0.06580358 -0.15080255 0.0066584437 0.012680017 0.09363341 -0.06062964 0.08519159
0.02694829 0.23407733 -0.16460669 -0.077180386 -0.004588221 0.01788767 0.059101038 -0.22310394
00000000: 67de 143e ca89 40be e361 963d 233d f7bd
00000010: 6b85 aabd b5f9 d03a f7e5 57bd a535 52bd
00000020: 551c 043e 9c40 a13d caa9 a53d 8e33 86bd
00000030: e690 90bc f61b 2e3b fc1a dcbd dec5 00be
00000040: 4d36 d2bc 49fc 613c 044e 09bc 2478 86bd
00000050: 192e 133e 7890 54bd 56d8 f5bd 3284 0c3e
00000060: f513 b5bd 154d c1bd 4abe f73d 7191 92bc
00000070: f199 3b3d 1abf 633b 5301 7abd 677d 0b3c
00000080: 91e2 aabd f868 d43d 8ccc 453b 3858 afbd
00000090: fb0a 84bd a322 323e 9b5c 5ebe e50d e3bd
000000a0: 44e6 44bd f296 e1bd 699f ed3b d480 be3d
000000b0: 7e4c c6bd 0fdc 77bd 5f14 8f3d b9f8 febc
000000c0: 3caa 8d3d 67c8 533c 93a5 7dbd 1115 93bd
000000d0: 435a 15bd 3128 80bd 2dbd 34be d8fd 34be
000000e0: efe0 90bd e13b 0dbe a4c9 b4bd 4be5 063e
000000f0: ab70 a23d 9890 9dbd 9c03 fe3d be95 d2bd
00000100: d379 1bbd 0f18 0dbe 94b8 55bd bdec 3fbd
00000110: 43ae 7cbd 1c18 a7bd 2b1c aebd 8baa b53c
00000120: 9b46 bbbd 8baf 693d cdde df3d a779 d63d
00000130: 1dfb 1239 29ae f53d 3af7 473e dfcd b13c
00000140: a2bf d4bc 23ba 29bc cfdc cd3c a197 4ebc
00000150: 1b24 81bd 26ea 3c3d 49e0 66bd c94c 4cbd
00000160: c9b4 c93d 7c0c af3c 7ddb 45bd 168e 1c3d
00000170: c3a0 22be 7baa 97bd 1030 b33d 8ea3 73bd
00000180: 7a03 363d d460 bcbd 4eb6 843d 367a d73d
00000190: 92cf 953d 370c 093e 9894 8d3c 6fc3 1e3e
000001a0: 6529 2bbd 068d 67bd 6876 3b3c 2342 803c
000001b0: 85e3 963d 4e1a d6bd aecd d5bd f981 323d
000001c0: 3857 123d 8415 04bc 86c8 c23d 54c5 f4bd
000001d0: 2ae4 163d 654b aaba 5798 f0bd 1162 273d
000001e0: 5190 353e 5e59 48bc 71e1 20be 02f2 da3b
000001f0: 61d4 dcbd 9e7f 1cbe 6138 0a3e d314 bf3d
00000200: ca62 2bbd 630e b6bd cd83 5ebc 7515 c7bd
00000210: aecc c8bd f54b 283c d202 69bd c2c5 043e
00000220: 0005 213c f360 c6bd 83d3 22bc 9fc3 aabd
00000230: 7759 7a3c 7570 263e c1c7 8dbc fdb0 d03d
00000240: 2af1 9fbc 5ef0 113d d5ac 513c ec2f f03d
00000250: 5f28 e2bd 1f5c 9ebd 8f37 86bd bbe2 95bd
00000260: b475 b8bc bf17 d6bd 41fe 50bd f675 1a3d
00000270: 1187 ed3d 23be babd d1d9 efbd c729 343e
00000280: c43a a73e b1e7 27be dae0 773e 6776 cdbc
00000290: 9108 07be 3284 fcbd f26b 893e 7b27 93bd
000002a0: ff86 d53c 5b44 cc3d 61c7 27be 0665 91bd
000002b0: 7c2a 67bd 318f 813d c0a6 743d e9e6 1abe
000002c0: 22be e0bd 2570 f03d 3943 5b3b a165 973e
000002d0: eb5f dcbc fc50 88bd 36d2 053d 8697 333d
000002e0: fa8c 153e 2a77 ebbd d633 293e 3ef4 37bc
000002f0: c4fc d63d 0db3 b4bd 3365 233e 5f9c fcbb
00000300: 5142 de3c ec0c 0ebd 0202 74be 045a 5ebd
00000310: fea6 fbbb 89c7 9c3c d5cb 4dbe bf18 f53b
00000320: 3beb 993d fb39 9cbd cc84 c3bd e627 123e
00000330: f586 cd3d 84cc 9a3e 20fc 9c3d 1ea3 dc3c
00000340: 9c1e ddbd b4aa e0bd 20c0 c5bd 171c bebd
00000350: de56 80bd 4e7f 9bbd 94aa 983d 49ce acbc
00000360: 3f08 a8bd 558a 5e3d 987f 1abd d39d 8a3c
00000370: aac7 fe3c 88bd ac3d 0841 0f3e 4f36 1fbd
00000380: 46a0 68bc 9e30 a3bd 507e 30bd 437f 5ebc
00000390: 4fe5 533d 52ab 25be d025 cebd 813b 283d
000003a0: d367 693d b671 343d 8c2f 2dbe 1ff6 45be
000003b0: 301c 30bd d908 453e b19f cbbd bcfd 743e
000003c0: 7c35 cbbd 07c4 86bd fc6b 1abe 132f da3b
000003d0: d9bf 4f3c e0c2 bf3d c956 78bd ee78 ae3d
000003e0: a9c2 dc3c f8b1 6f3e a88e 28be c010 9ebd
000003f0: ca58 96bb 2a89 923c ee13 723d 5c75 64be

1.df.df.fc1.concat_imag_layer_1.bias f4 [76]
0.052386522 0.056965314 0.031701 -0.033677626 -0.007268955 0.051121365 0.08998452 -0.00632122
-0.0077762944 0.12786932 -0.09128012 -0.027090125 -0.06884132 0.068494074 -0.14351256 -0.09783368
0.020391839 0.027143823 0.1260801 -0.052549932 0.019367812 -0.08163762 -0.046840414 -0.007151602
-0.10989828 0.002310455 0.056374762 -0.06336109 0.15167187 0.070747055 -0.025101772 0.0744946
-0.018185506 -0.047852803 0.0866818 0.03790017 0.110993974 -0.00041377477 0.105058044 -0.10172366
0.08424404 0.03267937 0.047277343 0.05486562 0.03320528 -0.040755164 -0.024729028 0.006937489
0.02750758 -0.06537722 -0.09713677 0.06939033 0.094773345 -0.038619984 0.14531124 0.016665423
-0.047216974 -0.11127912 -0.045812085 0.11229455 0.013201593 0.011342358 0.03344781 -0.004113048
0.026886202 0.044358104 0.052886892 -0.07127802 0.059274815 0.01712249 0.14943038 0.03855629
0.10431348 0.015371718 0.053009517 0.015855616
00000000: 4093 563d 7654 693d e8d8 013d 8df1 09bd
00000010: 6a30 eebb a364 513d ce49 b83d 3d22 cfbb
00000020: 49d0 febb 2df0 023e 12f1 babd 1cec ddbc
00000030: aefc 8cbd 9f46 8c3d f5f4 12be 065d c8bd
00000040: c90c a73c b95c de3c 241b 013e 993e 57bd
00000050: 3fa9 9e3c a031 a7bd bcdb 3fbd fc57 eabb
00000060: 5912 e1bd 016b 173b 39e9 663d 76c3 81bd
00000070: df4f 1b3e d5e3 903d 3ba2 cdbc a090 983d
00000080: c5f9 94bc 4d01 44bd 3a86 b13d 353d 1b3d
00000090: cf50 e33d e9ef d8b9 ac28 d73d 7f54 d0bd
000000a0: 2488 ac3d ceda 053d e3a5 413d c6ba 603d
000000b0: 4202 083d e3ee 26bd 8894 cabc e053 e33b
000000c0: 9457 e13c 7ee4 85bd a5ef c6bd 841c 8e3d
000000d0: 8718 c23d fd2f 1ebd 78cc 143e ed85 883c
000000e0: 9666 41bd 4fe6 e3bd 74a5 3bbd affa e53d
000000f0: 7f4b 583c 4cd5 393c 9200 093d bfc6 86bb
00000100: 7440 dc3c d8b0 353d ed9f 583d 36fa 91bd
00000110: 26ca 723d 7744 8c3c 4704 193e 33ed 1d3d
00000120: 4ea2 d53d a9d9 7b3c 8220 593d a3e3 813c

1.df.df.fc2.weight_block_1.weights1 f4 [2, 76, 76]
-0.088259764 0.01882595 -0.008976611 0.009485183 0.07435751 -0.027385509 0.07809662 0.00163518
0.038403776 -0.029921785 0.004278873 0.024164746 -0.02275784 0.045936737 0.029666282 0.08075799
-0.01169285 0.1155708 0.094565764 -0.08058343 -0.013506174 -0.057858463 0.017772818 0.014459191
0.08496694 -0.039163705 -0.059729006 0.10953575 -0.06633395 -0.100233205 -0.057923168 0.025364676
-0.083935454 0.062203042 -0.046308216 0.0132242115 -0.07967118 0.014993254 0.07587196 -0.08758145
-0.055197336 0.06274453 0.029127883 -0.054406177 0.07489459 0.046020985 0.086506195 -0.035687726
-0.05219283 -0.0055359816 -0.019425126 -0.0050133704 0.04622729 0.031683885 -0.07142428 0.10355111
-0.050624814 -0.041817755 0.060607746 -0.072651155 0.011884957 0.09497843 -0.06908763 -0.12908645
0.061733846 0.04694416 0.030376337 0.054679148 0.017129883 0.060135763 0.0988582 0.07119121
-0.025919423 0.037299737 0.027959827 -0.071032375 0.056815386 0.112981215 -0.056279454 0.15865448
0.056393784 -0.039362382 -0.038429048 -0.14941321 -0.022826409 0.1827867 0.036925443 -0.07655453
-0.06451819 -0.05818314 0.009533157 0.10277337 0.054079413 0.11387469 0.053475775 -0.07432236
-0.03873985 -0.022465652 0.013486014 0.2845348 -0.12744164 0.16348544 -0.0019739727 -0.06177017
-0.0015236821 0.036519304 0.065995246 0.055844713 0.01226503 -0.062085725 -0.08194954 0.03967399
-0.08250613 0.11746847 0.07249914 -0.057564266 -0.049150974 0.0993257 -0.011919638 -0.060232256
0.041991316 0.05160401 -0.1273301 -0.0764726 0.029272353 -0.0481922 -0.10040047 -0.098610036
0.22373146 0.1429461 0.011896977 -0.08267559 0.010458257 0.020423658 -0.0702532 -0.17927209
0.026314884 -0.008443908 -0.08479535 -0.069344915 0.07352729 -0.15250577 0.034949593 0.1256978
-0.06498267 0.028848084 0.062003832 -0.049421366 0.07084944 0.009563907 0.033787232 0.076448664
0.04439642 -0.018709445 0.015873216 0.073838085 0.103223726 -0.041647892 0.24245755 0.10816003
0.12829843 0.02035501 -0.13582869 0.05546321 0.050961155 -0.09128941 0.09195154 0.03157907
0.16800423 0.08954685 0.04178589 0.19150154 -0.08457939 -0.11341117 0.009940593 -0.07641273
0.05789792 -0.03539201 -0.0951188 -0.06542215 -0.016802656 -0.045151044 0.2532904 -0.020731147
-0.020101275 -0.046072386 -0.15913229 0.06886574 0.09527302 -0.030713558 0.016844727 0.008157648
0.036738448 -0.021323815 -0.06348693 -0.043748915 -0.09800084 -0.14230926 0.030661995 0.1334761
0.26787883 -0.022949483 -0.009990962 0.17499855 0.048008565 -0.04832149 0.053898532 0.14011155
0.16021378 0.08284188 0.027318243 -0.05286579 0.042195458 0.054869406 0.10233201 -0.06989254
0.045366727 0.082255594 0.10374689 -0.018569402 0.15972532 0.030316262 0.20004345 0.060419463
0.08609619 0.041677404 0.059164993 -0.10314842 0.10971432 -0.043329217 0.08898799 -0.016297286
0.00830876 0.04297011 -0.05196752 -0.039410386 0.08240668 0.039794214 0.0709691 -0.011950004
-0.12019574 0.019192979 -0.031575713 -0.026151545 0.08943489 -0.13586496 -0.017893491 0.097220406
0.065856025 0.08743867 0.015469449 -0.11342238 -0.03402653 -0.009124797 0.18238598 -0.14395373
00000000: 89c1 b4bd e138 9a3c a312 13bc be67 1b3c
00000010: c048 983d 9357 e0bc 1ff1 9f3d 8953 d63a
00000020: 474d 1d3d 881e f5bc ca35 8c3b 25f5 c53c
00000030: a66e babc 2928 3c3d b406 f33c 7264 a53d
00000040: 5e93 3fbc 62b0 ec3d b2ab c13d ed08 a5bd
00000050: 0049 5dbc fffc 6cbd 4d98 913c 3ee6 6c3c
00000060: 2603 ae3d 1f6a 20bd 67a6 74bd 4754 e03d
00000070: 18da 87bd 1147 cdbd d840 6dbd 95c9 cf3c
00000080: 5ae6 abbd 9ec8 7e3d afad 3dbd 5daa 583c
00000090: a52a a3bd 44a6 753c c262 9b3d e75d b3bd
000000a0: 9a16 62bd 3480 803d 999d ee3c 03d9 5ebd
000000b0: 5662 993d 8080 3c3d 292a b13d 4b2d 12bd
000000c0: 26c8 55bd 2e67 b5bb 7121 9fbc 3347 a4bb
000000d0: d458 3d3d f6c6 013d e546 92bd 9b12 d43d
000000e0: f75b 4fbd 1849 2bbd d43f 783d 21ca 94bd
000000f0: 1fb9 423c 0d84 c23d d17d 8dbd 3d2f 04be
00000100: a1dc 7c3d 8548 403d ccd7 f83c 3ef7 5f3d
00000110: f853 8c3c eb50 763d 2b76 ca3d b2cc 913d
00000120: f854 d4bc 9cc7 183d 020c e53c 6c79 91bd
00000130: 40b7 683d b262 e73d 4985 66bd 5276 223e
00000140: 2bfd 663d 733a 21bd c767 1dbd c7ff 18be
00000150: 73fe babc 702c 3b3e 223f 173d 9fc8 9cbd
00000160: 1d22 84bd 7251 6ebd f530 1c3c d87a d23d
00000170: 6082 5d3d 2237 e93d 6a09 5b3d 5236 98bd
00000180: adad 1ebd e309 b8bc 71f4 5c3c 8cae 913e
00000190: 1080 02be ba68 273e c45d 01bb b802 7dbd
000001a0: 4ab6 c7ba 4495 153d 8428 873d 6dbd 643d
000001b0: 44f3 483c 9a4d 7ebd 29d5 a7bd 3281 223d
000001c0: f9f8 a8bd 4f93 f03d 6e7a 943d 82c8 6bbd
000001d0: 8852 49bd 466b cb3d 964a 43bc 19b6 76bd
000001e0: 16ff 2b3d ba5e 533d d262 02be ab9d 9cbd
000001f0: 93cc ef3c 2f65 45bd c39e cdbd 0ff4 c9bd
00000200: dc19 653e 7660 123e 8aeb 423c d251 a9bd
00000210: 1c59 2b3c 844f a73c e9e0 8fbd 1a93 37be
00000220: 5092 d73c 5158 0abc 2fa9 adbd b504 8ebd
00000230: 7a95 963d 792a 1cbe 4e27 0f3d edb6 003e
00000240: a215 85bd d152 ec3c bbf7 7d3d 0f6e 4abd
00000250: 8319 913d efb1 1c3c 7b64 0a3d 1e91 9c3d
00000260: 05d9 353d 8d44 99bc 8c08 823c 6c38 973d
00000270: f666 d33d fb96 2abd cb46 783e 0183 dd3d
00000280: aa60 033e 8dbf a63c ad16 0bbe 642d 633d
00000290: a5bc 503d f1f5 babd 1751 bc3d 0e59 013d
000002a0: 4d09 2c3e 5764 b73d ae27 2b3d fb18 443e
000002b0: f637 adbd 1e44 e8bd dedd 223c 477e 9cbd
000002c0: 5f26 6d3d 36f7 10bd a5cd c2bd 0cfc 85bd
000002d0: b9a5 89bc 4df0 38bd 48af 813e 5ed4 a9bc
000002e0: 6eab a4bc 66b6 3cbd 93f3 22be 7b09 8d3d
000002f0: 801e c33d 009b fbbc f4fd 893c a8a7 053c
00000300: 0e7b 163d 48af aebc 7005 82bd 1032 33bd
00000310: aab4 c8bd 85b9 11be dd2e fb3c f5ad 083e
00000320: 6a27 893e 8e00 bcbc 22b1 23bc d232 333e
00000330: a1a4 443d c1ec 45bd b5c4 5c3d 6779 0f3e
00000340: 150f 243e 01a9 a93d 82ca df3c cc89 58bd
00000350: 25d5 2c3d bebe 603d 7293 d13d d223 8fbd
00000360: 76d2 393d 9f75 a83d 4079 d43d dc1e 98bc
00000370: 098f 233e cf59 f83c 31d8 4c3e 667a 773d
00000380: 3353 b03d edb5 2a3d fe56 723d 7b3f d3bd
00000390: e7b1 e03d fa79 31bd 563f b63d e381 85bc
000003a0: 7721 083c 6d01 303d e5db 54bd c96c 21bd
000003b0: d5c4 a83d 42ff 223d 3f58 913d f3c9 43bc
000003c0: 2f29 f6bd 983a 9d3c 8955 01bd c43b d6bc
000003d0: a429 b73d 2f20 0bbe 5f95 92bc 7e1b c73d
000003e0: 86df 863d 0c13 b33d 9273 7d3c fe49 e8bd
000003f0: 675f 0bbd 2c80 15bc 64c3 3a3e 9b68 13be

1.df.df.fc2.weight_block_1.bias1 f4 [2, 76]
0.017544795 0.06021995 -0.03228455 0.06514266 0.15983869 -0.0352064 -0.28090668 -0.018803686
0.042471386 -0.16012597 -0.009681773 -0.18892138 0.056701068 -0.086531766 -0.1970314 -0.08484498
-0.062476724 -0.040875707 -0.31408617 0.058842823 -0.19421843 -0.008253733 -0.19902657 -0.06084154
-0.17969026 0.11849918 -0.045714047 -0.09061202 0.21917616 -0.064627305 -0.032212492 -0.01777351
-0.00037127302 -0.2249934 -0.11279968 -0.134539 0.01801648 0.2653535 0.060410902 -0.04090355
0.07368668 -0.05492706 -0.011284512 0.113049224 -0.062200017 0.007523909 -0.029769378 -0.008370794
0.16012836 -0.03920497 -0.029380666 -0.18678822 -0.011997505 -0.018457592 0.011234131 -0.24402267
0.16328795 0.049868394 -0.01640757 -0.045251694 0.022158545 -0.2740875 0.0965477 0.027885329
0.014515077 0.01446158 0.07276777 -0.07774184 0.023155527 0.0032604733 -0.14597136 -0.21065049
-0.22083344 -0.1958167 0.048442706 -0.046829533 -0.03583096 -0.038746063 -0.03919738 -0.072761305
0.068527766 -0.028548153 -0.020371197 -0.0026933039 0.026623672 -0.08219509 -0.08730227 0.006082522
0.042274173 0.0057488433 -0.16812687 0.024418691 -0.0469365 -0.07079391 -0.085613854 -0.0961977
8.16781e-05 -0.12285325 -0.014804931 -0.11170612 -0.026975272 -0.029761445 -0.055233635 -0.21514224
-0.054060057 -0.08545497 -0.027512457 -0.016094122 0.023853082 0.04796987 -0.016608141 -0.06243582
0.032897815 0.023289932 -0.03502867 -0.006263536 -0.008485703 -0.04415733 -0.034490507 0.051131945
-0.06728905 -0.052012037 -0.09082542 -0.04489548 -0.07440347 -0.057508357 -0.060966477 -0.15260023
-0.120671414 -0.12273052 -0.101644546 0.032405462 -0.06744093 -0.026156168 -0.1047231 -0.04244861
-0.055145267 -0.13742273 -0.06382902 -0.04744315 -0.028672775 -0.021746935 -0.19966339 -0.09344935
-0.06371506 -0.06309809 -0.080167115 -0.039666772 -0.084290884 -0.0886684 -0.053329818 -0.09683942
00000000: 1aba 8f3c 32a9 763d ce3c 04bd 8469 853d
00000010: c1ac 233e 9634 10bd 00d3 8fbe 300a 9abc
00000020: 7af6 2d3d 10f8 23be 4da0 1ebc 9b74 41be
00000030: 613f 683d 9137 b1bd 99c2 49be 34c3 adbd
00000040: 98e7 7fbd 496d 27bd e7cf a0be 2c05 713d
00000050: 32e1 46be aa3a 07bc 9fcd 4bbe fb34 79bd
00000060: b900 38be b3af f23d a73e 3bbd cb92 b9bd
00000070: b76f 603e 525b 84bd 3ff1 03bd c199 91bc
00000080: 6ca7 c2b9 ab64 66be 8503 e7bd 97c4 09be
00000090: 4c97 933c 6adc 873e 6c71 773d 7b8a 27bd
000000a0: 0be9 963d 32fb 60bd ace2 38bc 5a86 e73d
000000b0: 72c5 7ebd 208b f63b e9de f3bc a825 09bc
000000c0: b0f8 233e 6495 20bd b9af f0bc 6945 3fbe
000000d0: 2f91 44bc 6034 97bc 5c0f 383c 14e1 79be
000000e0: f534 273e cd42 4c3d 2b69 86bc d759 39bd
000000f0: d685 b53c 3255 8cbe cdba c53d c66f e43c
00000100: a5d0 6d3c 43f0 6c3c 4507 953d 1d37 9fbd
00000110: a9b0 bd3c aaad 553b 8479 15be c3b4 57be
00000120: 2922 62be 2c84 48be dc6b 463d 53d0 3fbd
00000130: 7cc3 12bd 31b4 1ebd 6f8d 20bd e103 95bd
00000140: 4958 8c3d d1dd e9bc 7fe1 a6bc 2482 30bb
00000150: e319 da3c e655 a8bd 88cb b2bd e54f c73b
00000160: af27 2d3d cb60 bc3b 7329 2cbe b509 c83c
00000170: 7d40 40bd 66fc 90bd 5156 afbd 4d03 c5bd
00000180: 994a ab38 7c9a fbbd 6290 72bc 2ec6 e4bd
00000190: 3ffb dcbc 46ce f3bc aa3c 62bd 3f4e 5cbe
000001a0: 146e 5dbd 0403 afbd ce61 e1bc d2d7 83bc
000001b0: 8a67 c33c 0e7c 443d cc0d 88bc b4bc 7fbd
000001c0: dcbf 063d 87ca be3c 397a 0fbd 593e cdbb
000001d0: 9e07 0bbc 51de 34bd eb45 0dbd bb6f 513d
000001e0: d7ce 89bd 930a 55bd ae02 babd 53e4 37bd
000001f0: d960 98bd e28d 6bbd fcb7 79bd 3c43 1cbe
00000200: 9322 f7bd 245a fbbd 042b d0bd 97bb 043d
00000210: 781e 8abd 7645 d6bc 1179 d6bd 98de 2dbd
00000220: 01e0 61bd 8bb8 0cbe cab8 82bd c053 42bd
00000230: 2be3 eabc a126 b2bc 8f74 4cbe 5f62 bfbd
00000240: 0b7d 82bd 9239 81bd a82e a4bd a079 22bd
00000250: b3a0 acbd c797 b5bd 5e70 5abd bf53 c6bd
