model/9.pt (torch, 694923 bytes, 30 tensors)

1.df.df.fc1.weight_block_1.weights1 f4 [2, 76, 76]
000000 05 24 b9 3d 9e ae 65 bb 83 db 3f 3c 42 87 2a bc
       0.09040073 -0.0035046707 0.0117100505 -0.010408225
000010 a9 60 5a bd f8 ed c2 3c 13 77 2e 3c fd 82 c9 3d
       -0.05331484 0.023795113 0.010648507 0.09839437
000020 79 c6 45 3d de 78 3b 3b a6 69 68 3c ab 33 86 bd
       0.04828498 0.0028605978 0.014185345 -0.06552824
000030 24 3a a7 bc a0 71 81 3b b6 92 00 3d 47 26 5f 3d
       -0.020413466 0.0039503127 0.031389914 0.054479863
000040 25 f0 7e 3d 66 04 2f bc a1 f4 17 3d a4 d2 45 bb
       0.06224074 -0.010682201 0.03709853 -0.0030185366
000050 fd 3c 39 3c b9 c9 3f bd 29 34 00 bd 4a 7a 51 3d
       0.011306045 -0.046823237 -0.031299744 0.051142015
000060 16 30 83 3d 38 6d 33 3c fc ee 75 3d ef a1 41 3d
       0.06405656 0.010951333 0.060042366 0.047273573
000070 b8 3b 0b 3d e3 13 31 be fc 70 1e 3c 70 0c 96 3d
       0.0339925 -0.17292742 0.009670492 0.07326591
000080 5b e8 c7 3d be fd 96 bb 89 9f 8a 3c 6b 57 c6 3c
       0.09761115 -0.004607885 0.016921775 0.024211606
000090 7a 12 42 bd 57 b3 8f 3d 10 f3 98 3c 27 ef c2 bd
       -0.047380902 0.07016628 0.018670589 -0.09518271
0000a0 33 13 c7 bc 20 8b e4 bc 13 76 e8 ba dc bb c7 3d
       -0.024301147 -0.027898371 -0.0017735384 0.09752628
0000b0 65 52 a8 bd b1 8c 01 3c 17 49 aa 3c 73 85 a6 bd
       -0.082188405 0.007907079 0.020786805 -0.08130922
0000c0 b0 dc 1a 3d 21 b6 00 be 0a 01 5c bd 17 87 dc bc
       0.03780812 -0.12569477 -0.05371193 -0.026919885
0000d0 ae fc 9b bc 69 c5 36 3c 93 76 1b be d8 4f dd bc
       -0.019041386 0.011155465 -0.15181951 -0.027015612
0000e0 fa 2d 42 3d c5 b2 ad bd e7 20 55 bc 61 76 08 3d
       0.047407128 -0.08481363 -0.013008333 0.03331602
0000f0 ec bc 20 3d 47 c6 ec bc 8d b6 81 3d 00 98 28 bd
       0.03924267 -0.02890314 0.06333647 -0.041160583
000100 33 64 a6 3b 5d d4 6f bb 83 e1 28 3d 43 49 f7 bd
       0.0050778626 -0.0036595084 0.04123069 -0.120745204
000110 32 9a 0e 3d 3d 48 10 3d 20 9c e5 bc e7 2a af 3c
       0.03481502 0.03522514 -0.028028548 0.021382762
000120 38 b5 1b 3c 27 bc 15 3d ba 74 05 bc 0b ef 77 bd
       0.009503655 0.03655639 -0.008145506 -0.060530704
000130 c9 b3 fc bc d9 6d 99 3d 1f c7 6c 3c 67 ca 14 3d
       -0.030847447 0.07491655 0.014451771 0.03632584
000140 ef 1b 7b bc 7f 36 26 3c 10 a8 98 3b 66 97 86 bd
       -0.015326484 0.010144829 0.0046587065 -0.06571846
000150 ce e4 28 bc 31 a3 de 3b 7d 7a 46 3a 0b fb 57 3d
       -0.010308458 0.0067943563 0.0007571353 0.052729648
000160 00 dc 03 3c b1 d7 4b 3b 18 64 0e 3c 14 de 1c 3c
       0.008048058 0.0031103904 0.008690856 0.009574432
000170 b7 0a b5 ba a9 78 f9 3c c9 65 76 3c 29 92 39 3c
       -0.0013812397 0.030453043 0.015038916 0.011326351
000180 1e 3a e1 3b cb 66 93 3d b6 ce fb 3c 41 75 89 3b
       0.006873383 0.071973406 0.030738216 0.004194886
000190 f6 2f 80 bb cc ed 11 3d 7e 75 96 3c 3f 8c 66 3b
       -0.0039119674 0.03562717 0.018366572 0.0035178808
0001a0 d1 e8 b6 3c 42 2d db 39 d0 63 7d ba 90 58 66 3c
       0.022327812 0.00041804655 -0.00096660573 0.014059201
0001b0 c7 e8 03 bc 47 a6 5c bc 44 74 a4 3b dc ec 28 3c
       -0.008051104 -0.013467378 0.0050187428 0.010310378
0001c0 f5 06 55 3d ab e3 d3 3c c9 79 2d 3c 6a 38 72 3d
       0.052008588 0.025865396 0.010588118 0.059135832
0001d0 d4 7b e2 3c 8d 57 82 3c ba 8e 9a 3b 87 30 67 bd
       0.027646936 0.015910888 0.0047167214 -0.056442764
0001e0 94 ee 7a 3d 06 a5 b9 3b 86 88 74 bc 8f 6e a5 bb
       0.061262682 0.0056654243 -0.014925128 -0.00504858
0001f0 98 78 53 3c ae 45 c5 3d e1 3f ac 3d b1 20 28 3d
       0.01290717 0.09632431 0.084106214 0.041046802
000200 00 52 02 3d 20 03 ae 3c 5c 43 d5 3d 4c 4b 5a 3d
       0.031816483 0.021241724 0.104132384 0.053294465
000210 4e 35 a6 bc 3e b0 b1 3d 92 fe 41 3d fb aa 92 bc
       -0.02028909 0.08676194 0.047361918 -0.017903795
000220 a9 86 4c bb 4f e5 80 3d 90 da 98 bb ce 6f 81 3d
       -0.0031208193 0.06293737 -0.0046647266 0.06320153
000230 2d 01 bb 3c 72 e7 51 3d a6 aa 59 3b af 23 a5 3c
       0.02282771 0.051246114 0.0033213287 0.020158617
000240 d4 ba c8 bc 1d f6 93 bc 93 6f 34 3d bf 2a ef bb
       -0.02450315 -0.018061692 0.044051718 -0.007298797
000250 e5 76 69 bb 5c 32 9b 3b f2 fe d6 3c d5 81 2d 3d
       -0.0035623845 0.004736228 0.026244614 0.042360146
000260 6c 38 fd 3c 7a 1b 2d 3e ab b2 c3 3d a3 da 67 3c
       0.030910693 0.16905013 0.095555626 0.014151248
000270 0e 12 8b 3c e6 82 f3 3b 87 3c 1b bd 7a a3 50 be
       0.016976383 0.007431376 -0.03789952 -0.20374861
000280 16 fb df ba f2 71 98 ba d3 50 41 bc 87 58 0b be
       -0.0017088379 -0.0011630638 -0.011799055 -0.13607989
000290 7f af 03 bd 30 78 69 3c b3 f8 04 3d 40 25 d7 bd
       -0.032149788 0.014249846 0.03246374 -0.10505152
0002a0 92 6e 67 3d 66 c5 28 3d c9 e1 e0 3d 8c ad 2f 3d
       0.056501932 0.04120388 0.10980565 0.042890117
0002b0 79 f4 8a 3d e0 81 3c 3d 01 aa b6 3c d9 b0 6c 3d
       0.06784911 0.046022296 0.022297861 0.057785843
0002c0 c3 3a 17 be e8 ba 12 3e a1 3b 8d 3c 4a 98 e3 bc
       -0.1476851 0.14329112 0.017240347 -0.027782578
0002d0 1b 80 3e 3c 28 1d 3f 3d 3f 7a 94 bd 0e 74 a5 3d
       0.011627222 0.046658665 -0.07249879 0.08078776
0002e0 49 99 9f bd 0e a6 80 bd 50 f8 e2 3d dd fa 78 bc
       -0.07792909 -0.062816724 0.11082518 -0.015196529
0002f0 9c 9d 93 bd 9e cb 1e bd 43 27 b9 3c e9 72 89 3d
       -0.07207796 -0.038768403 0.02260173 0.067113705
000300 ce 47 b1 3c 61 06 50 bd a8 ea 2e 3c d5 e6 43 bb
       0.021640684 -0.050787333 0.010676064 -0.0029892225
000310 a3 d9 28 bd a4 3a 26 3d da aa 43 bd 19 f4 8b bd
       -0.04122318 0.040583268 -0.04777036 -0.06833667
000320 70 7f 47 3c 4c ee 01 3e 85 59 e4 3c c1 e7 1e 3d
       0.01217638 0.1268856 0.027874717 0.038795236
000330 65 ae da bc 44 5e db bc 9f 65 b1 3a 3e db 0a bb
       -0.026694486 -0.026778348 0.0013534314 -0.0021187807
000340 f5 93 b0 bc a7 0c df bd a9 ec 0e bc 8a 86 3e 3d
       -0.021554926 -0.10891085 -0.008723416 0.046515025
000350 e5 99 9a 3d 74 ca 52 3d a4 29 49 3d ac e1 40 bd
       0.07548884 0.051462606 0.049111977 -0.047090217
000360 c9 94 ba 3b 0c 0a b4 3d 70 45 9c 3d 55 4e 9e 3d
       0.005694006 0.08790979 0.07630432 0.077297844
000370 81 96 aa bd ef f0 46 bc 54 2d 16 3e ec bf c5 3c
       -0.083294876 -0.012142404 0.14665729 0.024139367
000380 f9 1b 7f 3c 74 4b be bc 2e dc e3 3b c1 59 fa bd
       0.015570634 -0.023229338 0.0069537377 -0.122241504
000390 52 43 c1 bd 30 d9 a9 bd 02 7c 28 3d 27 70 7e bc
       -0.094366685 -0.08293378 0.041133888 -0.015529669
0003a0 3c 4e 2b 3e 2b fb d3 bd bc d5 ee bc 09 04 af bd
       0.16729063 -0.10350641 -0.02915465 -0.085456915
0003b0 67 d4 70 bd 6b fa 01 3d ae 02 a9 3c 40 da ad bd
       -0.058796313 0.031732958 0.02063116 -0.084888935
0003c0 f8 4b 7f 3c 7c 5f de 3c 9d e0 86 bd 31 fc 5f be
       0.015582077 0.02714514 -0.0658581 -0.21873547
0003d0 3a 41 91 bc 4c 70 12 3d 1d 58 26 bd 93 2e 49 3d
       -0.017731298 0.035751626 -0.040611375 0.049116682
0003e0 20 7d cc bb ce ad f4 3b 66 c4 4f 3b 3e 98 10 bc
       -0.006240502 0.007467008 0.0031702756 -0.00882536
0003f0 d5 35 56 be 11 4a 45 bb bf 38 18 be f9 c9 0a bd
       -0.20918973 -0.0030103961 -0.14865397 -0.033884022

1.df.df.fc1.weight_block_1.bias1 f4 [2, 76]
000000 ad b5 b8 3d 30 2e 27 b7 b0 f8 d2 3d 02 fb 96 3c
       0.09019027 -9.9647295e-06 0.103013396 0.018430237
000010 91 6a c2 3c 97 1d 5c 3d f4 6d cf 3c 3f 19 05 3e
       0.023732455 0.053739157 0.025320984 0.12997912
000020 ee 87 17 bd a9 bb 46 3d 3a 8d 97 3d b6 04 e8 bd
       -0.036994867 0.04851881 0.07399984 -0.113290235
000030 f1 6c 40 3d 71 be de bd 0f e8 a0 bd f0 95 c7 bb
       0.046978895 -0.108761676 -0.07856762 -0.006090872
000040 31 21 c7 be dd da 69 3d a4 a7 1f 3d b9 27 be 3d
       -0.3889251 0.05709349 0.038978234 0.0928492
000050 b1 a3 24 3d 34 23 ef 3d 9f bd d2 3d cc ed 12 bc
       0.04019517 0.11676636 0.102900736 -0.008967828
000060 e9 26 df 3d d7 40 5c be cd 82 d3 3c 37 15 ab bd
       0.108960934 -0.2150911 0.025819207 -0.08353656
000070 27 06 7f 3c ce 0d 56 be 1d 7e 98 3c 1f a5 24 3e
       0.015565432 -0.20903704 0.018614823 0.16078614
000080 9f b4 89 3d ed c4 a4 3d de c7 b4 3b 8f 3d 8a 3d
       0.06723904 0.08045373 0.00551699 0.067500226
000090 d5 47 97 3d e0 64 0b be e9 18 e0 bd fb 0e 55 be
       0.07386748 -0.136127 -0.10942251 -0.20806496
0000a0 e5 3a a1 3d 87 14 a8 3b e0 48 2c 3d 0c af 08 3d
       0.07872561 0.0051294 0.042061687 0.033370063
0000b0 2f 39 97 3d 08 0e 10 bd ed 5c e0 bc b9 1d 9e 3d
       0.07383954 -0.03516963 -0.02738806 0.07720513
0000c0 4b 75 87 bb 99 da bb be 0d 60 05 3e b3 b1 10 3d
       -0.0041338555 -0.36690214 0.13024922 0.035325717
0000d0 4a 02 76 bd 43 f6 f4 3c f1 a1 89 bd d5 65 52 bc
       -0.060060777 0.029902583 -0.06720341 -0.012841661
0000e0 08 e4 86 3b 83 76 6a 3d d9 c0 5c 3c 89 2f 4c 3d
       0.004116539 0.057241928 0.013473713 0.04985002
0000f0 e7 ae 84 be 3d 33 2d 3e c3 39 64 3d 2c af 22 3d
       -0.2591469 0.16914077 0.05571915 0.03971784
000100 32 bc 48 3b ec ca bd 3d 77 39 96 bc 40 81 95 be
       0.0030629751 0.0926722 -0.018337948 -0.29200172
000110 3e 08 af 3d e9 e8 7f bc 0c 6c d0 bb 2c d2 5b bc
       0.08546494 -0.015619495 -0.0063605364 -0.013416808
000120 7f d9 36 be 41 40 ff 3c d1 a3 a1 bc a5 f7 55 3d
       -0.17856406 0.031158568 -0.019731434 0.052238125
000130 bc 21 74 3d 85 e5 b2 bd dd e1 ed bd 14 12 0c 3d
       0.059602484 -0.087351836 -0.116153456 0.03419693
000140 75 93 64 3c 2a e9 29 bd 62 b4 90 bd bf 2f d6 bd
       0.013951172 -0.04148213 -0.07065655 -0.104583256
000150 9b d3 f5 bd 19 1f 70 bd 0e 3c f9 bd 9e 32 d0 3d
       -0.12003251 -0.058623407 -0.12169658 0.101659045
000160 4e a9 e1 bd 37 c2 bd 3a fc 1d d6 bd 53 04 d5 bd
       -0.110186204 0.0014477436 -0.10454938 -0.104012154
000170 12 03 a2 be cb 7b 76 bd ea fd 33 bd 93 b3 51 bd
       -0.31642967 -0.060176652 -0.043943323 -0.051196646
000180 17 76 dd bc 6e a8 31 be e8 0d b1 bc 16 c0 85 3c
       -0.027033849 -0.17349407 -0.021613076 0.016326945
000190 3e 46 7f bc cd d5 61 be b6 71 87 3c 99 bd 02 bc
       -0.015580712 -0.22054215 0.016533714 -0.007979774
0001a0 f8 38 1f be d4 a1 ab 3d 19 2e e2 3a 33 45 91 3d
       -0.15549076 0.08380476 0.001725617 0.07093277
0001b0 14 83 09 be 76 cc a5 bd 67 21 9b bd 73 15 54 bb
       -0.13428909 -0.080956385 -0.0757473 -0.0032361418
0001c0 fb 4f e4 bc 10 0f 45 3d 9b 94 f6 bd d5 26 43 3d
       -0.027870169 0.048110068 -0.12040063 0.047644455
0001d0 4c 85 dc bc 4e 9a ba bc 51 97 d7 3b b6 5a 12 3d
       -0.02691903 -0.022778656 0.0065793176 0.03573104
0001e0 fa 8a 97 3d 5e 4b 02 bc 1b bc 26 3c d0 dc d3 bc
       0.073995546 -0.007952539 0.010176684 -0.025862128
0001f0 fd 3e 95 bd 36 c5 b8 bd 5d d0 b1 3b 60 93 fa bb
       -0.07287405 -0.0902199 0.00542645 -0.007646963
000200 f5 10 da 3a c5 16 83 bd 4f cd 80 3d ff 82 99 3b
       0.0016637134 -0.06400827 0.062891595 0.0046848054
000210 ef db 74 bc c7 29 00 3d 4b a5 04 bc 1a 1f 9e bd
       -0.014945014 0.031289842 -0.00809605 -0.07720776
000220 f8 56 fa 3c 09 2e 67 3d 38 71 88 3d 36 02 92 3d
       0.030559048 0.056440387 0.0666222 0.07129328
000230 a8 72 9c ba 5a 1d d8 bb bb 74 da 3c e7 48 81 bc
       -0.0011936026 -0.006595296 0.02666699 -0.015781833
000240 0c 08 b7 bd 02 d8 f6 3c d5 02 01 3d c3 4a 0c be
       -0.08937082 0.030132297 0.03149684 -0.13700394
000250 bf 88 09 be dd 90 89 bd 7d 23 95 bd f8 d2 0b 3d
       -0.1343107 -0.067170836 -0.072821595 0.034136742

1.df.df.fc1.weight_block_2.weights1 f4 [2, 76, 76]
000000 1c 15 ad 3d 17 86 c6 3c 4f a5 8b 3d 07 9b b5 3c
       0.08451292 0.02423386 0.068186395 0.02216865
000010 07 55 ab 3c d6 fe 4e 3d 0a 1e 8d bc 38 41 4f 3d
       0.020914568 0.050536 -0.017226238 0.050599307
000020 bd cc 5b bd d5 7f e2 bc 35 59 45 bd 66 3a 10 bc
       -0.05366205 -0.027648846 -0.048180778 -0.008802986
000030 90 f3 c5 3b 30 86 f9 3a 2d 39 11 3a ec 0e de 3c
       0.006040998 0.0019037183 0.0005539831 0.027106725
000040 c9 16 01 bd e3 05 97 ba 06 0e ee 3c 1a 5b a0 3c
       -0.03151587 -0.001152214 0.029059421 0.01957469
000050 b2 26 89 3d 64 f7 18 3d f0 9f e8 3c e6 bc 32 3d
       0.06696834 0.037345305 0.028396577 0.04363718
000060 22 92 b8 bc 9f 93 fd bc 3a ab 66 bb 25 cf 97 3c
       -0.022530619 -0.03095418 -0.0035197274 0.018531391
000070 1f 6a cf bc 40 72 d5 bc 13 72 d3 3b 90 dc cc 3d
       -0.025319157 -0.026055455 0.0064528077 0.100030065
000080 70 1e 48 3c 60 23 82 ba 61 d6 ce bc d3 69 a3 3b
       0.012214288 -0.0009928755 -0.025248708 0.0049869805
000090 fa 0e 35 bd 76 6f 67 3d 79 10 e3 3c 52 b5 09 bc
       -0.044203736 0.05650278 0.027717816 -0.008405047
0000a0 9a 7e 41 3c 07 bd 94 3b 65 d6 d2 bc 1f 7d 8e bd
       0.011809969 0.0045391354 -0.025736997 -0.06957459
0000b0 76 35 5f 3d 0d e0 87 3d b1 ee c8 3b 83 34 1f bd
       0.054494344 0.06634531 0.00613197 -0.03886844
0000c0 47 bb c2 3d 19 5d 9a bd 4f 03 9d bc 33 f8 4e 3d
       0.095083766 -0.07537288 -0.019166617 0.05052967
0000d0 2c 29 4d 3c 10 56 fa bc fd ee 8f 3b 2e 2e b5 bd
       0.012522023 -0.030558616 0.0043925033 -0.08846699
0000e0 0b 15 39 bd 33 fa 25 3c 8d d3 1a 3c 0f 60 1e 3d
       -0.045186084 0.010130453 0.009449852 0.038665827
0000f0 fa 20 c1 bb a1 8d 3a 3c 9e 95 cb 3d f2 ae 03 bd
       -0.0058938237 0.011386306 0.099406466 -0.032149263
000100 36 40 1a bc 02 51 00 3e 4f b1 0e 3d b0 6e d1 3d
       -0.009414723 0.12530902 0.034837063 0.1022619
000110 b1 bb 4c 3d 05 e9 0e bd bf cd 0b bc cc 3c 70 bc
       0.049983684 -0.034890193 -0.00853294 -0.014662933
000120 b8 e4 0a bd ca 1d 41 3b 7d 06 7e 3d ee 5d c4 3c
       -0.03390953 0.0029467219 0.062017906 0.02397057
000130 36 a4 56 bb db 17 08 3b 0b e1 93 3c 8a de c8 bc
       -0.0032751686 0.0020766172 0.018051645 -0.024520177
000140 af d4 26 3d 5f 61 64 bd 29 09 88 3c a1 39 9b 3b
       0.040730175 -0.055756923 0.01660593 0.0047370945
000150 3c 5d 46 3c 98 b7 2e 3a 33 66 92 3d 5a 88 27 3d
       0.01210719 0.0006664931 0.07148399 0.04090152
000160 49 9d 0d 3d af 9d 0c 3d 15 83 82 3d 6e d9 79 3c
       0.034573827 0.034330066 0.06372658 0.015249593
000170 f6 f6 42 3d 01 fb ae 3c 24 18 63 bc 0d 5a 58 3b
       0.0475988 0.021359922 -0.013860736 0.0033012659
000180 83 28 2c bd 59 7f c2 bc 89 22 1a bc 39 e2 75 3c
       -0.042030822 -0.023742365 -0.009407648 0.015007549
000190 c3 f7 f2 3c 23 35 93 3d c7 51 9c 3c 0b d5 7b 3b
       0.029659158 0.071878694 0.019081963 0.0038426544
0001a0 a9 4e 93 3c fd 4e 8c 3d f1 b4 9d bc 93 29 c9 bc
       0.017981844 0.06851003 -0.019251319 -0.024555957
0001b0 ce 13 f1 bb 45 8b 1b 3d 16 d1 0a 3d 7b f7 a4 3c
       -0.007357097 0.037974615 0.033890806 0.02013754
0001c0 82 45 c5 bc a5 ba 5d bb 53 48 32 3c 2c 3f a0 3c
       -0.024080995 -0.0033833173 0.010881501 0.019561373
0001d0 45 77 69 3c 9e 6c f4 bb 30 1b 1f 3d b0 41 5c 3d
       0.0142496275 -0.0074592372 0.038844287 0.053773582
0001e0 d3 5d a0 bc 5c 07 a6 ba 70 14 1b 3d ad 51 c5 3c
       -0.019575989 -0.0012666988 0.037861288 0.024086798
0001f0 82 92 7a bc 96 a7 a9 3d bb d0 b6 bb ea 31 a4 3c
       -0.015293719 0.082839176 -0.005579082 0.020043332
000200 de 9f b4 3c 35 27 08 3d 2f 9f dc 3b cc c0 bf 3d
       0.022048887 0.033240516 0.0067328434 0.09362945
000210 60 f0 97 3d 49 87 e5 3c bf 14 21 3c fd bd 01 bd
       0.07418895 0.02801861 0.009831606 -0.031675328
000220 9e 3e c2 bb ff 6d b9 3a 25 eb f4 bc 9a 3d e2 3c
       -0.0059278747 0.0014147161 -0.029897282 0.027617265
000230 f0 6e d8 3c 37 56 6e 3c a2 63 97 3a 56 9c 2d bd
       0.026420087 0.014546922 0.0011550079 -0.04238542
000240 9c b9 ee 3c f2 49 10 3d 92 20 ef 3c 60 22 b5 bc
       0.02914124 0.03522677 0.029190335 -0.022111118
000250 ab a3 0b 3d 2c a7 8c 3c 03 2e ca 3b 58 6d 40 3c
       0.034091633 0.017169558 0.006170036 0.01174482
000260 d1 19 39 3e c4 ec 83 bb fa 45 3d 3d 1f 2f 12 be
       0.18076254 -0.0040260274 0.046209313 -0.14275788
000270 9f f4 4d 3d d5 b3 b7 bd cb c1 a9 3d 2c 91 8f 3c
       0.050282117 -0.08969847 0.08288916 0.017525278
000280 cb a1 9e bd 98 05 67 bc 8f 54 0d be a3 83 c5 3a
       -0.07745703 -0.014100455 -0.13801788 0.0015069138
000290 66 4f f0 3d dc 93 b3 3c 56 77 a4 3c 17 80 de 3d
       0.11733894 0.02192109 0.020076435 0.10864275
0002a0 06 ff 53 bc ec 8a 02 bd 9f c6 ad 3d 86 cd 76 3a
       -0.01293922 -0.031870767 0.084851496 0.00094147807
0002b0 9d 85 c1 bd 40 32 c5 3d ce 89 ad bc 96 55 be 3a
       -0.09449313 0.09628725 -0.021183874 0.0014521356
0002c0 ae ba 8b 3b 3b 0a 80 3a 70 5f 9a ba 13 63 b4 bc
       0.0042641973 0.0009768674 -0.001177771 -0.022019899
0002d0 9b 3e 3e 3d 8d f7 d5 bb 9c 29 25 3e e8 18 89 3d
       0.046446424 -0.0065297545 0.16129154 0.066942036
0002e0 81 69 1f bd a1 32 99 3c 9d f5 63 bd 08 f7 6c 3c
       -0.038918976 0.0187009 -0.055654157 0.014463194
0002f0 2a 47 59 bc 81 e4 74 3d ca 1c 8e 3d 0a 6e 95 bd
       -0.013261596 0.05978823 0.06939085 -0.07296379
000300 e6 2e cd bb 20 ab 89 bd 47 08 98 3b d2 e6 5f bb
       -0.0062616942 -0.06722093 0.0046396586 -0.003416468
000310 cf 2a 21 bd 1b 30 f7 bc 07 34 51 3d c4 c9 9a bd
       -0.039347466 -0.030174306 0.051075008 -0.07558015
000320 f4 e5 86 3d ef c8 00 bc bd 8d d4 bd a5 38 ac 3d
       0.06586829 -0.007860406 -0.10378597 0.084092416
000330 c1 ae 3e 3b 5e 9b 7e 3c 64 34 57 3d 22 f7 25 bd
       0.002909586 0.015539972 0.052540198 -0.040518887
000340 e3 6c 5a 3d f3 a8 63 3d 36 e3 10 3c 79 6e b9 bd
       0.0533265 0.055581044 0.008843234 -0.09054274
000350 cb 0f 7d 3c ca 20 5f bc 0b 7e fd 3b 8c 8b 9c bc
       0.01544566 -0.013618657 0.0077359728 -0.01910951
000360 f1 ad 14 3d 7a 2d 23 bc 2d ae ad 3a 20 c2 dd 3c
       0.036298696 -0.009959573 0.0013250761 0.027070105
000370 79 98 00 3e 2a 57 5e 3d b0 15 62 bc 54 29 d6 3d
       0.12558164 0.054282345 -0.013799116 0.104571015
000380 2f d5 fe bc 2a d8 ba 3c 1b 46 5f 3d ec 0f 5d 3c
       -0.031107513 0.022808153 0.054510217 0.013492566
000390 13 92 05 bd 63 e7 3e bc c6 1d 30 be e3 89 cc bd
       -0.03261001 -0.011651847 -0.17198858 -0.09987237
0003a0 0b 1b 9b bd ea 11 ec 3a fd 19 1d 3e 5a ed 68 bd
       -0.075735174 0.001801071 0.15341945 -0.05686698
0003b0 43 ca 9c 3c 3c 75 dd 3d 61 e0 09 be 61 fc 40 bb
       0.019139415 0.10813376 -0.134645 -0.0029447305
0003c0 45 37 1e bd be 41 6a bd f0 94 eb bd 4a 35 02 ba
       -0.038626928 -0.057191603 -0.11503017 -0.0004967047
0003d0 7b da f8 3b 29 3e ac bc 05 8f 91 3d 84 82 46 bc
       0.0075944043 -0.021025734 0.07107357 -0.012116078
0003e0 9c a5 b3 bd cc 5a af 3d bc e5 54 bc b7 28 ba bd
       -0.08771822 0.0856224 -0.012994226 -0.09089797
0003f0 60 89 58 bc 96 b6 da bd 42 f0 6b 3c c6 30 aa bc
       -0.0132163465 -0.10679357 0.014400544 -0.02077521

1.df.df.fc1.weight_block_2.bias1 f4 [2, 76]
000000 14 28 db 3d 0a fa 4f 3d 6f 85 a4 3c 1d 70 24 3e
       0.10701004 0.050775565 0.020083157 0.16058393
000010 db 33 13 3d 99 8f a3 3d f4 ba c2 3d c3 35 a7 bc
       0.035938125 0.079863735 0.09508315 -0.020411378
000020 20 28 a7 bc d7 44 ed 3d 5d 8a b1 3d a2 14 65 be
       -0.020404875 0.11585396 0.08668969 -0.22371152
000030 04 f7 af bd ba e9 d2 3c 75 ea 4a 3e 4b 98 14 3d
       -0.08592036 0.025746215 0.19816001 0.03627805
000040 38 66 46 3d 2f 14 01 bd 5c 3a 97 3d 13 b1 48 be
       0.048437327 -0.03151339 0.07384178 -0.19598798
000050 38 15 f2 3d c7 68 c6 3d 18 04 1f 3d fc f0 e5 3d
       0.118204534 0.096879534 0.038822263 0.11227605
000060 a2 95 26 3e 20 39 10 3d b6 51 bf bc d0 2b cf bc
       0.16268018 0.03521073 -0.023354392 -0.025289446
000070 dc e5 63 3c 87 0f b5 3c 11 23 eb bd fe 45 73 3e
       0.013909783 0.02210213 -0.11481298 0.23757169
000080 c7 fc 45 bd cb 50 6f 3d 2e 16 98 3d 72 b4 ba bc
       -0.04833677 0.05842666 0.074261054 -0.022791121
000090 8f bf 8c 3d 8a 88 72 3d 0a 85 c0 3d 91 0c bd 3c
       0.068724744 0.059212245 0.09400375 0.023077281
0000a0 01 f1 48 3c 53 89 91 3d c0 a3 3f bd 2a 95 7e 3d
       0.012264491 0.07106271 -0.046787024 0.062153973
0000b0 6d d5 c9 bd 72 bd d5 3d 28 d3 8a 3d aa 3a 73 bc
       -0.09855161 0.104365245 0.06778556 -0.01484553
0000c0 7e 59 ce be 06 7d 29 3e 65 56 85 bd e5 93 18 be
       -0.40302652 0.16551599 -0.06510619 -0.14900167
0000d0 c2 1c 16 3c 8b 83 2a bb a9 dc 01 3e 20 af ef bb
       0.00916213 -0.0026018347 0.12681831 -0.0073145777
0000e0 b7 5e 36 3e bd fb 25 be e4 a6 8e bd df 43 02 be
       0.17809568 -0.16209312 -0.069654256 -0.12721203
0000f0 6c a0 10 bc 8b b7 09 3d f7 e7 87 3e 5e 44 31 3d
       -0.00882731 0.033622306 0.26544163 0.04327809
000100 c7 b7 6e bd 95 fe ba bc 43 8c 3f 3a 0b d7 76 be
       -0.058280732 -0.022826472 0.00073069724 -0.2410547
000110 d6 62 16 3e e1 75 b4 3d 8a 05 fc bd 04 6c 33 3d
       0.1468614 0.08811546 -0.12305744 0.043804184
000120 31 5d 4a 3b c5 f3 ca bd 6c 2f eb 3d c6 81 ce bd
       0.00308783 -0.099097766 0.114836544 -0.10083346
000130 36 8f 2b 3d 50 7e d5 3c 9a f7 1c 3d cc 4f 24 3c
       0.041884623 0.026061207 0.03832207 0.010028791
000140 17 8c eb bd d5 cc be 3c 3f 95 4e be fa 91 d5 bb
       -0.115013294 0.02329103 -0.2017412 -0.006517646
000150 11 eb d1 bd 94 2e 85 bd ef 69 45 3d 23 87 26 be
       -0.102499135 -0.06503025 0.04819673 -0.16262488
000160 78 1a bb 3c 94 86 9b bd db 01 20 3c 2a 1f 69 3d
       0.02283977 -0.07594028 0.009766067 0.056914486
000170 15 9f cd 3c ff 56 d9 3c 33 12 15 3d 70 31 9b bd
       0.02510027 0.02653074 0.03639431 -0.07577789
000180 14 19 4d bd 96 9f 1b 3d 4c 5e d8 3c c9 78 42 3a
       -0.050072744 0.03799399 0.026412152 0.0007418511
000190 1c c5 59 bd 30 dd 2e 3b 54 d9 b1 bd 97 ed bf bc
       -0.053166494 0.002668213 -0.0868403 -0.023428721
0001a0 09 b8 2a be 99 31 74 bd 59 59 90 3c b0 0a 98 3d
       -0.16671766 -0.059617613 0.01762073 0.074239135
0001b0 58 36 e9 bd 72 87 93 bd ec 80 53 3d 85 65 1f be
       -0.113873184 -0.072035685 0.05163662 -0.1556607
0001c0 a0 30 d9 3c 3f 49 9f bd 58 e3 9a 3c ef 83 3e bc
       0.026512444 -0.077776425 0.018907234 -0.011628135
0001d0 b2 fb 20 bd 1d 32 d6 3a 97 88 86 3d 38 4b e1 bd
       -0.039302535 0.0016341839 0.06569021 -0.11000675
0001e0 3a a2 9a bd 8f a5 51 be 72 bd 0d be ea 39 80 3d
       -0.075504735 -0.20473312 -0.13841799 0.06261046
0001f0 6c bb c7 bd f1 3b 84 3d 2a 84 21 be 98 5d c2 3b
       -0.09752545 0.064567454 -0.15773073 0.0059315674
000200 df aa 88 bc 8e 5e bc bd 61 84 28 3d 59 22 61 bd
       -0.01668304 -0.091977224 0.04114187 -0.054964397
000210 7c 85 0e be d0 85 2c be 03 27 ad bd f7 e4 d1 bd
       -0.13918108 -0.1684792 -0.084547065 -0.1024875
000220 65 20 b0 bd f4 d1 ae 3c e2 43 fd bd 2f e1 bd bc
       -0.08599929 0.021340348 -0.12366463 -0.023178665
000230 1a b9 39 be c8 0c 48 3d 00 3a d4 bc c5 df a3 bd
       -0.18137017 0.048840314 -0.025906563 -0.08001665
000240 e1 02 af bc 6c 4b c5 3c a1 eb 19 be 49 33 e9 bd
       -0.021363677 0.024083816 -0.15031292 -0.11386735
000250 a0 e9 04 3d 4c c5 69 bc 0a e9 38 bd eb 32 93 bd
       0.032449365 -0.014268231 -0.04514412 -0.07187446

1.df.df.fc1.concat_real_layer_1.weight f4 [76, 152]
000000 b8 6e 18 3d 14 f6 54 3c a8 d4 7c 3d eb 1d 14 bd
       0.037214965 0.012998123 0.061726242 -0.036161344
000010 a9 70 28 bd ef a4 14 3d 64 b2 a0 bd e8 5e a5 3d
       -0.041123066 0.036290105 -0.07846525 0.080747426
000020 e1 e2 ae 3b ee 52 94 bc a8 b1 0c bc fd e5 aa bc
       0.0053371047 -0.01810595 -0.008587278 -0.02086162
000030 71 50 28 3e 70 c3 01 3c 00 91 a3 bc 9e 40 6d 3d
       0.16436936 0.007920131 -0.019966602 0.057922952
000040 03 8a 8b 3c c1 08 49 bc 2d 76 82 3d 87 f8 50 bd
       0.017033583 -0.0122701535 0.063701965 -0.051018264
000050 23 de 1a 3c de c0 0d 3d 9e 78 19 3d e2 a0 13 bd
       0.009452376 0.03460776 0.037468545 -0.0360421
000060 80 d2 c4 bd a6 2b 0e 3d d1 62 17 3d a3 58 d8 3c
       -0.09610462 0.034709595 0.036959473 0.026409453
000070 83 2f f0 39 12 04 ef 3c f2 b6 cb bd 38 e3 33 3d
       0.00045811766 0.029176746 -0.099470034 0.043917865
000080 0a e1 52 bd 30 df 04 bd 9f f9 fd 3d 85 e4 a6 bd
       -0.051484145 -0.03243941 0.12401127 -0.081490554
000090 3b 99 08 be 3a d6 8a 3c 76 be f6 bb d1 da f0 3c
       -0.13339703 0.016947854 -0.007530029 0.029401215
0000a0 98 c6 97 bd 2c 9d 8f 3c 4d a2 e8 3c 49 e3 57 3d
       -0.074109256 0.017531 0.028397704 0.05270699
0000b0 4a 1a 9e bd 1b f0 86 bd 4e 9a 52 bd 15 18 85 3d
       -0.07719858 -0.06588765 -0.051416688 0.06498734
0000c0 d5 c7 75 bd 7d 9c 09 3d 43 1f 1e bd 0d b2 c5 bd
       -0.060005028 0.033596504 -0.038604032 -0.09653101
0000d0 38 1e 48 3c c2 32 e7 bc 93 c7 6e 3b c0 d7 04 be
       0.012214236 -0.028222445 0.0036434873 -0.12972927
0000e0 e2 34 eb 3b 57 c0 20 be 80 a5 99 3d c4 5e 84 bb
       0.007177935 -0.15698372 0.0750227 -0.0040396173
0000f0 4f 31 58 bc d2 d3 0e be bf 13 4e 3c 9b de 13 bd
       -0.01319535 -0.1394799 0.01257795 -0.036100965
000100 1e 1a 0c bd cd 25 85 bc 5a 44 d1 3d 3f bd b0 bb
       -0.034204595 -0.016253376 0.10218115 -0.0053936536
000110 9b a1 f8 bc 61 df be 3c 49 70 db bb 48 d1 81 bc
       -0.030350497 0.023299875 -0.006696735 -0.015846863
000120 36 d8 20 3c 6e 18 dc bc 8e 2e 70 bc 6f f5 61 bd
       0.009817174 -0.026867118 -0.014659537 -0.055165704
000130 3e c5 5b 3d 97 28 ab 3d aa 55 8f 3d ce 60 16 bd
       0.0536549 0.08357351 0.06998761 -0.036713414
000140 a1 ec 06 3e 29 3d 10 bd 0d 74 c3 bc 21 3f bd bc
       0.13176204 -0.035214577 -0.023859048 -0.023101391
000150 dc 0e 85 3d 6d 25 f5 bb 06 ca d9 bd 1a 06 e5 bd
       0.06496975 -0.007481268 -0.10634236 -0.111828044
000160 23 f8 d0 bd ca 82 14 bc 97 d1 bd bd b1 88 03 3e
       -0.10203578 -0.009064386 -0.09268492 0.12845112
000170 10 1e e6 bd 7d d0 99 bc a4 33 cf 3d 45 cf 68 bc
       -0.11236203 -0.018776173 0.101172715 -0.014209573
000180 65 8b 13 3d 47 d6 97 bc 40 15 cb bb e0 a5 89 3d
       0.03602161 -0.018534793 -0.0061976016 0.06721091
000190 57 90 8f 3c 81 e8 14 3d 6c ac df bc bb 34 95 3d
       0.017524881 0.036354546 -0.027303897 0.07285448
0001a0 9c 5d cb 3d 00 7d 6c bc 55 a2 97 3d 8b ca de 3d
       0.09929964 -0.014434099 0.07404009 0.10878476
0001b0 af 77 f9 39 fb 8b be bd 42 27 27 be 5f 9d 11 bd
       0.00047582152 -0.09304043 -0.1632357 -0.03555047
0001c0 4f c8 17 3d d9 01 4e 3d 7a 4c 62 3d 61 66 c3 bd
       0.037056264 0.05029473 0.055248715 -0.095410116
0001d0 01 97 12 3d dd 2f a3 bc ac d6 0c bd 9a 44 b0 bc
       0.03578854 -0.019920284 -0.034384415 -0.021517087
0001e0 f0 67 f2 3d 11 41 28 bd bb 28 08 3d 1e 7e c1 bd
       0.11836231 -0.041077677 0.03324197 -0.09447883
0001f0 79 5b 71 bd 7c 71 11 be ce 00 95 bc 55 83 9e bd
       -0.058925126 -0.14203447 -0.01818886 -0.07739893
000200 bd 7d ef bd 97 f0 2a bd fd ab d9 bc a1 23 44 3c
       -0.116939045 -0.04173335 -0.026571268 0.011971385
000210 c7 87 6e bd 02 eb 2e bd e8 57 7c 3d 99 0b 1d bd
       -0.058234956 -0.04270459 0.06160727 -0.03834114
000220 36 72 75 bc e8 51 dc bc 00 06 bc 3d 3e 26 22 be
       -0.014980843 -0.026894525 0.09180832 -0.158349
000230 fa 88 8c 3d 22 4f 91 3d 87 af 88 3d c7 a2 01 3e
       0.06862064 0.070951715 0.06674104 0.12659751
000240 29 b4 b1 bc 1d 08 c3 bd 05 fa 0d 3d 94 63 1f bd
       -0.021692352 -0.09523032 0.034662265 -0.038913324
000250 4c 53 57 3c e4 fd fd bc 03 48 17 3e f9 83 6c bd
       0.013142418 -0.031004854 0.14773564 -0.057743046
000260 ae a4 26 3d 96 e5 5e 3d e6 f8 cf bd a5 78 f2 bd
       0.040684395 0.05441817 -0.101548955 -0.11839417
000270 8d 24 9b 3c aa e7 0c be e0 a6 29 be 3b bf e9 bc
       0.018938327 -0.13760248 -0.16567564 -0.028533569
000280 4e 7b 82 bd b6 86 d9 bd f6 fc 23 3e d9 f7 81 bd
       -0.06371175 -0.10621397 0.16014466 -0.06346101
000290 3c a8 60 be 87 3c ef bd f4 64 8f 3d 6c da 33 be
       -0.21939176 -0.116814665 0.07001677 -0.1756379
0002a0 ef f6 b1 3d 02 30 00 3e fe b2 1d bd 73 57 ba 3d
       0.08689677 0.12518314 -0.03850078 0.09098711
0002b0 30 c3 10 be c9 c2 f7 bc 76 c0 59 3d 45 03 fa 3b
       -0.14136958 -0.030244248 0.05316206 0.0076297843
0002c0 41 9e c9 bd 09 a9 43 be 2b fa 59 3d 91 5b c5 bc
       -0.09844638 -0.1910745 0.053217094 -0.024091514
0002d0 91 63 31 3d 7c 52 8c bd 63 93 d0 3c 17 c8 61 bd
       0.043307845 -0.0685167 0.025460904 -0.05512246
0002e0 85 d2 ea 3d c3 f2 22 be dd ee a3 3d e6 c1 26 3d
       0.11465935 -0.15912919 0.08004544 0.04071226
0002f0 3a 68 37 3d 73 71 5e be c3 00 ea 3d 97 93 2b be
       0.044777133 -0.21722965 0.114259265 -0.1675552
000300 34 61 03 bd d1 ad 0d 3d 25 06 cf bd d4 42 a8 bb
       -0.032075122 0.034589592 -0.10108594 -0.0051349197
000310 58 b6 cf ba 48 e4 8e bb 41 ae 41 be bb 29 12 be
       -0.0015847189 -0.0043607093 -0.18914129 -0.14273731
000320 fa 77 8c bc d5 4f 33 3c 84 62 f9 3c e2 19 14 3c
       -0.017147053 0.010944326 0.030442484 0.009039374
000330 ff 30 c6 3d d8 4a d5 3d 87 d0 a6 bc 59 eb dd 3d
       0.09677314 0.10414666 -0.020363105 0.10835905
000340 38 4a 2c be 53 91 79 3d a5 f9 20 be e7 f9 1d 3d
       -0.16825187 0.060929608 -0.15720232 0.038568404
000350 ef 79 48 3e c5 1a 03 3e 63 28 78 bd d7 d2 a0 bd
       0.19577764 0.1280318 -0.06058539 -0.078527145
000360 f6 de 82 bc ae 00 b4 bd 78 0e 01 bd 78 79 0f be
       -0.015975457 -0.08789192 -0.03150794 -0.1401118
000370 cf 17 29 be 4a 41 5d bd e3 d1 f0 bd 78 22 45 3c
       -0.16512989 -0.054017343 -0.11758783 0.012032144
000380 ed d1 e5 3c 79 c2 0b be 37 d5 fd bc a7 1e e1 bd
       0.028054202 -0.13648404 -0.030985458 -0.109921746
000390 68 48 40 bd 0f bb 50 be 9d 42 00 be c1 b7 55 be
       -0.046944052 -0.20383857 -0.12525411 -0.20870878
0003a0 5a a0 25 be 9d d7 13 bd b1 7d 9e bc 7f a0 3f be
       -0.1617445 -0.036094297 -0.019347044 -0.18713568
0003b0 51 be 3f bd ef f4 fe 3d 68 9d c6 bc 72 cd 79 bd
       -0.04681236 0.12449061 -0.024244979 -0.060986944
0003c0 95 69 26 3d 9d b7 71 be 0d 08 c2 3d 64 82 0c bc
       0.040628035 -0.23605199 0.09474192 -0.008576009
0003d0 5a 06 67 bd a6 12 ad 3c d5 83 2a 3c 99 c0 d6 bd
       -0.05640254 0.021127056 0.010407408 -0.10485954
0003e0 d2 87 1c be 77 c8 47 3d b2 65 4f be cd a4 9e bd
       -0.15286186 0.048775163 -0.20253637 -0.07746277
0003f0 27 a5 3e be ce ca 90 bd 8f b7 1f 3d 2a 7c 5a be
       -0.18617688 -0.07069932 0.038993414 -0.21336427

1.df.df.fc1.concat_real_layer_1.bias f4 [76]
000000 bc e2 80 bd 08 61 8d bd ab f1 06 bd 9a 31 51 bd
       -0.06293246 -0.06903273 -0.032945316 -0.051072694
000010 bd bb 36 3b 52 b1 63 bd 4a 1f aa 3c 6c c9 3d bd
       0.0027882897 -0.055589028 0.020766873 -0.04633467
000020 2a 30 a9 3c 18 3f 48 bd ac 6f 06 bd 2c b3 18 be
       0.02065285 -0.048888296 -0.032821342 -0.14912099
000030 d8 98 e0 bc 00 66 a4 bd 9b f5 2c bc 06 5a 9c bd
       -0.027416632 -0.080272675 -0.010556604 -0.07634358
000040 93 4b 33 bd 38 04 7a bd 8e 7a 55 bd 1a 18 d7 bd
       -0.043773245 -0.06103918 -0.05211883 -0.10502644
000050 b8 8e 6a bc 73 e2 0f be d8 ca 2e bb cd 96 c5 bb
       -0.014316253 -0.14051227 -0.0026671197 -0.0060299397
000060 d2 e6 57 bd 41 d9 3a 3d 0e ed 40 3d b3 f5 8c 3d
       -0.05271036 0.045617346 0.047101073 0.06882801
000070 cd 63 7a bd b1 69 f4 3b 53 62 8f be 63 48 b0 3c
       -0.061130334 0.0074588885 -0.28004703 0.021518892
000080 75 94 af be f5 8a 2b 3d 93 65 02 be e1 ae 38 be
       -0.3429295 0.041880567 -0.1273406 -0.18035461
000090 87 00 7c bd f0 87 3c 3c d2 c9 3a be c1 f6 90 bb
       -0.06152394 0.011507019 -0.18241051 -0.0044239466
0000a0 81 da 98 bd 29 81 9e 3d 44 02 a3 3c 5b 3c b8 bd
       -0.07463551 0.07739479 0.019898541 -0.08995887
0000b0 7b c6 e6 bd 41 b9 70 bd 62 6b 41 be c1 62 c5 bd
       -0.11268326 -0.058770422 -0.1888862 -0.096379764
0000c0 bb bc 63 be 6b f2 5d 3c 18 6d 24 3d 39 ad 29 bc
       -0.22239964 0.0135465665 0.040143102 -0.010356241
0000d0 a2 70 a1 bd e7 95 fd 3c 48 10 7a bc 6f 47 e4 3c
       -0.07882811 0.030955268 -0.015262671 0.027866093
0000e0 7b 58 c6 3c b4 8a 9d bb b7 32 ba bd 08 bb 4f 3c
       0.024212113 -0.0048077945 -0.09091704 0.012678869
0000f0 a1 56 8b bd f6 84 00 be 84 8e a9 bb 5b c9 88 be
       -0.068036325 -0.1255072 -0.00517446 -0.26716122
000100 83 eb ff bd d7 66 a5 3d c3 75 4f 3d 97 f3 93 bc
       -0.12496092 0.08076256 0.050649416 -0.018060489
000110 6b 9f 64 3d 4f 85 85 bd 27 21 a4 bd 24 ee 80 bc
       0.055816095 -0.06519567 -0.08014136 -0.015738554
000120 1d 1b 18 be 03 90 c8 bc fb 80 5b be bd 6d 99 be
       -0.14854093 -0.024482733 -0.21435921 -0.29966536

1.df.df.fc1.concat_imag_layer_1.weight f4 [76, 152]
000000 f6 59 12 3e 18 54 3b be 5c 8a 84 3d cc 0d 06 be
       0.1429213 -0.18293798 0.064717025 -0.130912
000010 48 e1 ba bd b3 85 4c 3b c8 35 64 bd 6f 93 67 bd
       -0.09125 0.003120762 -0.055715352 -0.056537088
000020 36 49 ee 3d 28 c0 8f 3d f8 d1 84 3d a4 3c 90 bd
       0.11635058 0.07019073 0.06485361 -0.07042816
000030 bd 7e 66 bc 27 35 a9 bb 7f a6 df bd 54 b7 f8 bd
       -0.014068303 -0.005163807 -0.109204285 -0.12144342
000040 1d 15 08 bd 7a ee ba 3c 56 1c 18 bc b9 87 8d bd
       -0.03322326 0.022818793 -0.0092841 -0.06910653
000050 53 dc 0d 3e 44 55 32 bd 70 4b 00 be 0d 1f 07 3e
       0.13853578 -0.043538347 -0.12528777 0.13195439
000060 06 d0 b2 bd d8 8e c5 bd aa 05 ed 3d 0f 5e f0 bc
       -0.087310836 -0.09646386 0.11573346 -0.029341726
000070 0c ae 25 3d 45 cb 9c 3b 38 31 92 bd d7 da 29 3c
       0.040449187 0.004784974 -0.07138294 0.010367117
000080 44 46 a7 bd 6e e2 e9 3d 35 88 f9 3a 87 e2 ae bd
       -0.08167699 0.11420141 0.0019037785 -0.085393004
000090 a7 d3 89 bd 15 cf 35 3e b4 d1 64 be 51 c8 de bd
       -0.067298226 0.17754777 -0.2234562 -0.10878051
0000a0 5d 19 64 bd 5d 26 ea bd 15 99 cf 3b fc 89 ba 3d
       -0.05568825 -0.114330985 0.0063353875 0.0910835
0000b0 e3 18 ba bd 67 2b 6e bd d8 59 8a 3d 6b 3c a1 bc
       -0.09086778 -0.05814686 0.067554176 -0.01968213
0000c0 13 12 7e 3d 0c 6b a5 3c 1f b6 5a bd 6f 41 8b bd
       0.062028956 0.020192645 -0.05339634 -0.0679959
0000d0 7f 0c dc bc cd 2c 88 bd e8 68 35 be 04 60 32 be
       -0.026861427 -0.0664917 -0.177158 -0.1741944
0000e0 c9 7b 93 bd 96 02 0c be 9a 2e ad bd 83 f5 01 3e
       -0.072013445 -0.13672861 -0.08456154 0.12691312
0000f0 52 b8 99 3d c9 fd a7 bd 69 9b fc 3d fc 64 d0 bd
       0.075058594 -0.082027026 0.1233433 -0.10175511
000100 b9 ae 37 bd 19 ee 06 be 5a e9 5f bd ce c8 20 bd
       -0.044844363 -0.13176765 -0.0546659 -0.039254002
000110 11 10 8d bd c9 fc be bd 13 8b b5 bd a8 f3 39 3c
       -0.0688783 -0.09325559 -0.08864417 0.011349596
000120 61 1d cf bd 21 b5 41 3d 07 2c db 3d 48 f3 e4 3d
       -0.101130255 0.04729188 0.10701757 0.11179215
000130 cc 4d 0a 3b 09 2e f2 3d 0c bd 45 3e c5 d7 ac 3c
       0.00211035 0.11825187 0.19310397 0.02109898
000140 e3 68 ce bc 74 3c 99 bc 10 85 15 3c 12 fa 81 bc
       -0.025196498 -0.018705584 0.009125963 -0.015866313
000150 73 7c 81 bd 1b 44 2b 3d f4 67 84 bd 2b fc 3e bd
       -0.06322565 0.041812997 -0.0646514 -0.046627205
000160 9c e6 cb 3d 5f 37 b0 3c c8 47 50 bd 1b 51 31 3d
       0.099560946 0.021510778 -0.050849706 0.04329024
000170 e2 34 27 be d6 65 aa bd 29 56 ad 3d d2 68 9b bd
       -0.16328767 -0.08320205 0.08463699 -0.07588352
000180 be 3f 24 3d bb 7c d9 bd 58 c3 72 3d 66 25 cd 3d
       0.04009985 -0.106194936 0.059268326 0.10016899
000190 89 e8 b0 3d bc f5 0f 3e ba 31 b5 3c 94 4b 19 3e
       0.086381026 0.14058584 0.022118438 0.14970237
0001a0 27 88 35 bd 05 c1 64 bd 02 2a b2 3b 85 06 94 3c
       -0.044319298 -0.05584814 0.0054371366 0.018069515
0001b0 62 75 97 3d a8 69 da bd b0 ca de bd 58 eb 24 3d
       0.07395436 -0.106646836 -0.10878503 0.040263504
0001c0 c2 54 29 3d 2e ad 33 bc 0a 5d a9 3d d5 99 f1 bd
       0.041340597 -0.010966582 0.08269699 -0.11796919
0001d0 1c 0c 07 3d df 51 73 bb e6 a2 06 be 94 63 45 3d
       0.032970533 -0.0037127656 -0.13148078 0.04819067
0001e0 11 41 35 3e f0 b6 6a bc 0a 9d 22 be 4d 0d 0d 3c
       0.17700602 -0.014325842 -0.15880218 0.008609128
0001f0 0a f6 e9 bd 73 f6 1b be 3e 58 f4 3d a7 84 c4 3d
       -0.11423881 -0.15230732 0.11930893 0.09595614
000200 a8 48 4d bd a9 12 bd bd bc 65 9a bc f1 00 b7 bd
       -0.05011812 -0.09232075 -0.018847339 -0.089357264
000210 44 dc b9 bd bf f8 77 3c 70 97 82 bd 9e 5a 06 3e
       -0.090752155 0.015134989 -0.06376541 0.13120505
000220 da 40 27 3b 20 9c ce bd ea cf 55 bc 41 e4 bd bd
       0.0025520832 -0.10088372 -0.013050059 -0.092720516
000230 af 38 5a 3c 5e 74 22 3e b1 ca f8 bc d9 e3 bc 3d
       0.0133191785 0.15864703 -0.030370088 0.09223146
000240 e8 f8 60 bc 7a 67 05 3d 33 26 8c 3c f9 2b e6 3d
       -0.013731219 0.032569386 0.017108059 0.11238856
000250 9d 88 f5 bd aa 03 9a bd 89 c3 82 bd bf 27 a0 bd
       -0.119889475 -0.0752023 -0.063849516 -0.07820081
000260 2c 00 e9 bc 66 14 ff bd 2c db 41 bd ea f5 58 3d
       -0.028442465 -0.124550626 -0.04732816 0.052968897
000270 cf 88 fd 3d 3a 87 c2 bd c0 91 03 be f6 49 34 3e
       0.1237961 -0.09498449 -0.12848568 0.17606339
000280 25 1a ac 3e 6a 4d 20 be ed a5 79 3e 90 5d 20 bd
       0.33613697 -0.15654531 0.24379702 -0.03915173
000290 68 83 00 be 11 01 f4 bd 7a 8f 8b 3e 73 0b b1 bd
       -0.12550128 -0.11914266 0.272579 -0.08644762
0002a0 c4 98 c9 3c d1 af bf 3d 81 20 26 be 80 71 51 bd
       0.024608977 0.09359706 -0.16223337 -0.051133633
0002b0 c9 69 3b bd 64 ac 86 3d 14 b5 83 3d 4c a6 1d be
       -0.04575518 0.0657585 0.06431022 -0.15395468
0002c0 4f 24 e9 bd 09 67 f9 3d f1 8a 4b 3c 6f f1 9a 3e
       -0.113838784 0.121778555 0.012423263 0.30262324
0002d0 6b 5f 28 bb 59 92 84 bd 45 c8 44 3d 42 c7 ba 3c
       -0.002569164 -0.06473226 0.048042554 0.022800092
0002e0 ec aa 17 3e c5 81 f1 bd 34 07 31 3e 19 6a b9 38
       0.14811295 -0.1179233 0.17287904 8.84125e-05
0002f0 db 17 d0 3d a6 dc c4 bd a3 47 24 3e 95 3a d2 bb
       0.101608 -0.09612398 0.16042952 -0.006415675
000300 84 24 15 3d 97 3b 2f bd 43 8d 74 be f5 45 8c bd
       0.036411777 -0.04278144 -0.23882012 -0.06849281
000310 ad d0 34 bc 58 6b fd 3c f6 ce 53 be 2c d7 f7 3a
       -0.01103608 0.030934975 -0.20684418 0.0018908731
000320 0f 57 ce 3d bb 50 b7 bd e3 0e df bd d4 43 15 3e
       0.10075199 -0.08950945 -0.10891511 0.14576656
000330 08 ba d1 3d e9 0a 9e 3e 30 6f 99 3d db f8 e0 3c
       0.10240561 0.308677 0.074919105 0.027462414
000340 a6 62 03 be 39 94 03 be 73 32 d8 bd 6d d4 a5 bd
       -0.128306 -0.12849511 -0.105564974 -0.080971576
000350 d2 e6 4e bd 7b cf af bd 95 6c 88 3d 77 bb cc bc
       -0.050513096 -0.08584496 0.066613354 -0.024991734
000360 0a 47 aa bd ba 32 49 3d 92 d6 4b bd 0e 9c 20 3c
       -0.08314331 0.049120642 -0.049765177 0.009802831
000370 57 87 03 3d 5e 4e d1 3d 71 a4 1c 3e 25 e7 ba bc
       0.032111492 0.102200255 0.15297104 -0.022815296
000380 9e 42 6a bc f6 1b 9a bd a5 74 07 bd a5 ad ed bb
       -0.014298109 -0.075248644 -0.033070225 -0.007253366
000390 39 16 56 3d 03 86 2a be 86 b3 e8 bd 80 cb 1f 3d
       0.052267287 -0.16652684 -0.113623664 0.039012432
0003a0 c5 ed 5f 3d 1f 89 0c 3d 04 a7 1f be 32 92 53 be
       0.054670114 0.034310456 -0.15591055 -0.20661238
0003b0 71 f0 61 bd 5c f2 47 3e e7 31 e1 bd 4d a4 7c 3e
       -0.055160943 0.19526047 -0.10995846 0.24672051
0003c0 65 a5 d3 bd a2 43 5c bd 8a 10 2c be 63 12 e6 3b
       -0.10334281 -0.053775437 -0.16803184 0.007021235
0003d0 dd 5a 24 3c c9 f9 ea 3d e4 21 88 bd c6 d0 a0 3d
       0.010031429 0.11473424 -0.06647089 0.078523204
0003e0 fa 19 28 3c 0f df 7f 3e 0d f4 30 be 83 36 b1 bd
       0.0102601 0.24987434 -0.17280598 -0.086529754
0003f0 4b e6 90 3b 40 fd e1 3c 6d 2f 60 3d 4b 26 5a be
       0.0044219843 0.02758658 0.05473273 -0.2130367

1.df.df.fc1.concat_imag_layer_1.bias f4 [76]
000000 1b 13 54 3d 56 92 84 3d 94 e1 f3 3c d7 83 01 bd
       0.051776033 0.06473224 0.02977065 -0.031619873
000010 48 76 29 bd 99 20 2b 3d 5f c3 d1 3d db 32 15 3b
       -0.041372567 0.041779134 0.10242342 0.0022765908
000020 f9 f4 4f bc 67 e4 0d 3e 59 28 a2 bd 05 fb 57 bc
       -0.012692683 0.1385666 -0.07917852 -0.013182406
000030 f4 c3 9d bd f8 97 9c 3d f9 95 0f be cf ab d1 bd
       -0.07703391 0.07646173 -0.14022054 -0.10237848
000040 6a 20 37 3c 3e 9d 08 3d 30 b6 15 3e e5 f0 88 bd
       0.011177162 0.033353083 0.1462028 -0.06686572
000050 4a 18 b2 3c 61 4a a1 bd 2b fc 3c bd ef cd 0d bc
       0.021740098 -0.07875515 -0.046138924 -0.008655055
000060 31 76 e3 bd 4c 9f c6 3c 31 5f 76 3d 90 62 86 bd
       -0.111065276 0.02424588 0.060149375 -0.06561768
000070 2b c2 20 3e 92 0c 8a 3d 30 24 9a bc f3 aa b4 3d
       0.15699069 0.06740679 -0.018816084 0.088216685
000080 30 44 b0 bc 89 73 35 bd 82 c0 b4 3d b3 aa 49 3d
       -0.02151689 -0.044299636 0.088257805 0.049235057
000090 75 41 f2 3d 6d 9b 37 3a de d4 e2 3d a0 9a d8 bd
       0.11828891 0.0007004056 0.110757574 -0.105763674
0000a0 21 79 a0 3d 71 17 21 3d 8e 80 58 3d e0 95 64 3d
       0.078356035 0.039328996 0.052856974 0.055806994
0000b0 36 00 29 3d 8f 07 40 bd 6b d7 55 bc 46 c5 2c 3c
       0.041259967 -0.04688221 -0.013051848 0.0105450805
0000c0 6a 47 b9 3c 1b 4b 97 bd 6b 64 c6 bd 63 f3 8e 3d
       0.02261706 -0.07387372 -0.09687122 0.06980016
0000d0 e3 d8 dc 3d f4 b4 26 bd 8f 7e 1d 3e 20 e2 13 3d
       0.10783555 -0.040699914 0.1538031 0.03610432
0000e0 fb d4 3a bd 68 fd f6 bd bd 9b 4b bd c8 b6 ef 3d
       -0.04561327 -0.12060052 -0.04970907 0.11704785
0000f0 52 cb 84 3c 89 0f c3 3c c8 f3 2a 3d 0f 8b 77 ba
       0.016210232 0.023811119 0.041736394 -0.00094430236
000100 83 aa b9 3c 6a ce 43 3d a4 5d 3b 3d 79 be 71 bd
       0.022664314 0.047804274 0.0457436 -0.05901954
000110 4d f3 68 3d 27 cd b2 3c 31 c5 1b 3e 92 40 0b 3d
       0.056872655 0.02182634 0.15211941 0.033997126
000120 ec 69 ef 3d 1f 27 3c 3c 49 e6 5d 3d 59 51 b0 3c
       0.11690125 0.011483937 0.054174695 0.021523165

1.df.df.fc2.weight_block_1.weights1 f4 [2, 76, 76]
000000 c4 a1 c7 bd ce 2e 04 3d 05 1c 8e bc 0f 56 a4 3b
       -0.09747651 0.0322712 -0.017347345 0.005015142
000010 1d d8 9e 3d 35 24 ba bc 73 94 96 3d 3e a2 24 3b
       0.07756064 -0.022722343 0.07352533 0.0025121118
000020 c8 7c 1c 3d a7 4e 00 bd 49 0d a9 3a 1a 5b 1f 3c
       0.03820494 -0.03132501 0.0012897636 0.00972631
000030 a2 e2 22 bd f4 1c 39 3d fe b6 4b 3d 5f 0c 8a 3d
       -0.039766915 0.045193627 0.04973506 0.06740641
000040 1f be 75 bb 5e 0e f5 3d 08 88 d2 3d 00 1b 9c bd
       -0.0037497354 0.11965631 0.10279852 -0.07622337
000050 a6 3a 6f bc de b3 8e bd 09 f6 90 3c 73 7f 6b 3c
       -0.014601385 -0.06967901 0.017695444 0.014373648
000060 5b af a9 3d ad 62 17 bd 2d 48 9b bd b1 53 f7 3d
       0.082853995 -0.03695934 -0.07582126 0.1207651
000070 88 97 8b bd db 84 bf bd 01 ff 5b bd b6 71 0f 3d
       -0.06816012 -0.09351512 -0.053709988 0.035020553
000080 f2 21 a0 bd fe 5a 78 3d 70 c3 68 bd e0 b3 a9 3c
       -0.078189746 0.060633652 -0.05682701 0.020715654
000090 67 98 8a bd ef 4c b6 3c a6 9d aa 3d 8d 69 bf bd
       -0.0676735 0.022253482 0.0833085 -0.09346304
0000a0 b8 ac 5d bd 2c fc a5 3d e9 9c 09 3d 90 6b 4c bd
       -0.054119796 0.081047386 0.033596907 -0.049907267
0000b0 90 85 99 3d 5e 74 59 3d 77 53 e3 3d c0 c0 55 bd
       0.07496178 0.053089492 0.11099904 -0.052185774
0000c0 d7 93 61 bd 27 f3 70 3c 9e 6c cb bb d2 3b 96 bb
       -0.05507263 0.01470641 -0.0062080165 -0.004584768
0000d0 0d 72 23 3d 95 69 ab 3c fc a4 a0 bd 2f 7f f7 3d
       0.03990369 0.020924369 -0.07843968 0.12084805
0000e0 6b 80 55 bd 4f f0 dd bc 7e ff 66 3d 0e d3 ac bd
       -0.052124422 -0.027092127 0.056396 -0.08438693
0000f0 80 3d 30 3c ab dd cb 3d c7 3f b1 bd 46 b9 08 be
       0.01075685 0.09954389 -0.08654743 -0.13351926
000100 eb 4d 92 3d ba 8c 30 3d 79 60 21 3d d9 e4 75 3d
       0.07143768 0.043102957 0.039398644 0.0600327
000110 23 82 97 3c 70 4e 87 3d 83 29 ed 3d 86 8c 8e 3d
       0.018494671 0.06606758 0.11580183 0.069603965
000120 34 d6 d3 bc a4 3e 7a 3d b0 6a eb 3c 36 5b ac bd
       -0.025858976 0.061094895 0.028737396 -0.084158346
000130 60 ab 42 3d 02 e4 e5 3d 01 85 93 bd 9f e6 0f 3e
       0.047526717 0.1122513 -0.07203103 0.14052819
000140 5d 21 70 3d ea 22 38 bd 66 08 2a bd f7 f3 37 be
       0.058625568 -0.04495517 -0.041511916 -0.17964159
000150 77 0e 0f bc 25 23 4a 3e 4b d0 0e 3d ee 5c 75 bd
       -0.008731476 0.19739969 0.034866612 -0.059903078
000160 fb fd 66 bd 33 c7 6f bd aa 58 eb 3b 51 8e aa 3d
       -0.05639456 -0.05853958 0.0071822004 0.08327926
000170 2f db 6a 3d a2 97 c8 3d e7 ee 85 3d 0f 25 af bd
       0.057337936 0.09794547 0.06539708 -0.0855199
000180 f9 62 fa bc 5d 26 3b bd b9 69 f7 3b 6d cd 99 3e
       -0.030564772 -0.045690883 0.007550445 0.3003954
000190 22 86 0f be a6 6f 31 3e da 22 39 bb 77 9c aa bd
       -0.14016011 0.17327747 -0.0028249533 -0.083306246
0001a0 9b 97 1a bb 8c 7b ca 3c 41 41 6b 3d e4 ae 8b 3d
       -0.00235889 0.024717115 0.057435278 0.06820467
0001b0 e0 f6 bf bb e8 f2 52 bd ee 0a cd bd e8 c7 20 3d
       -0.005858287 -0.051501185 -0.1001185 0.039253145
0001c0 47 f3 d1 bd fc 6f e2 3d c1 d9 81 3d 41 c8 84 bd
       -0.102514796 0.110565156 0.063403614 -0.06483508
0001d0 4e 3b 0e bd b5 f6 ce 3d 37 2d e9 bc 66 18 7f bd
       -0.034724526 0.101056494 -0.028463943 -0.062279128
0001e0 7c b5 3c 3d 3d f1 70 3d 0c df f3 bd 43 70 8d bd
       0.046071514 0.058823813 -0.11907777 -0.06906178
0001f0 30 f1 65 3c 8e 90 8a bd 76 b2 0e be 17 ba e2 bd
       0.014034554 -0.06765853 -0.13935265 -0.1107065
000200 7e 12 7c 3e 65 31 22 3e ec a8 37 3c d4 8b bd bd
       0.24616429 0.15839155 0.011209708 -0.09255186
000210 a4 8a 1d 3c 2d 18 26 3d 9a a2 9a bd 10 b1 30 be
       0.009615574 0.0405504 -0.07550545 -0.17255044
000220 1d 65 02 3d c2 ff 3a 3c 6e 2b ad bd b6 93 9f bd
       0.03183471 0.0114135165 -0.08455549 -0.077918455
000230 ab a3 8e 3d 5e 9d 0e be 92 1a ea 3c 83 ce eb 3d
       0.06964811 -0.13927218 0.028577123 0.11513998
000240 76 27 c0 bd 06 95 1a 3d c9 30 5d 3d 22 04 75 bd
       -0.093825266 0.037739776 0.054001603 -0.059818394
000250 df 83 78 3d f9 c9 79 3c 4b d8 c8 3c 67 bb a5 3d
       0.060672637 0.015245908 0.024517199 0.08092385
000260 6c 6e 3d 3d 8b 86 3d bd c3 ba 01 3c d2 8b 96 3d
       0.046247885 -0.04627089 0.007918063 0.07350887
000270 d3 3b f1 3d 7c 30 0a bd 24 9c 75 3e 88 e6 db 3d
       0.11778989 -0.033737645 0.23985344 0.1073733
000280 42 ee e5 3d 03 4f 1a bb 2f d9 1c be 20 69 33 3d
       0.11227085 -0.002354563 -0.15317224 0.043801427
000290 2d 37 dd 3c 87 99 ad bd 8c 90 e7 3d 36 24 43 3a
       0.027003849 -0.08476549 0.11306867 0.00074440555
0002a0 68 28 1b 3e 56 a5 a4 3d f2 ce 5b 3d 5a 23 3e 3e
       0.15152133 0.08039348 0.053664155 0.18568173
0002b0 d9 49 b4 bd 2d e6 de bd 95 f4 24 3c f7 13 90 bd
       -0.08803148 -0.10883746 0.0100680785 -0.07035058
0002c0 13 0d 57 3d de bd 1b bd 2d c5 d3 bd 2b 4c 2f bd
       0.052502703 -0.03802287 -0.10340343 -0.04279725
0002d0 2f af ac bc 1c 8a 83 bd d4 fb 88 3e a2 f1 02 bd
       -0.021079628 -0.06422827 0.2675463 -0.03196872
0002e0 ec e3 f4 bc c2 4b 72 bd 24 9c 29 be 53 8f b0 3d
       -0.029893838 -0.05915428 -0.16563469 0.08621087
0002f0 12 3a f8 3d 2e 91 80 bc 18 d7 81 3c 2c 45 cf 3c
       0.12120451 -0.015694227 0.015849635 0.025301538
000300 4b 70 42 3d eb ba d0 bc 4a ba 86 bd d8 61 62 bd
       0.047470372 -0.025479754 -0.065785006 -0.055269092
000310 bc a6 af bd f5 bc 18 be c3 fa 15 3b 5f e5 06 3e
       -0.08576724 -0.14915831 0.0022885061 0.13173436
000320 13 4a 95 3e e0 2c d4 bc 7f 84 e0 bc 99 84 1c 3e
       0.29158077 -0.025900304 -0.027406929 0.15284957
000330 7a 29 5c 3d f3 7b af bc 44 ae 64 3d 0b 00 14 3e
       0.053750493 -0.021421408 0.055830255 0.14453141
000340 4c 0b 33 3e a0 52 b9 3d fa 45 54 3d 32 19 41 bd
       0.17484778 0.090489626 0.051824547 -0.04714317
000350 5b 2a 1b 3d db fb 27 3d 6c 1c c7 3d 28 cb 8e bd
       0.03788219 0.041011672 0.09722218 -0.06972343
000360 57 19 82 3d 51 80 c3 3d ff c5 d9 3d 23 56 fc bb
       0.063524894 0.09545959 0.10633468 -0.007700698
000370 d3 97 0f 3e 92 b2 30 3d 13 65 45 3e c3 32 30 3d
       0.1402276 0.043139048 0.19276838 0.04301716
000380 37 9a b4 3d 7a ca 04 3d d1 d7 92 3d 25 39 e2 bd
       0.08818477 0.03241966 0.0717007 -0.11046056
000390 55 da df 3d 22 b1 25 bd 7c 17 ae 3d c0 56 1e bd
       0.109303154 -0.04045213 0.08500573 -0.03865695
0003a0 48 80 0c 3b 93 a2 43 3d 44 2c 1e bd 83 33 04 bd
       0.0021438766 0.047762465 -0.038616434 -0.032275688
0003b0 51 68 9f 3d e7 5e 40 3d 19 3d 8d 3d a7 91 28 bc
       0.07783569 0.046965506 0.06896419 -0.0102886325
0003c0 ed 9b eb bd 98 b9 dc 3c bc 5b df bc 2a 09 07 bd
       -0.1150435 0.026943967 -0.027265422 -0.032967724
0003d0 e7 2a a8 3d 4b 67 0f be 57 f6 e3 bc 8b 53 a5 3d
       0.08211308 -0.14004247 -0.027827425 0.08072575
0003e0 55 4a 88 3d 0e 64 bf 3d b1 a1 18 3c bd d6 dd bd
       0.06654803 0.09345256 0.009315894 -0.10831974
0003f0 34 0a 16 bd 4b 8f 83 bc 41 69 42 3e 8d bd 25 be
       -0.036630824 -0.016059538 0.18985464 -0.16185589
